outputs/lightning_logs/version_18/checkpoints/epoch=99-step=31299.ckpt (torch, 202753 bytes, 12 tensors)

encoder.0.weight f4 [64, 128]
0	0x3c8472c1	0.016168
1	0xb98bd420	-0.0002667019
2	0xbd39971d	-0.04531013
3	0x3b99a744	0.004689129
4	0xb9e5bf50	-0.00043820823
5	0x3d55f87d	0.05223893
6	0x3ca7d7cd	0.020488644
7	0xbe242a39	-0.16031732
8	0x3c906e5b	0.017630747
9	0xbcf2ac2f	-0.02962312
10	0x3b667453	0.003516455
11	0x3e206e06	0.1566697
12	0xbcd65229	-0.026162224
13	0x3d02ad32	0.031903453
14	0xbcdbe495	-0.026842395
15	0xbdc1c2bd	-0.094609715
16	0xbce58412	-0.028017078
17	0xbda6839a	-0.0813057
18	0x3da36263	0.0797775
19	0x3dae95dc	0.08524677
20	0xbcec9d51	-0.028883608
21	0x3d235044	0.03987147
22	0xbb40a480	-0.0029394925
23	0x3d86fbec	0.06591019
24	0x3d9c7cb0	0.0764097
25	0x3cbb5659	0.022868322
26	0xbb96c220	-0.004600778
27	0xbd86fbce	-0.06590997
28	0x3d6fd114	0.058549
29	0x3d5535b2	0.05205316
30	0xbd5ba2de	-0.05362212
31	0xbd1ce30b	-0.038302463
32	0x3d7782da	0.060427524
33	0xbe0fbfb0	-0.14037967
34	0xbd9abc0a	-0.07555397
35	0xbd2e73a2	-0.042590745
36	0xbd8cda41	-0.06877566
37	0x3c9c9202	0.01911259
38	0xbcbec0a3	-0.023285216
39	0xbd71ffa5	-0.059081692
40	0xbd8b63ca	-0.06806143
41	0xbe05d588	-0.13069737
42	0xbd7f7804	-0.062370315
43	0x3d0041d7	0.03131279
44	0xbd7d41b2	-0.06183023
45	0x3cb0cfed	0.021583522
46	0xbd607aba	-0.05480454
47	0xbd58661f	-0.052831765
48	0x3cf976ac	0.030452095
49	0xbd0670b9	-0.032822344
50	0x3d1ae3fd	0.037815083
51	0x3c98b28a	0.018639822
52	0x3bc3bfc9	0.0059737903
53	0x3d39a919	0.04532728
54	0xbdf8407c	-0.121216744
55	0x3caa1300	0.020761013
56	0x3d1fb64c	0.03899221
57	0xbcc85d0b	-0.024458429
58	0xbc59a1ed	-0.013283235
59	0x3aa81836	0.0012824598
60	0x3e0823f9	0.13294972
61	0x3ca1bf05	0.019744406
62	0xbdd27f8c	-0.10278234
63	0xbd196ac0	-0.03745532
64	0xbc851b70	-0.016248435
65	0xbe37d5c7	-0.17952643
66	0x3c901dad	0.017592276
67	0xbd978dd1	-0.07400096
68	0xbd79c703	-0.060980808
69	0xbb22111a	-0.0024729432
70	0xbd2aa35d	-0.0416597
71	0x3dda7f36	0.10668795
72	0xbde6e578	-0.112742364
73	0x3c653f50	0.013992146
74	0x3d9e6138	0.07733387
75	0xbdb22c0e	-0.08699809
76	0xbd69a590	-0.05704266
77	0x3cb173fe	0.021661755
78	0xbd45c8e1	-0.048287276
79	0x3db0a362	0.08624913
80	0xbd913e0d	-0.07091913
81	0x3da0a999	0.07844848
82	0xbc8ccff9	-0.017189013
83	0x3c0caafb	0.008585687
84	0xbd55c5ee	-0.052190714
85	0xbd60bf55	-0.05486997
86	0x3c71006d	0.014709574
87	0x3ce3c17f	0.027802227
88	0xbdcdfa53	-0.10057511
89	0xbc9c4ba9	-0.019079046
90	0x3c35efe9	0.011104562
91	0x3d8af1da	0.06784411
92	0xbd46fbfe	-0.048580162
93	0xbd71a081	-0.05899096
94	0x3d20a789	0.039222274
95	0xbb031a7d	-0.0020004802
96	0x3d0e8e8a	0.034803905
97	0x3d464000	0.04840088
98	0x3caaddda	0.02085774
99	0xbdd0e893	-0.1020061
100	0xbd1f3d6c	-0.038876936
101	0x3c901723	0.017589157
102	0xbbd42c37	-0.0064749974
103	0x3c199154	0.009373028
104	0xbc8fab74	-0.01753781
105	0x3e342732	0.17593077
106	0xbb9c2da3	-0.0047661825
107	0xbc1e3116	-0.009655258
108	0x3d1c4d61	0.03815973
109	0x3c9a555f	0.018839536
110	0x3b873ff3	0.0041274964
111	0x3ca71b74	0.020398833
112	0xbc123cad	-0.008925599
113	0x3de1e5c9	0.11030156
114	0xbe0c8660	-0.13723135
115	0x3e0c4f01	0.13702013
116	0x3d7c1fa5	0.061553616
117	0xbd29ee29	-0.041486893
118	0x3d0fc5d6	0.03510078
119	0x3c8819f8	0.016613945
120	0xbc09c4ea	-0.008408764
121	0x3d82e473	0.063912295
122	0xbc9f7177	-0.019463284
123	0x3d5de7ca	0.05417613
124	0xbd5edf07	-0.054411914
125	0xbd7df85b	-0.06200443
126	0x3d5bdb50	0.05367595
127	0xbd0e27ac	-0.034705803
128	0x3d68aab9	0.05680344
129	0xbd2d67e4	-0.042335406
130	0xbc0ff715	-0.008786936
131	0x3bc1548d	0.005899972
132	0xbd0525a5	-0.032506604
133	0x3cd67e69	0.026183324
134	0x3d95757e	0.072978005
135	0x3dc1a715	0.094556965
136	0xbc58a052	-0.013221817
137	0xbd4f49b6	-0.050607406
138	0x3cb7596f	0.022381512
139	0x3df9fecd	0.122068025
140	0x3caf2186	0.02137829
141	0x3dac4bec	0.084129184
142	0x3be0ca28	0.0068600364
143	0xbd72dfc2	-0.059295423
144	0x3db9ecd8	0.090783775
145	0x3d886830	0.06660497
146	0xbcb8d7f4	-0.022563912
147	0x3b10e9a3	0.0022111915
148	0xbdaad7ba	-0.08341928
149	0xbd8cbd0a	-0.06871994
150	0xbd8ae505	-0.06781963
151	0xbc7f3e3f	-0.0155788055
152	0xbcc30935	-0.023808101
153	0xbd5c589a	-0.053795435
154	0xbe18ea89	-0.14933218
155	0x3b859637	0.004076745
156	0x3d99a4e2	0.07502152
157	0x3d1043aa	0.03522078
158	0x3cd880a9	0.026428537
159	0xbb83eff5	-0.004026408
160	0xbd5d0e0d	-0.053968478
161	0x3cd5b51b	0.026087334
162	0x3c962640	0.018328786
163	0x3d9928fd	0.07478521
164	0x3c09f17d	0.008419392
165	0x3d234f4a	0.039870538
166	0x3b992253	0.004673281
167	0xbcaa922a	-0.02082165
168	0x3c2c7d81	0.010527969
169	0xbc5333a2	-0.012890728
170	0xbdda9988	-0.10673815
171	0x3bf0ad45	0.007344874
172	0xbc78a7ac	-0.015176695
173	0x3d61f8f2	0.055169053
174	0x3d4e7ac7	0.05041006
175	0xbbc4b9f2	-0.0060036117
176	0xbdfa33bc	-0.12216899
177	0xbd34ef1f	-0.044173356
178	0xbddf5abc	-0.10905978
179	0xbd73df86	-0.05953934
180	0xbd064825	-0.032783646
181	0x3cb70ade	0.022344049
182	0x3d9e85d7	0.07740372
183	0xbc1612cc	-0.009159755
184	0xbd448460	-0.047977805
185	0x3d403166	0.04692211
186	0x3bc18cd3	0.00590668
187	0x3cf0ba79	0.029385792
188	0xbcd575cb	-0.026057145
189	0xbc859200	-0.01630497
190	0x3db3085d	0.087418295
191	0x3adf5bca	0.0017040905
192	0xbd3cb5c5	-0.046071786
193	0xbdc1a4cf	-0.09455263
194	0xbd8f519d	-0.069979884
195	0x3ce03bb6	0.027372222
196	0xbd922630	-0.0713619
197	0x3b066f2b	0.0020513039
198	0x3d4eb7ab	0.05046813
199	0x3dec50da	0.11538859
200	0x3d7e98e8	0.06215754
201	0xbcdbc1e4	-0.026825853
202	0xbd6927d7	-0.05692276
203	0x3da38452	0.079842225
204	0x3c4caae8	0.012491919
205	0xbcf0adc3	-0.029379731
206	0xbd6113e6	-0.054950617
207	0x3d2dfc30	0.042476833
208	0xbd5ff17f	-0.054673668
209	0x3c455c18	0.012045883
210	0x3b22e50b	0.0024855759
211	0x3cd5a08a	0.026077528
212	0x3d0b9684	0.03407909
213	0xbd4276ad	-0.04747646
214	0xbd87c500	-0.06629372
215	0xbd4bc753	-0.049750637
216	0x3d5dcf4d	0.054152776
217	0xbc895b3e	-0.01676714
218	0x3cd5cfc3	0.026100045
219	0x3d23c4ae	0.03998249
220	0x3c838335	0.016053775
221	0xbd84c2d6	-0.064824745
222	0x3dd90792	0.10597147
223	0x3dd6334b	0.10459002
224	0xbd46a32c	-0.048495457
225	0x3d812fc1	0.063079365
226	0x3da520ba	0.08062883
227	0x3baba853	0.0052385717
228	0xbdcfe71e	-0.10151504
229	0xbd1e6145	-0.038666982
230	0xbc36d895	-0.011160036
231	0xbd3222c4	-0.043490186
232	0xbd4da17d	-0.050202835
233	0x3d1b4757	0.03790983
234	0xbbca30d9	-0.006170374
235	0x3c8e0dc3	0.017340546
236	0xbcb69493	-0.022287643
237	0x3da8bd27	0.08239203
238	0x3d683c60	0.056698203
239	0xbdbd6645	-0.09248022
240	0x3b2264a0	0.0024779215
241	0x3d55eb2d	0.052226234
242	0xbd13488a	-0.03595785
243	0xbd6eb2dd	-0.058276046
244	0xbc72b611	-0.014813916
245	0x3a04d344	0.00050668814
246	0x3c111109	0.008854159
247	0x39e2a086	0.00043225678
248	0xbcae2b7b	-0.021260967
249	0xbce2ec59	-0.02770059
250	0xbc322e4a	-0.010875294
251	0x3d350278	0.044191808
252	0x3e05da99	0.1307167
253	0x3cd10585	0.025515327
254	0xbcad9a50	-0.021191746
255	0xbc5c78a1	-0.013456495

encoder.0.bias f4 [64]
0	0x3dbd3b8d	0.09239874
1	0x3d1b8fbe	0.03797888
2	0xbcad3a0f	-0.021145849
3	0xbc4e04a0	-0.012574345
4	0x3db19dde	0.08672689
5	0xbd9dca2e	-0.07704578
6	0x3d4187d0	0.04724866
7	0xbb76f30f	-0.0037681495
8	0xbcb8643c	-0.022508733
9	0x3c67df60	0.014152378
10	0x3d80b7c6	0.06285052
11	0xbd7b5578	-0.061360806
12	0x3d867bc9	0.06566579
13	0x3d4defc1	0.050277475
14	0x3d67a6c4	0.056555524
15	0x3d003550	0.031300843
16	0xbca4ea66	-0.020131301
17	0x3c77fdca	0.015136192
18	0xbd9a5a79	-0.075367875
19	0xbd8c959b	-0.068644725
20	0xbd936a7f	-0.07198047
21	0xbbbd0b8b	-0.0057691983
22	0xbc2b638e	-0.010460747
23	0xba718d30	-0.0009214459
24	0x3dbf2860	0.09333873
25	0xbd9f25b1	-0.07770861
26	0x3c70112e	0.014652533
27	0xbe049ac6	-0.12949666
28	0xbdde02b3	-0.108403586
29	0xbc055c63	-0.0081397025
30	0x3bdf9db4	0.0068242196
31	0x3d411dd1	0.047147576
32	0x3caa2720	0.02077061
33	0xbd5d8e06	-0.054090522
34	0x3c8b57b4	0.017009594
35	0xbc7157bf	-0.014730393
36	0x3de9d9c3	0.11418488
37	0x3d32b5ca	0.0436304
38	0x3d566172	0.052339025
39	0x3d496c3d	0.04917549
40	0x3c4865c3	0.012231293
41	0xbc6d339e	-0.0144776385
42	0xbc0c1657	-0.008550248
43	0xb9af9e0e	-0.0003349636
44	0xbd1c5d7e	-0.0381751
45	0xbd50ead6	-0.051005207
46	0x3cad2ba2	0.02113897
47	0xbd0340e7	-0.032044318
48	0xbd7959c3	-0.06087662
49	0x3d29604e	0.04135161
50	0x3cafd093	0.02146176
51	0x3d3f811d	0.04675399
52	0x3d0ee7da	0.03488908
53	0xbdb7b503	-0.08970072
54	0xbc7c9e5f	-0.015418618
55	0xbd96308a	-0.07333477
56	0x3bf8f6c3	0.0075977757
57	0xbc856ddd	-0.016287738
58	0xbd288818	-0.041145414
59	0x3ce616c1	0.028087022
60	0x3d0333b4	0.03203173
61	0x3de230f3	0.110444926
62	0x3b65ccf4	0.0035064789
63	0xbda4031a	-0.08008404

decoder.0.weight f4 [128, 64]
0	0xbd37c59e	-0.044866197
1	0x3e5a73a1	0.21333171
2	0x3ecec4ad	0.40384427
3	0xbd3cda08	-0.04610637
4	0x3ecb7303	0.39736184
5	0x3de40860	0.1113441
6	0xbdf2b27f	-0.11850452
7	0x3e270f0c	0.16314334
8	0xbda602b3	-0.081059836
9	0xbe091b2d	-0.13389273
10	0xbe793fc7	-0.24340735
11	0xbda9ac17	-0.08284777
12	0x3e35e1f5	0.17761977
13	0xbadd6ffd	-0.0016894337
14	0x3e3111ea	0.1729199
15	0x3ed7e91e	0.42170042
16	0x3d40478c	0.046943232
17	0x3e9466e6	0.28984755
18	0x3e7bcc4e	0.24589655
19	0x3e0884e0	0.13331938
20	0x3e106511	0.14101054
21	0xbdeaf2e3	-0.11472108
22	0xbef19709	-0.47185543
23	0x3ead3482	0.33829123
24	0x3ec87897	0.39154503
25	0xbe160ee8	-0.14654124
26	0xbda19dc0	-0.078914165
27	0x3edf40f9	0.43604258
28	0x3e8e8bb1	0.2784095
29	0x3e238782	0.15969661
30	0x3da48077	0.08032315
31	0xbc9b80fa	-0.0189824
32	0x3e113e04	0.14183813
33	0xbe632bc1	-0.2218466
34	0xbe7c32be	-0.24628732
35	0xbe1ab863	-0.151094
36	0xbb8cf077	-0.0043011266
37	0xbe01c548	-0.12672913
38	0x3e838b51	0.25692227
39	0x3d14336a	0.036181845
40	0xbe3cd8ba	-0.1844205
41	0x3ea31db7	0.31858608
42	0xbe147dff	-0.14501189
43	0xbd947b40	-0.072500706
44	0x3db5dcd6	0.08880012
45	0x3e3622d1	0.17786719
46	0xbdeeb6a8	-0.11655933
47	0xbea97af9	-0.33101633
48	0xbdd7d8fd	-0.10539434
49	0x3e101d98	0.14073789
50	0xbca17294	-0.019707955
51	0xbcc21641	-0.023692252
52	0x3d2aa863	0.041664492
53	0xbde128ca	-0.10994108
54	0x3e9e1ae2	0.30879885
55	0x3eabb848	0.33539033
56	0xbdec3252	-0.11533035
57	0xbea4d6b8	-0.32195067
58	0xbc2639ff	-0.010145663
59	0xbe40fc8a	-0.18846336
60	0xbca4c81a	-0.020114947
61	0x3e55104c	0.20806998
62	0x3eed814c	0.46387708
63	0x3d9467ba	0.07246347
64	0xbd214a0e	-0.039377265
65	0xbde89c08	-0.113578856
66	0x3e4e84a9	0.20167793
67	0x3e513620	0.20430803
68	0x3d72376f	0.059134897
69	0xbbc42477	-0.0059857923
70	0xbcaf584c	-0.021404408
71	0xbd393488	-0.045216113
72	0xbd30efbc	-0.04319738
73	0xbe8bf9ae	-0.27338928
74	0x3e18dc75	0.14927848
75	0x3e87b011	0.26501516
76	0xbe86e289	-0.26344708
77	0x3d813d3c	0.06310508
78	0xbe880580	-0.26566696
79	0x3c5f79c1	0.013639868
80	0x3e9223bb	0.28542885
81	0x3d92d078	0.071686685
82	0x3de4e76d	0.111769535
83	0xbdb213a7	-0.08695155
84	0x3e21bb10	0.15794015
85	0x3dc3c332	0.09558715
86	0xbd8f141f	-0.0698626
87	0xbe544528	-0.20729506
88	0x3d907f95	0.07055584
89	0x3e127771	0.14303376
90	0x3dd75238	0.10513729
91	0xbc3e686f	-0.011621579
92	0x3d6f6d4e	0.05845385
93	0x3d64a241	0.0558188
94	0x3d72b84b	0.059257787
95	0x3d684899	0.05670986
96	0x3e4765df	0.19472454
97	0xba368ef4	-0.00069640507
98	0x3d1f4bf0	0.03889078
99	0xbe6159d7	-0.22006927
100	0xbe065b90	-0.13120866
101	0x3d187947	0.037225034
102	0x3e5bc3fb	0.2146148
103	0xbd84789a	-0.064683154
104	0xbd5cfd4e	-0.053952508
105	0x3dc78429	0.097420044
106	0x3b03e2e5	0.0020124253
107	0xbcaf6eb6	-0.021415096
108	0x3c64ed62	0.013972612
109	0xbd50a1dd	-0.050935615
110	0x3d897cd1	0.0671326
111	0x3d85fbf3	0.06542196
112	0xbc93d3c2	-0.01804531
113	0x3e0f885d	0.14016862
114	0xbe5de397	-0.2166885
115	0x3e209b55	0.15684254
116	0x3dc0d6e7	0.09415989
117	0xbcb8fcbe	-0.022581454
118	0x3e8382c9	0.2568572
119	0x3ebadf13	0.36498317
120	0x3dfa8a59	0.12233419
121	0xbe3317da	-0.17489567
122	0xbde07a8d	-0.10960875
123	0x3c50d8ee	0.012747033
124	0xbd74816a	-0.05969373
125	0xbca2e459	-0.019884275
126	0xbe19c331	-0.15015866
127	0x3cc96615	0.02458481
128	0xbdb1e88d	-0.08686934
129	0xbd41cf3b	-0.04731677
130	0x3e3c9b70	0.1841867
131	0x3c333cd4	0.0109397955
132	0x3d207662	0.0391754
133	0x3bdfbed0	0.0068281665
134	0xbe286e90	-0.16448426
135	0xbdb5699f	-0.08858036
136	0x3cd85d49	0.02641167
137	0xbe3c890e	-0.18411657
138	0x3b5a0fbf	0.0033273546
139	0x3e638589	0.22218908
140	0xbe0818b5	-0.13290675
141	0xbdaf0018	-0.0854494
142	0x3cdb001a	0.026733447
143	0xbda24e81	-0.0792513
144	0x3d86e9cc	0.06587562
145	0x3dda57be	0.10661267
146	0xbde0fb74	-0.10985461
147	0xbd068938	-0.032845706
148	0x3d714fae	0.05891388
149	0x3df6095b	0.12013503
150	0x3a64d3d1	0.0008729073
151	0x3d0bca2c	0.034128353
152	0xbca402e6	-0.020020913
153	0x3e4036be	0.18770882
154	0x3dd9ef57	0.106413536
155	0xbd609b7d	-0.054835785
156	0xbe3cb289	-0.18427481
157	0xbe15ed3e	-0.14641282
158	0xbe0e7dc8	-0.13915169
159	0xbda52599	-0.08063812
160	0x3ad8c869	0.0016539219
161	0x3e0985b7	0.13429914
162	0xbda9f791	-0.08299173
163	0xbd790079	-0.060791466
164	0x3e570b4e	0.21000406
165	0x3d42cb03	0.04755689
166	0x3d4a9e78	0.049467534
167	0x3d8d3886	0.068955466
168	0xbd6d0459	-0.057865474
169	0x3c87c685	0.016574154
170	0x3d621435	0.055195052
171	0xbd14a659	-0.036291454
172	0xbd781853	-0.060570072
173	0xbd6a9951	-0.05727512
174	0x3d4a5417	0.0493966
175	0x3d78d53f	0.060750242
176	0xbe0ad130	-0.13556361
177	0x3d9f8c5c	0.07790443
178	0xbcabbbd0	-0.02096358
179	0x3d524ab1	0.051340763
180	0x3da668e5	0.08125476
181	0xbc8f85a7	-0.017519785
182	0x3d7dbfb2	0.061950393
183	0x3e3b20dd	0.18274255
184	0x3e27fbe2	0.1640468
185	0x3d49caab	0.049265545
186	0xbd6464c7	-0.05576017
187	0x3d746517	0.05966672
188	0x3dcbfe71	0.0996064
189	0xbe34fef2	-0.17675379
190	0xbe8c373f	-0.273859
191	0x3e25c067	0.16186677
192	0xbd221e2d	-0.03957956
193	0x3b177403	0.002310992
194	0xbce89a68	-0.02839394
195	0x3d334347	0.043765333
196	0x3d9bdb56	0.076101944
197	0x3e2a0bc6	0.16606054
198	0xbe107d94	-0.14110404
199	0x3e41a1e3	0.18909411
200	0xbd486e4c	-0.048933312
201	0xbe1fb696	-0.15596995
202	0xbe3eaa6f	-0.18619703
203	0x3d489ea3	0.048979413
204	0xbd9d6aa7	-0.07686358
205	0xbe04d89c	-0.12973255
206	0x3e4aa3b5	0.19789012
207	0xbdedfd4f	-0.116205804
208	0x3d5c7c56	0.053829513
209	0x3dc6b5fc	0.097026795
210	0xbdd8aae3	-0.10579469
211	0xbbd6a113	-0.0065499633
212	0x3c827bda	0.015928198
213	0xbdda7683	-0.106671356
214	0x3d37b64e	0.044851594
215	0x3e2045ca	0.15651622
216	0xbd0b6315	-0.03403004
217	0xbaeaf2ff	-0.0017925202
218	0x3dbdae7a	0.092617944
219	0x3da7e629	0.081981964
220	0xbd219b3c	-0.039454684
221	0xbe573731	-0.21017148
222	0xbe5dca0c	-0.21659106
223	0x3c8e9db1	0.017409177
224	0xbdbb1b24	-0.09136036
225	0xbc8d2ffb	-0.017234793
226	0xbe171749	-0.14754976
227	0x3dcd1fa8	0.100158036
228	0x3e617e39	0.22020806
229	0x3e511d2c	0.20421284
230	0xbdcc7759	-0.09983701
231	0xbdf4ab8a	-0.11946781
232	0x3c14e664	0.0090881325
233	0x3db3ad16	0.08773248
234	0xbd8e235d	-0.06940339
235	0xbce1b7c9	-0.027553456
236	0xbd22b289	-0.039721046
237	0xbd60ac04	-0.054851547
238	0xbdd50fc5	-0.104033984
239	0xbd575b9a	-0.052577592
240	0x3c4a8a63	0.0123620955
241	0xbd6e80d3	-0.058228325
242	0xbccf8e8f	-0.025336532
243	0x3bf39333	0.007433319
244	0x3cefd08d	0.02927425
245	0x3da95ba5	0.08269433
246	0xbdc7db1c	-0.09758589
247	0x3da2f04b	0.079559885
248	0xbab7581a	-0.0013988048
249	0x3deb9575	0.11503116
250	0xbd2691f9	-0.040666554
251	0xbd94ee34	-0.07271996
252	0xbd9a5af6	-0.07536881
253	0xbe374b11	-0.1789973
254	0xbe6688df	-0.2251315
255	0x3d5908bb	0.05298684

decoder.0.bias f4 [128]
0	0x3f17efa6	0.5935005
1	0x3e538728	0.20657027
2	0x3e9725a0	0.29520893
3	0x3e26ef23	0.16302161
4	0x3ef186d1	0.4717317
5	0x3e357f0c	0.17724246
6	0x3f15e556	0.58553064
7	0x3e225d63	0.15855937
8	0xbe7bb8cf	-0.24582218
9	0x3e6a748f	0.22896026
10	0xbc14d52b	-0.009084026
11	0xbd253e96	-0.04034289
12	0xbe0d7ae0	-0.13816404
13	0x3eaa9899	0.33319548
14	0xbe9b5adb	-0.30342755
15	0x3d947a83	0.0724993
16	0x3e2245ca	0.15846935
17	0x3e8ec5a9	0.27885178
18	0x3e718ddc	0.23589271
19	0x3f0244b1	0.50886065
20	0x3e7e04f4	0.24806577
21	0x3dd65c0a	0.10466774
22	0x3e99c7de	0.300353
23	0x3e52899e	0.2056031
24	0x3ee2d9e9	0.44306877
25	0x3d963cf9	0.07335848
26	0xbc2db081	-0.010601164
27	0xbe2c077d	-0.16799732
28	0x3e73a110	0.23791909
29	0x3e11e6fe	0.14248273
30	0x3eb35f62	0.3503371
31	0x3d7d17fd	0.061790455
32	0x3e821f72	0.25414616
33	0x3ef1ab6d	0.472011
34	0x3d97dd24	0.07415226
35	0x3ea11cd8	0.3146732
36	0x3e79ae26	0.24382839
37	0x3d9a4127	0.07531958
38	0x3e533386	0.20625123
39	0xbd096555	-0.033543903
40	0x3e8c8ce1	0.27451232
41	0x3df281fa	0.11841197
42	0x3e3478ae	0.1762416
43	0x3dcbe1a1	0.09955145
44	0xbdc81908	-0.09770399
45	0x3e933aee	0.28755897
46	0xbe812108	-0.25220513
47	0x3de85415	0.113441624
48	0x3f21ce09	0.6320501
49	0x3e40afc1	0.18817045
50	0x3e2969e8	0.16544306
51	0x3db82132	0.089907065
52	0xbb9f71fe	-0.004865884
53	0x3d97f903	0.07420542
54	0x3f4f9414	0.81085324
55	0x3ee21a47	0.44160673
56	0x3e5f1395	0.21784814
57	0x3dbb782e	0.09153782
58	0x3edf70c0	0.4364071
59	0x3e0c10b2	0.13678244
60	0xbdbe8e73	-0.09304514
61	0xbe5fb917	-0.2184795
62	0x3db641be	0.08899258
63	0x3ca167b3	0.019702768
64	0x3e95f135	0.2928559
65	0xbdc015b9	-0.09379143
66	0x3e4e2e7e	0.20134923
67	0x3e94efea	0.2908929
68	0xbe1b443d	-0.1516275
69	0xbe6a6bbe	-0.22892663
70	0x3dbc138a	0.09183414
71	0x3e16ffac	0.14745969
72	0x3f232c06	0.6373905
73	0x3ec02f66	0.37536162
74	0xbe899202	-0.26869208
75	0xbc36deeb	-0.011161546
76	0x3d3dcd24	0.046338215
77	0x3e247a22	0.16062215
78	0x3f0c7aa3	0.5487463
79	0x3f0496b3	0.5179245
80	0x3e72c57c	0.23708147
81	0x3ec5ddda	0.38645822
82	0x3f57f07d	0.8435133
83	0x3eb43439	0.35196093
84	0x3de322a3	0.11090591
85	0x3e8f4708	0.2798388
86	0xbe38d1de	-0.18048808
87	0x3e3629ed	0.17789431
88	0x3e9cb7bb	0.30608925
89	0x3dba3a66	0.0909317
90	0xbe264870	-0.1623857
91	0x3de121c5	0.10992769
92	0x3eabf5e1	0.33586028
93	0x3ead1d51	0.3381143
94	0xbe34d81b	-0.17660563
95	0xbd801743	-0.06254437
96	0x3e95bb3d	0.29244414
97	0x3e1eb69c	0.15499347
98	0x3e4dc3df	0.2009425
99	0xbe989a14	-0.29805052
100	0x3e5fa728	0.21841109
101	0x3e8a11fa	0.2696684
102	0x3e24c24b	0.16089742
103	0x3d3924dd	0.04520117
104	0x3d2d8764	0.042365447
105	0xbe177b30	-0.14793086
106	0x3ede13f0	0.43374586
107	0x3efb7392	0.4911161
108	0x3e963a62	0.29341418
109	0x3e646e0d	0.22307606
110	0x3e99d87d	0.3004798
111	0x3e82c582	0.25541312
112	0x3d768122	0.060181744
113	0x3de8a1ef	0.113590114
114	0xbccd6ef4	-0.02507732
115	0x3eadeb76	0.33968705
116	0x3e67e042	0.22644141
117	0x3e6f5fbb	0.23376362
118	0x3e27ac03	0.16374211
119	0x3c817cc1	0.015806558
120	0x3e1e637b	0.15467636
121	0x3eec3d9a	0.46140748
122	0x3ee17064	0.4403106
123	0x3e0788f5	0.13235839
124	0x3e169e55	0.14708836
125	0xbd9aebf4	-0.07564536
126	0x3f0d3690	0.5516138
127	0x3d6bcecb	0.05757026

exp_avg f4 [64, 128]
0	0x3d8203dc	0.06348392
1	0x3d1b88bf	0.037972208
2	0x3d042670	0.03226322
3	0x3c96512d	0.018349255
4	0x3b439ffe	0.0029850001
5	0xbd8edbc4	-0.06975511
6	0xbc38e626	-0.01128534
7	0x3cf7d347	0.030252112
8	0x3db4313d	0.08798454
9	0x3ceca258	0.028886005
10	0x3d0ef3f5	0.034900624
11	0xbc87976e	-0.0165517
12	0x3d706f58	0.058699936
13	0x3cee246a	0.029070098
14	0x3e00a280	0.12561989
15	0x3cfc3f33	0.030791854
16	0x3e0da18a	0.13831154
17	0x3ccd264c	0.025042675
18	0x3dbc0831	0.0918125
19	0x3d85a594	0.06525722
20	0x3c56c019	0.013107323
21	0x3d8dce3a	0.069241
22	0x3e176698	0.1478523
23	0x3df008c5	0.11720423
24	0x3e1eed72	0.15520266
25	0x3ca9f6a3	0.020747488
26	0x3db2e1ed	0.08734498
27	0x3d35f567	0.044423487
28	0x3da56109	0.080751486
29	0x3ce66cf0	0.028128117
30	0x3cb92827	0.022602154
31	0x3d8ba506	0.06818585
32	0x3dafacb1	0.0857786
33	0x3d800d1d	0.06252501
34	0x3c587c53	0.013213235
35	0x3d1965d6	0.037450634
36	0x3db9ffb9	0.09081978
37	0x3e06178b	0.13094918
38	0x3c687d00	0.014189959
39	0xbd2289fb	-0.03968237
40	0x3d20ab0c	0.039225623
41	0xbd0183d9	-0.03161988
42	0x3ce60c93	0.028082168
43	0x3d83b675	0.06431285
44	0x3dd888d9	0.105729766
45	0x3e19792e	0.14987633
46	0x3e2f0d2e	0.17094871
47	0x3c9246ba	0.01785599
48	0x3e437c9f	0.19090508
49	0x3c806770	0.015674323
50	0x3da19f2c	0.07891688
51	0x3d0b6235	0.034029204
52	0x3c0b85ee	0.008515818
53	0x3d121d6a	0.035672583
54	0x3e66714c	0.22504157
55	0x3e851c1f	0.25998017
56	0x3e54b5c5	0.20772465
57	0x3cd02eee	0.025413003
58	0x3d8ff325	0.07028798
59	0xbd29a6d0	-0.04141885
60	0x3dc49f41	0.09600688
61	0x3da23276	0.07919781
62	0x3ce5d10c	0.028053783
63	0x3e2a879d	0.16653295
64	0x3dd6ba2b	0.104847275
65	0x3d17af0e	0.03703218
66	0x3cd6db9b	0.026227763
67	0x3dcd4c31	0.10024298
68	0x3dc7723e	0.09738587
69	0x3de7c3f9	0.11316676
70	0x3d0bfd6a	0.03417722
71	0x3cd76b1c	0.02629619
72	0x3c512ffe	0.01276779
73	0x3ca928e2	0.020649377
74	0x3e2dc39d	0.16969152
75	0x3e0b025a	0.13575116
76	0x3d7fe410	0.062473357
77	0x3da6fb12	0.081533566
78	0xbd010af8	-0.0315046
79	0x3d928233	0.0715374
80	0x3e7a9506	0.2447091
81	0x3e9ef602	0.31047064
82	0x3e617994	0.22019035
83	0x3d775500	0.060383797
84	0xbce80795	-0.028323928
85	0xbd8cefc2	-0.06881668
86	0xbcc7375c	-0.02431839
87	0x3c9d2087	0.01918055
88	0x3e3283db	0.17433111
89	0x3de0e667	0.10981446
90	0x3dde30ff	0.10849189
91	0x3d815018	0.06314105
92	0xbcc65f4d	-0.024215365
93	0x3bbb2753	0.005711475
94	0x3caaf739	0.020869838
95	0x3d8c82ec	0.06860909
96	0x392a7190	0.00016254769
97	0x3d2c366c	0.04204409
98	0x3d27ef8d	0.040999938
99	0x3d574bad	0.052562404
100	0x3d572b9b	0.05253182
101	0x3ce7beb1	0.028289171
102	0xbb35a627	-0.0027717443
103	0x3cd5232d	0.02601775
104	0x3d6b929e	0.057512872
105	0x3e213adc	0.1574511
106	0x3e0f623c	0.14002317
107	0x3ce24ab2	0.027623508
108	0x3ad6bc46	0.0016383014
109	0xbd15b11b	-0.036545854
110	0xbcf908ea	-0.030399758
111	0x3db0171a	0.08598156
112	0x3da5ade8	0.080898106
113	0x3e69b84d	0.22824211
114	0x3e47824d	0.194833
115	0x3d2c93af	0.04213303
116	0xbc87f0ab	-0.016594252
117	0xbb8e72c4	-0.004347177
118	0xbc295f82	-0.010337712
119	0x3c64018d	0.013916385
120	0x3de15b32	0.11003722
121	0x3d94e89e	0.07270931
122	0x3d7cd671	0.061727945
123	0x3dc6f47f	0.09714603
124	0x3cc00169	0.023438172
125	0x3c6a5183	0.0143016605
126	0x3be1c12c	0.006889483
127	0xbcafda55	-0.021466414
128	0xbc305e3c	-0.010764655
129	0x3bd849a8	0.0066005774
130	0x3c8d5dfe	0.017256733
131	0xbb843f63	-0.0040358766
132	0x3abf31bd	0.0014586967
133	0x3c3f8e51	0.011691646
134	0x3cf4935e	0.029855426
135	0x3d261d5f	0.040555354
136	0x3c68e95e	0.014215795
137	0x3c1acf7a	0.00944888
138	0x3b4cd07e	0.00312522
139	0x3c5a2f9d	0.013317016
140	0xbbbf5201	-0.005838633
141	0x3d89a2c3	0.067204975
142	0x3dcc9166	0.0998867
143	0xbcd00cd1	-0.025396736
144	0x3ca6d6a7	0.020366026
145	0x3d1eee8f	0.038801726
146	0x3b64e17f	0.0034924445
147	0x3c98526d	0.018593991
148	0x3cfff1fa	0.031243313
149	0x3d447d51	0.047971074
150	0x3e0893d4	0.13337642
151	0x3c3d4e8b	0.011554371
152	0x3d6ee29b	0.058321577
153	0x3c99e1a3	0.01878435
154	0x3d136bf9	0.035991643
155	0x3d195f3a	0.03744433
156	0x3d8c9ba3	0.06865623
157	0x3cbe88fa	0.023258675
158	0x3d044873	0.032295655
159	0x3d160891	0.036629263
160	0xbc9470fc	-0.018120281
161	0x3d108524	0.035283223
162	0x3cf17813	0.029476201
163	0x3c50d15d	0.012745229
164	0x3d3aa203	0.045564663
165	0x3e0482fb	0.1294059
166	0x3cf04a8f	0.029332427
167	0x3b7f707b	0.0038976956
168	0xbccc2577	-0.024920208
169	0xbd16073d	-0.036627997
170	0x3bdcdaf6	0.0067399694
171	0x3c8f8545	0.017519603
172	0x3c893aac	0.01675161
173	0x3e100829	0.14065613
174	0x3e0f2887	0.13980304
175	0x38bcc961	9.002048e-05
176	0x3d95e351	0.07318748
177	0x3c6c7a04	0.014433388
178	0x3c22ab71	0.00992857
179	0xbc2d199b	-0.010565187
180	0x3d18fdbe	0.037351362
181	0x3d934d78	0.0719251
182	0x3e40e88c	0.1883871
183	0x3e01275e	0.12612674
184	0x3e080677	0.13283716
185	0x3cd7701d	0.026298577
186	0xbc5cd310	-0.013478056
187	0x3b3f9cd7	0.002923777
188	0x3d5ca579	0.053868745
189	0x3d847c25	0.06468991
190	0x3c1bb7f1	0.009504304
191	0x3de885b6	0.11353628
192	0x3d0a1d7f	0.033719536
193	0xbbfc6e21	-0.007703558
194	0xbd364993	-0.04450376
195	0x3cfd486f	0.030918328
196	0x3d668c93	0.056286406
197	0x3dc3e78c	0.095656484
198	0x3cbc6368	0.02299662
199	0x3d15f753	0.03661282
200	0xbd4b72b3	-0.049669933
201	0x3b925497	0.0044656503
202	0x3d8e0dcf	0.069362275
203	0x3dc183ae	0.09448944
204	0x3ca54539	0.02017461
205	0x3cdc62aa	0.026902515
206	0xbb853ceb	-0.0040661
207	0x3c5ad2b5	0.0133559005
208	0x3d8a3b06	0.06749539
209	0x3e05afc5	0.13055332
210	0x3e15ddde	0.14635417
211	0xbbdce86a	-0.006741573
212	0x3c82c797	0.015964312
213	0x3ccdb2fb	0.025109759
214	0x3bc0df07	0.005885962
215	0x3cf7828e	0.03021362
216	0x3e23d187	0.15997897
217	0x3de32705	0.11091427
218	0xbad62d5f	-0.0016340426
219	0xbd2fdc05	-0.042934436
220	0x3ab04d87	0.0013450839
221	0x3d4466cb	0.047949594
222	0xbb383998	-0.00281105
223	0x3d0c8067	0.03430214
224	0xbd051bc8	-0.032497197
225	0x3d07e17b	0.03317402
226	0x3c7a12fd	0.015263316
227	0x3aa118e6	0.0012290746
228	0x3c2574e7	0.0100986725
229	0x3d1da3ac	0.038486168
230	0x3c46ad73	0.012126314
231	0x3c063060	0.008190244
232	0xbd056e40	-0.032575846
233	0x3d766d3b	0.060162764
234	0xbbb86280	-0.0056269765
235	0x3cf02430	0.02931413
236	0xbb9fcedd	-0.004876955
237	0x3d4f365b	0.050588947
238	0x3d83a22e	0.06427418
239	0x3d5813e7	0.052753355
240	0x3d56ef94	0.052474573
241	0x3dad1e6f	0.0845307
242	0x3d4b43e2	0.049625285
243	0x3c066b66	0.008204317
244	0xbd46572a	-0.04842297
245	0x3dc07f88	0.09399325
246	0x3d88018a	0.066409186
247	0xbc1e8f26	-0.009677684
248	0x3d98bcc2	0.07457878
249	0x3d672fc5	0.05644204
250	0x3d0077f4	0.031364396
251	0x3d2a6837	0.041603293
252	0xbc3552fe	-0.01106715
253	0x3c257850	0.0100994855
254	0x3d328160	0.043580413
255	0xbbe15cf1	-0.0068775346

exp_avg_sq f4 [64, 128]
0	0x401106b2	2.2660336
1	0x3f7e0b80	0.992363
2	0x3ee26801	0.44219974
3	0x3ec8ec93	0.39242992
4	0x3eee3704	0.4652635
5	0x3f2ec896	0.6827482
6	0x3f50725c	0.814245
7	0x3f8136d4	1.0094857
8	0x40568f9b	3.352515
9	0x408051b0	4.0099716
10	0x40b6ba7a	5.7102633
11	0x3fedbcf3	1.8573288
12	0x3f76cc99	0.9640594
13	0x405564b3	3.3342712
14	0x4081664f	4.043739
15	0x3ff450b6	1.9087131
16	0x406d61bc	3.7090902
17	0x3fdffb46	1.7498558
18	0x40bd19d8	5.9094048
19	0x40742922	3.8150105
20	0x3f73e7a1	0.9527531
21	0x3fc121bf	1.5088423
22	0x4066b01f	3.6044996
23	0x40850167	4.156421
24	0x4008299b	2.1275394
25	0x3f4c1f34	0.7973511
26	0x3f7492b2	0.9553634
27	0x3f72bc12	0.9481822
28	0x3f2cea68	0.67545176
29	0x3eb19b09	0.34688595
30	0x3eba1fb1	0.36352304
31	0x3f8b35d3	1.0875801
32	0x41345a34	11.272022
33	0x40177814	2.366704
34	0x3f2db8d2	0.6786014
35	0x3f8d847e	1.1056058
36	0x400d333f	2.2062528
37	0x4035e60a	2.8421655
38	0x3fdfafe8	1.7475557
39	0x400d8908	2.2114887
40	0x416226d7	14.134482
41	0x40fb5158	7.8536797
42	0x40b1c23b	5.55496
43	0x3ff0c1e9	1.8809177
44	0x403cfa66	2.952783
45	0x40c844a7	6.2583804
46	0x40960d90	4.6891556
47	0x402edfcd	2.7324097
48	0x41351b2e	11.319136
49	0x3fedf453	1.8590187
50	0x40ec1e71	7.378716
51	0x4107fcae	8.499189
52	0x405197dc	3.2748938
53	0x3fcd9556	1.6061199
54	0x403a9bac	2.9157515
55	0x40fc8bb8	7.8920555
56	0x40fb8813	7.8603606
57	0x3fa8bc13	1.3182396
58	0x4006f3cf	2.108631
59	0x40752089	3.8301108
60	0x4060458e	3.5042453
61	0x3fb868e9	1.4407016
62	0x3f30f5b3	0.6912491
63	0x402b95fb	2.681029
64	0x412b2e0d	10.698743
65	0x3fab7f14	1.3398156
66	0x3feeb005	1.8647467
67	0x4027b34c	2.6203184
68	0x400bcb8b	2.1842983
69	0x3f91e595	1.1398188
70	0x3f37d4cf	0.71809095
71	0x4047d583	3.1224067
72	0x416f3db7	14.952567
73	0x3ff2ab27	1.8958482
74	0x40a53dbf	5.1637874
75	0x40b18c1d	5.5483537
76	0x4026506e	2.598659
77	0x3fed76b4	1.855185
78	0x4094e77e	4.6532583
79	0x41251bdb	10.319301
80	0x412a8636	10.657766
81	0x40baa57c	5.8327007
82	0x4079b374	3.901578
83	0x3fd89690	1.6920948
84	0x40509cfe	3.259582
85	0x4110987a	9.037226
86	0x40e79a7e	7.237609
87	0x4026d878	2.6069622
88	0x4104e41c	8.305691
89	0x40001341	2.0011752
90	0x3f367a53	0.712804
91	0x3fa81397	1.3130978
92	0x40535f1a	3.3026795
93	0x408ea61a	4.457776
94	0x4011f5ed	2.280635
95	0x3ff84bd3	1.939814
96	0x40135bf1	2.3024867
97	0x3f487abb	0.7831227
98	0x3f825f31	1.01853
99	0x3f3b4bc4	0.73162484
100	0x3f0032c5	0.5007747
101	0x3e9db1e6	0.30799788
102	0x3ea6b867	0.32562563
103	0x3f89b0b1	1.0757047
104	0x407fcb31	3.9967768
105	0x3fe3d488	1.7799234
106	0x4092e002	4.5898447
107	0x4037b094	2.8701525
108	0x3f5acf50	0.85472584
109	0x3fe05304	1.7525334
110	0x40a4afbd	5.1464524
111	0x409b354a	4.850255
112	0x4035096d	2.8287003
113	0x404d1f9a	3.2050538
114	0x4088db4f	4.276771
115	0x3fe80d7b	1.8129114
116	0x3f847369	1.034772
117	0x408817a5	4.2528863
118	0x40b01204	5.502199
119	0x3fdaf6d7	1.710658
120	0x4006d886	2.1069655
121	0x3f58c3ae	0.84673584
122	0x3ec58586	0.38578433
123	0x3ed1088c	0.40826833
124	0x3f1910bb	0.59791154
125	0x3f5baee9	0.85813767
126	0x3f7ba09e	0.9829196
127	0x3f64d988	0.89394426
128	0x3fb01f2a	1.375951
129	0x3f1369e0	0.5758343
130	0x3e84ff7c	0.2597617
131	0x3e73a871	0.23794724
132	0x3e95b169	0.29236916
133	0x3ed4308b	0.41443285
134	0x3f00f8a2	0.50379384
135	0x3f242b71	0.64128786
136	0x3ff7ab67	1.9349183
137	0x400e1302	2.2199101
138	0x40456489	3.0842612
139	0x3f88656f	1.0655955
140	0x3f14c30b	0.5811011
141	0x4002edbb	2.04576
142	0x401f19f9	2.4859602
143	0x3f992cea	1.1966832
144	0x401132c7	2.2687242
145	0x3f8a21eb	1.0791601
146	0x404e80e2	3.2266164
147	0x400241a3	2.0352561
148	0x3f17eefc	0.59349036
149	0x3f6f333f	0.9343757
150	0x400eb26d	2.2296402
151	0x4024d006	2.5751967
152	0x3fa40b0f	1.2815875
153	0x3f044755	0.51671344
154	0x3f0a36b5	0.53989726
155	0x3f0983da	0.53716815
156	0x3ed9daee	0.42549843
157	0x3e61ee2c	0.22063512
158	0x3e6eb285	0.23310287
159	0x3f24d9c3	0.6439478
160	0x40c8d07b	6.2754493
161	0x3faabd36	1.3338993
162	0x3ec7346b	0.3890718
163	0x3f2f6a88	0.6852193
164	0x3fabacfb	1.3412164
165	0x3fd8ade3	1.6928066
166	0x3f8942bd	1.0723492
167	0x3fae31a5	1.36089
168	0x40f75857	7.7295337
169	0x4089068f	4.2820506
170	0x404048ce	3.0044436
171	0x3f8cd1ba	1.1001503
172	0x3fe3c12e	1.7793329
173	0x40739eec	3.8065748
174	0x4038ec12	2.8894086
175	0x3fd06a2e	1.6282403
176	0x40dbef0d	6.872931
177	0x3f8e5e34	1.1122499
178	0x407cedfe	3.952026
179	0x40902bb3	4.5053344
180	0x3fea850c	1.8321853
181	0x3f761d03	0.9613802
182	0x3fe68dc5	1.8012015
183	0x409809db	4.751203
184	0x40991594	4.783884
185	0x3f52de5b	0.8237054
186	0x3f95e93d	1.1711804
187	0x4006e9c2	2.1080174
188	0x3ff897de	1.9421346
189	0x3f4f0cf6	0.8087915
190	0x3edb678e	0.42852443
191	0x3fce8a53	1.6135963
192	0x40bdad05	5.9273705
193	0x3f4eddad	0.80807
194	0x3f93f265	1.1558348
195	0x3fd06abb	1.6282572
196	0x3fae88bd	1.3635479
197	0x3f2c76fe	0.6736907
198	0x3ecf85fa	0.40531904
199	0x3fe72e42	1.8060992
200	0x41024816	8.142599
201	0x3f961c5a	1.1727402
202	0x404a285a	3.1587129
203	0x405991aa	3.3995156
204	0x3fceb0e0	1.6147728
205	0x3f837461	1.0269891
206	0x401eb703	2.4799201
207	0x40b68132	5.703271
208	0x40d0df92	6.5272913
209	0x40628af2	3.5397305
210	0x40161964	2.3452997
211	0x3f84aa0c	1.0364394
212	0x3fee2e07	1.8607796
213	0x4099adf4	4.8024845
214	0x407512fc	3.8292837
215	0x3fcaf72a	1.5856678
216	0x40a45b5b	5.136152
217	0x3f9ba3a2	1.2159312
218	0x3ee2f470	0.44327116
219	0x3f5136b9	0.81724125
220	0x3ff03736	1.8766849
221	0x40191f86	2.392549
222	0x3fa61885	1.2976233
223	0x3f9a7478	1.2066793
224	0x3faf9236	1.3716495
225	0x3ef7afb1	0.4837623
226	0x3f299b8a	0.6625296
227	0x3eee837e	0.46584696
228	0x3ea0cd8d	0.31406823
229	0x3e3c3ca9	0.18382515
230	0x3e3f1d94	0.18663627
231	0x3f234cfa	0.6378933
232	0x401484f2	2.3206143
233	0x3f8d0df5	1.1019884
234	0x40355fa1	2.8339617
235	0x3fe745c4	1.8068166
236	0x3f0ada49	0.54239327
237	0x3f7b9d8a	0.9828726
238	0x402fb39a	2.745337
239	0x402ce6c1	2.701584
240	0x3fdaca00	1.7092896
241	0x40018224	2.0235682
242	0x40289067	2.6338136
243	0x3f8bf32f	1.0933589
244	0x3f20c97a	0.6280743
245	0x4015bac8	2.3395252
246	0x4041fdf6	3.0311255
247	0x3f82a038	1.0205145
248	0x3faa3ec2	1.3300402
249	0x3f03ce40	0.5148659
250	0x3e74648a	0.23866478
251	0x3e86c976	0.26325577
252	0x3ec4862f	0.38383624
253	0x3f036bc3	0.51336306
254	0x3f13191e	0.574602
255	0x3f0eea73	0.5582649

exp_avg f4 [64]
0	0x3b1b9ed4	0.0023745792
1	0x3a9ca9d1	0.0011952465
2	0xbad0fba5	-0.0015944137
3	0x3a3c8908	0.000719205
4	0x3affb58f	0.0019509065
5	0x3a05ecf2	0.0005108855
6	0x3a0fde49	0.000548814
7	0xbae4fce9	-0.0017470393
8	0x3a92b4aa	0.0011192758
9	0x3b03f136	0.0020132787
10	0x3a3a5652	0.00071081996
11	0x38ace370	8.243963e-05
12	0xba00c94f	-0.000491281
13	0x39bd3b5e	0.0003609312
14	0xbaf2d27e	-0.0018525866
15	0x3a7084be	0.00091750536
16	0xba69e9be	-0.0008923075
17	0xbabfc34f	-0.001463035
18	0xba07286a	-0.00051558635
19	0x3567ea9f	8.6395625e-07
20	0xbb43b987	-0.0029865222
21	0x39a05f27	0.00030588472
22	0xba817eba	-0.0009879686
23	0x3ab2132e	0.0013586038
24	0x3a4194fd	0.00073845667
25	0xba8551c5	-0.0010171464
26	0xb8f65e5d	-0.000117477706
27	0xbb522109	-0.0032063148
28	0x3af0f458	0.0018383367
29	0x3902f808	0.00012490165
30	0x3a71c6d1	0.00092230464
31	0xba213a1c	-0.00061503216
32	0xb991215f	-0.0002768142
33	0x3a9d29af	0.0011990572
34	0x390c6f2c	0.00013392855
35	0x39c1cb75	0.00036963416
36	0x39e55f0f	0.00043749108
37	0xb9569167	-0.00020462797
38	0x39928de4	0.00027953007
39	0xbae6422f	-0.0017567332
40	0x39ddc49c	0.0004229889
41	0xbad0b87d	-0.0015924122
42	0x3b3d01a3	0.0028840087
43	0x38c75492	9.504812e-05
44	0xbac64f9d	-0.0015129928
45	0xbab14b8b	-0.0013526542
46	0x3a8f31ca	0.0010924872
47	0xba946cd1	-0.0011323934
48	0xbafb8008	-0.0019187937
49	0x3b344785	0.002750845
50	0xba974c4a	-0.0011543122
51	0xbb1d7d19	-0.0024030863
52	0xba7e99c1	-0.0009712242
53	0xbb18177b	-0.0023207355
54	0xbb7d51f5	-0.0038653587
55	0xbb7be532	-0.0038436172
56	0x3a35bcff	0.00069327647
57	0x3b1ff877	0.0024409571
58	0xbaff42dc	-0.0019474882
59	0x3b013646	0.0019716187
60	0x380563af	3.180251e-05
61	0x3a9496a6	0.0011336401
62	0xbaaebe3b	-0.001333184
63	0xbaa15076	-0.0012307304

exp_avg_sq f4 [64]
0	0x3b30a8e0	0.0026956126
1	0x3acfdae6	0.0015858083
2	0x3ae2821d	0.0017281208
3	0x3a681df9	0.0008854564
4	0x39903ca7	0.0002751101
5	0x397d8e7e	0.00024181043
6	0x39e96cc3	0.00044522257
7	0x3a6c50dd	0.0009014735
8	0x3985511a	0.00025428162
9	0x3a678b57	0.0008832714
10	0x39aaaba2	0.00032552803
11	0x3aa66ca7	0.0012697176
12	0x3abbbc6f	0.0014323125
13	0x3afd52a9	0.0019327003
14	0x3abac23e	0.0014248563
15	0x39e4eac7	0.00043662472
16	0x3a119be4	0.00055545405
17	0x39e3936e	0.00043406658
18	0x3a132c5c	0.0005614215
19	0x3a03ede5	0.00050327025
20	0x3b1392c9	0.002251791
21	0x3a00aa4e	0.000490819
22	0x3a035633	0.0005010098
23	0x3aa1f7eb	0.001235721
24	0x3a936639	0.0011245675
25	0x3aa08927	0.0012247906
26	0x39df6be1	0.0004261425
27	0x3b33e240	0.0027448088
28	0x3a255915	0.0006307525
29	0x3a8defc0	0.0010828897
30	0x3ae6a9ba	0.001759819
31	0x39825193	0.0002485631
32	0x3a7f5f05	0.0009741637
33	0x3a01d048	0.0004951996
34	0x398f6201	0.00027348104
35	0x3a22f36d	0.0006216083
36	0x39dd3434	0.000421913
37	0x39c94216	0.00038386945
38	0x3a1d8456	0.00060087943
39	0x3b1278e3	0.0022349886
40	0x398ef296	0.0002726509
41	0x3ace6630	0.0015747007
42	0x3a815cf9	0.0009869627
43	0x3a2f1aee	0.0006679733
44	0x3983b5f1	0.00025121824
45	0x3a1ec2c5	0.00060562446
46	0x39b3cb9e	0.00034293247
47	0x39bfa820	0.00036555622
48	0x3a9208d3	0.0011141546
49	0x3b045cfe	0.002019703
50	0x39aaa2f7	0.00032546345
51	0x3b2965f8	0.0025848132
52	0x39ad104e	0.0003300928
53	0x3b14e905	0.0022721898
54	0x3b3b3986	0.0028568222
55	0x39976897	0.0002887889
56	0x39c6fabf	0.00037952323
57	0x39f6ee6a	0.0004709841
58	0x3a2905da	0.00064477103
59	0x3a353f59	0.00069140416
60	0x39c7e744	0.00038128544
61	0x39c7bc59	0.00038096568
62	0x3a453a58	0.00075236475
63	0x3a8eb2da	0.0010887042

exp_avg f4 [128, 64]
0	0xbdd5c1fd	-0.10437391
1	0xbdd412a4	-0.10355118
2	0x3e958b11	0.29207662
3	0x3c831c69	0.016004758
4	0xbdfda59f	-0.12385105
5	0x3cee6afd	0.02910375
6	0x3c1b0221	0.009460957
7	0xbc71988d	-0.014745844
8	0xbe1f21ff	-0.15540312
9	0xbb7d5517	-0.0038655454
10	0xbd8e84ad	-0.069589
11	0x3d350397	0.044192877
12	0x3d065e7f	0.032804962
13	0xbe0b4692	-0.13601139
14	0x3e82ac22	0.25521952
15	0xbdde58da	-0.10856791
16	0x3d838103	0.064210914
17	0x3d39d516	0.04536923
18	0x3e07efca	0.13275066
19	0x3d17e1d6	0.03708061
20	0x3eb54024	0.35400498
21	0x3ddf286b	0.10896381
22	0xbd83c8ab	-0.06434759
23	0x3a95c92d	0.0011427753
24	0x3e24ed59	0.16106166
25	0x3e660284	0.22461897
26	0xbd61c03a	-0.055114962
27	0x3ea40ad3	0.32039508
28	0x3dc6950e	0.09696399
29	0x3e043d8f	0.12914108
30	0xbe19541d	-0.14973493
31	0x3dc5b04c	0.096527666
32	0xbe0b35d8	-0.13594759
33	0x3e64c568	0.2234093
34	0x3cfd4d95	0.030920783
35	0xbd0914d2	-0.03346712
36	0xbdac21b5	-0.084048666
37	0xbe0641eb	-0.13111083
38	0x3e244ccc	0.1604492
39	0x3d5216ac	0.051291153
40	0xbde7299e	-0.11287235
41	0x3ec48e5c	0.38389862
42	0xbd12331c	-0.035693273
43	0x3e109362	0.14118722
44	0x3d4cfdf8	0.05004689
45	0xbce49174	-0.027901389
46	0xbcbb8f8f	-0.022895603
47	0x3e058113	0.13037519
48	0xbd07a1d9	-0.033113334
49	0xbe8f4de0	-0.279891
50	0x3df617b6	0.12016241
51	0x3e844acb	0.25838313
52	0x3ddbe141	0.10736323
53	0x3e91114c	0.2833351
54	0x3ebe47d4	0.37164176
55	0xbe12837c	-0.1430797
56	0xbd5e0d3b	-0.054211836
57	0xbd762efe	-0.06010341
58	0x3dd577b1	0.1042322
59	0xbe86abd8	-0.2630298
60	0xbdd9f0db	-0.10641643
61	0xbd608a37	-0.054819312
62	0xbd42cdb8	-0.04755947
63	0xbcf7bc2a	-0.03024109
64	0xbe94a047	-0.29028532
65	0xbf126493	-0.57184714
66	0x3ee86881	0.4539223
67	0xbe225f64	-0.15856701
68	0xbdeb44cf	-0.114877336
69	0xbbe8fe75	-0.0071104118
70	0x3d39316d	0.04521315
71	0x3e2d46a8	0.16921484
72	0xbe8eb6cf	-0.27873847
73	0xbe1f71b9	-0.15570726
74	0x3d0332bb	0.032030802
75	0x3ec20514	0.378945
76	0xbcb8f2d3	-0.022576725
77	0xbd8b23cc	-0.06793937
78	0x3e92abfa	0.28646833
79	0x3e1e955b	0.15486662
80	0xbe09deb0	-0.13463855
81	0x3c59a004	0.01328278
82	0x3e856946	0.2605688
83	0xbe4db1cb	-0.20087354
84	0x3e8d1710	0.27556658
85	0x3e5e563a	0.2171258
86	0x3e2d8943	0.16946892
87	0xbe3a4811	-0.18191554
88	0x3e3cd7da	0.18441716
89	0x3d885a4e	0.06657849
90	0x3cf63fa9	0.030059652
91	0x3e691999	0.22763671
92	0xbddf3825	-0.108993806
93	0x3f242ed1	0.64133936
94	0xbe89ac1b	-0.2688912
95	0xbd617e74	-0.055052236
96	0xbd25e230	-0.040498912
97	0x3e7763f8	0.24159229
98	0x3e58bd67	0.21166001
99	0xbdcef04d	-0.101044275
100	0xbc47d244	-0.012196127
101	0xbd92ed77	-0.07174199
102	0x3e82cd06	0.25547045
103	0x3e6f561b	0.2337269
104	0xbe82d552	-0.25553375
105	0x3ec54df1	0.38536027
106	0xbef2061d	-0.4727029
107	0x3e073a90	0.13205934
108	0x3e028b39	0.12748422
109	0x3d5d6adf	0.054057
110	0x3d118221	0.03552449
111	0xbdcdeb3b	-0.10054632
112	0x3e706aab	0.2347819
113	0xbe98178b	-0.29705462
114	0x3d521b6f	0.051295694
115	0x3e81cf72	0.2535358
116	0x3e837278	0.2567327
117	0x3ebddb12	0.370812
118	0x3e135744	0.14388758
119	0xbd3954cf	-0.045246895
120	0xbe81c606	-0.25346392
121	0xbe787705	-0.24264152
122	0xbd9d10b1	-0.07669199
123	0xbe240f54	-0.16021472
124	0xbeb1bd37	-0.34714672
125	0xbd8dfb9d	-0.06932757
126	0xbe8dfbc1	-0.27731135
127	0x3e1b6557	0.15175377
128	0xbdf71a73	-0.12065592
129	0xbcfa2f14	-0.030540027
130	0x3e52d648	0.20589554
131	0x3d97fc93	0.074212216
132	0xbc8f59f5	-0.01749895
133	0xbe8cd522	-0.27506357
134	0xbebafbf8	-0.36520362
135	0x3d699d8a	0.057035007
136	0x3e360e86	0.17778978
137	0x3d2edc9e	0.042690866
138	0xbe4508ca	-0.19241634
139	0xbdf9a63d	-0.121899106
140	0xbdfecf9d	-0.12441943
141	0x3ef78a73	0.48347816
142	0x3e69ccb5	0.22831996
143	0xbe24c546	-0.16090879
144	0xbd6677bc	-0.05626653
145	0xbe1157a4	-0.14193588
146	0xbe44e20d	-0.19226857
147	0x3df2123f	0.118198864
148	0x3e42a7bf	0.19009303
149	0x3e5f0f52	0.21783188
150	0x3e18321d	0.14862867
151	0xbe50d30e	-0.20393011
152	0xbd02902f	-0.031875785
153	0x3d47fd8e	0.048825793
154	0xbeb7fb42	-0.35933882
155	0x3f218f67	0.6310944
156	0x3d8ad5bf	0.0677905
157	0x3e60ae12	0.21941403
158	0xbe9089b6	-0.28230065
159	0x3d37acc0	0.04484248
160	0x3d322436	0.043491565
161	0x3eb0dbec	0.34542787
162	0xbe4af978	-0.19821727
163	0xbe1c62be	-0.15272042
164	0x3df53429	0.119728394
165	0x3dfb4250	0.122685075
166	0xbdb69500	-0.08915138
167	0x3ea6a719	0.3254936
168	0xbe460171	-0.19336487
169	0x3de1633d	0.11005256
170	0x3d6236fa	0.05522821
171	0xbe8982d2	-0.2685762
172	0x3c98ad2f	0.018637268
173	0xbe1b1fef	-0.151489
174	0x3d57a52d	0.05264776
175	0x3dc6b389	0.09702212
176	0xbe2f50c7	-0.17120658
177	0x3dc27764	0.09495428
178	0xbe502c2e	-0.20329353
179	0x3e074347	0.13209258
180	0x3d4e4510	0.050358832
181	0x3e589e12	0.21154049
182	0x3c89f4da	0.016840387
183	0xbe58bfc2	-0.211669
184	0x3d040ed8	0.03224072
185	0x3da97853	0.08274903
186	0x3dc875ac	0.09788069
187	0x3eed8ea5	0.46397892
188	0x3da3404e	0.079712495
189	0x3d993b48	0.0748201
190	0xbe3f9ffd	-0.18713374
191	0xbe11aa07	-0.14225017
192	0xbeeeb8b8	-0.46625304
193	0xbed0da24	-0.40791428
194	0x3e027d0a	0.12743011
195	0xbe4d9ea1	-0.20080043
196	0xbe087fad	-0.13329954
197	0xbc3c8b80	-0.011507869
198	0xbd901ea0	-0.07037091
199	0xbd084d2e	-0.03327673
200	0xbd78a6b6	-0.060705863
201	0xbdade637	-0.084911756
202	0xbd8041a6	-0.062625214
203	0x3de47b56	0.11156337
204	0x3e850dd7	0.2598712
205	0xbe418087	-0.18896686
206	0x3ec8641c	0.39138877
207	0xbe18bae1	-0.14915039
208	0x3afb7619	0.0019184976
209	0xbdc54e7c	-0.0963411
210	0xbc94261c	-0.018084578
211	0xbd6c3d46	-0.057675622
212	0x3e6ec8fc	0.23318857
213	0xbd6c9390	-0.057757914
214	0x3d8c0f0e	0.06838809
215	0xbd50fd2b	-0.05102269
216	0x3d031bdc	0.03200899
217	0xbdbbc801	-0.09169007
218	0xbe2b7122	-0.16742375
219	0x3e86d2d6	0.2633273
220	0x3d52baf2	0.051447816
221	0x3b8e5cb8	0.004344549
222	0xbe80c25e	-0.2514829
223	0x3d5ed851	0.054405514
224	0x3d02dc1f	0.031948205
225	0xbd383d5f	-0.044980403
226	0xbdac5991	-0.08415521
227	0xbd911b41	-0.070852764
228	0x3c541b89	0.012946018
229	0xbdf6cf04	-0.12051204
230	0x3e1ed018	0.15509069
231	0x3d96c6fd	0.07362173
232	0x3dc560c1	0.09637595
233	0x3e1090cf	0.1411774
234	0xbe016c43	-0.12638955
235	0xbc9a8211	-0.018860849
236	0xbe201a03	-0.15634923
237	0x3ccbdb04	0.024884708
238	0xbddfc08d	-0.10925398
239	0xbd602a72	-0.05472798
240	0x3e1f7b9a	0.15574494
241	0xbe880f1e	-0.26574033
242	0xbe5cc2c7	-0.21558677
243	0x3cb43377	0.021997197
244	0x3dd76136	0.105165884
245	0x3e1f8358	0.15577447
246	0x3e0d9502	0.13826373
247	0xbdafc980	-0.08583355
248	0xbe1a9c5b	-0.15098707
249	0x3e05f952	0.1308339
250	0xbda816ed	-0.08207498
251	0xbea16861	-0.31524947
252	0xbe1ee288	-0.15516102
253	0xbd702a7a	-0.05863426
254	0xbeb28024	-0.3486339
255	0x3ebf22cc	0.37331235

exp_avg_sq f4 [128, 64]
0	0x3f0810c3	0.53150576
1	0x3e975f12	0.2956472
2	0x3eeabfe1	0.45849517
3	0x3e51c851	0.20486571
4	0x3e20fb08	0.15720761
5	0x3dd69b05	0.104787864
6	0x3e1056b4	0.14095575
7	0x3e5c3a61	0.21506645
8	0x3e0f9545	0.14021786
9	0x3e58d4f2	0.21174982
10	0x3e13f1c0	0.14447689
11	0x3ea3818b	0.3193477
12	0x3eb9db47	0.36300108
13	0x3ed865a9	0.4226506
14	0x3e8d6e33	0.27623138
15	0x3e22b39b	0.15888827
16	0x3e522be2	0.20524552
17	0x3e7661f4	0.24060804
18	0x3e2873e4	0.16450459
19	0x3e6fb03f	0.23407076
20	0x3eeac09a	0.45850068
21	0x3e20eb12	0.15714672
22	0x3e48d550	0.19612622
23	0x3e384950	0.17996716
24	0x3e52a89b	0.2057213
25	0x3e609df9	0.21935262
26	0x3e5045ef	0.20339178
27	0x3f2a5585	0.6653674
28	0x3e2f2901	0.17105485
29	0x3ea3fbfa	0.3202818
30	0x3eedae53	0.4642206
31	0x3df3de2f	0.119076125
32	0x3e8a63cc	0.27029264
33	0x3e26a57e	0.16274068
34	0x3e130e9f	0.14361046
35	0x3eab3fa6	0.33446997
36	0x3e0f0e24	0.13970238
37	0x3e07a86c	0.13247842
38	0x3e4b1726	0.19833049
39	0x3ea9f06e	0.33191246
40	0x3e0760bd	0.13220496
41	0x3eaffca8	0.3437245
42	0x3e808340	0.25100136
43	0x3e22b243	0.15888314
44	0x3e0d7802	0.1381531
45	0x3e3daa6d	0.18522044
46	0x3e0764f5	0.13222106
47	0x3e3ab63b	0.18233578
48	0x3ec06bc1	0.3758221
49	0x3eab4153	0.33448276
50	0x3e47323e	0.1945276
51	0x3f10c78f	0.565545
52	0x3dc4babc	0.09605929
53	0x3ecb853e	0.39750093
54	0x3f1cf70d	0.6131447
55	0x3e11f6cc	0.14254302
56	0x3dfb3da6	0.12267618
57	0x3e5435ab	0.20723598
58	0x3e5d6499	0.21620406
59	0x3e736ef8	0.237728
60	0x3e13cdcd	0.14433976
61	0x3e0f5931	0.13998868
62	0x3e80d884	0.25165188
63	0x3e7a9025	0.2446905
64	0x3f76fede	0.96482646
65	0x3ef00ea6	0.46886176
66	0x3f4e0ddf	0.80489916
67	0x3ed4d1d4	0.41566336
68	0x3e817655	0.25285593
69	0x3e6529ef	0.22379278
70	0x3e7378fa	0.23776618
71	0x3e9d55e4	0.30729592
72	0x3e3e2411	0.18568446
73	0x3ec94aea	0.39314967
74	0x3e5613a5	0.20905931
75	0x3f17bf56	0.5927633
76	0x3f17c2e2	0.5928174
77	0x3f2049a8	0.6261239
78	0x3ef23207	0.47303793
79	0x3e7e1783	0.24813657
80	0x3ea599a1	0.32343772
81	0x3eb34524	0.35013688
82	0x3e8f7127	0.28016016
83	0x3eaaffb0	0.333982
84	0x3f7db5b3	0.99105376
85	0x3e9361c7	0.28785536
86	0x3eaf1a15	0.34199587
87	0x3ec5e316	0.38649815
88	0x3ea68407	0.32522604
89	0x3ed4202f	0.41430804
90	0x3ea05033	0.31311187
91	0x3f6634d9	0.8992439
92	0x3e9f82b9	0.3115442
93	0x3ef299dc	0.4738301
94	0x3f235aab	0.63810223
95	0x3e446631	0.19179608
96	0x3ef5f707	0.4804003
97	0x3ea0fc3f	0.31442448
98	0x3e5d534b	0.21613805
99	0x3f2ee6e1	0.68321043
100	0x3e4ec761	0.20193245
101	0x3e66ddbb	0.22545521
102	0x3eaacbb6	0.33358544
103	0x3f0094e3	0.50227183
104	0x3e5f337f	0.21796988
105	0x3f25792d	0.64638025
106	0x3ec357bc	0.38152874
107	0x3e9cdd30	0.30637503
108	0x3e397689	0.18111624
109	0x3e66571a	0.22494164
110	0x3e463530	0.19356227
111	0x3ea76ffe	0.3270263
112	0x3f10b504	0.5652621
113	0x3f18c5bf	0.59676737
114	0x3ea0597f	0.3131828
115	0x3fa17b0a	1.2615674
116	0x3e3bcd0f	0.18339942
117	0x3f17f5f6	0.5935968
118	0x3f93c726	1.154515
119	0x3e6413e6	0.22273216
120	0x3e40dfcf	0.18835376
121	0x3e922940	0.28547096
122	0x3eabb533	0.33536682
123	0x3e7ddc80	0.24791145
124	0x3e85e406	0.2615053
125	0x3e4c2d6e	0.19939205
126	0x3ecbdcdf	0.3981695
127	0x3efa3b0d	0.48873177
128	0x3f4f4088	0.8095784
129	0x3f19795e	0.59950817
130	0x3f456d2d	0.77119714
131	0x3e99ec5d	0.30063143
132	0x3e5cca57	0.21561562
133	0x3e3a4e0b	0.18193834
134	0x3e724789	0.23660101
135	0x3e90e859	0.28302267
136	0x3e370909	0.1787454
137	0x3ea3f46e	0.32022423
138	0x3e4c3bc6	0.19944677
139	0x3f171b0e	0.5902566
140	0x3efdb8e1	0.49555114
141	0x3f353025	0.7077659
142	0x3f0be296	0.5464262
143	0x3e8d5590	0.27604342
144	0x3e91e644	0.2849599
145	0x3ed62aa8	0.4182942
146	0x3e835348	0.25649476
147	0x3eb8bd59	0.3608196
148	0x3f5c27a1	0.8599797
149	0x3e883f28	0.26610684
150	0x3e9230c5	0.28552833
151	0x3ea3c3c3	0.31985292
152	0x3e8843cc	0.26614225
153	0x3ecfbadd	0.40572253
154	0x3e98ff12	0.29882103
155	0x3f2ec624	0.6827109
156	0x3e73ff99	0.23827972
157	0x3f119990	0.5687494
158	0x3f3bc361	0.73345
159	0x3e6c9847	0.23104964
160	0x3ed7f276	0.4217717
161	0x3ea02a06	0.3128206
162	0x3e76865c	0.24074692
163	0x3f07d3af	0.5305738
164	0x3e854a3d	0.26033202
165	0x3e5af36c	0.2138192
166	0x3e99b964	0.30024254
167	0x3ef0f551	0.47062162
168	0x3e3897e7	0.18026696
169	0x3ef7ba76	0.48384446
170	0x3e947c92	0.2900129
171	0x3e6f2b01	0.23356248
172	0x3e2d3e30	0.16918254
173	0x3e6c4159	0.23071803
174	0x3e3efcfe	0.18651196
175	0x3e7f41a3	0.24927382
176	0x3ef7281c	0.4827279
177	0x3eff5812	0.4987188
178	0x3e9922f0	0.29909468
179	0x3f4f4a09	0.80972344
180	0x3e443c37	0.19163595
181	0x3f28e6fd	0.6597746
182	0x3f7c4bca	0.98553145
183	0x3e3e1538	0.18562782
184	0x3e49b449	0.1969768
185	0x3e9ef702	0.31047827
186	0x3ea01ff5	0.3127438
187	0x3ea15cab	0.31516013
188	0x3e6d3701	0.23165514
189	0x3e890fc2	0.26769835
190	0x3f01142e	0.50421417
191	0x3ee304a2	0.44339472
192	0x3f3f28e5	0.74671775
193	0x3ee64bdf	0.4497976
194	0x3f0df81b	0.55456704
195	0x3e90396d	0.28168812
196	0x3e4221b3	0.18958168
197	0x3e3a4e17	0.18193851
198	0x3e65397d	0.22385211
199	0x3e8f429c	0.27980506
200	0x3e15d799	0.14633025
201	0x3eb43635	0.35197607
202	0x3e51f735	0.20504458
203	0x3eef5d94	0.46751082
204	0x3eba9915	0.36444917
205	0x3f0b2445	0.5435222
206	0x3f064346	0.524464
207	0x3e9950b0	0.29944372
208	0x3e8ec0c8	0.27881455
209	0x3eab0178	0.33399558
210	0x3e630918	0.22171438
211	0x3e8430df	0.25818536
212	0x3f29eea0	0.6637974
213	0x3e8a942c	0.2706617
214	0x3e8c8dac	0.27451837
215	0x3e81ec09	0.25375393
216	0x3eb1c71f	0.3472223
217	0x3eb76793	0.35821208
218	0x3e955d1e	0.29172605
219	0x3f544f70	0.8293371
220	0x3e7016b7	0.23446165
221	0x3ef2e991	0.47443822
222	0x3f58c2aa	0.84672034
223	0x3e3aeb87	0.18253909
224	0x3ee581b1	0.4482551
225	0x3e8962a0	0.26833057
226	0x3e661b19	0.22471274
227	0x3f1abbc7	0.60442775
228	0x3e71daa2	0.23618558
229	0x3e326a46	0.17423353
230	0x3e84fdfc	0.25975025
231	0x3eca491a	0.39508897
232	0x3e35ac21	0.17741443
233	0x3eeebcd5	0.46628442
234	0x3ec34b5b	0.3814343
235	0x3e841904	0.25800335
236	0x3e2f1950	0.170995
237	0x3e78d366	0.24299392
238	0x3e362642	0.17788032
239	0x3e879e00	0.26487732
240	0x3ec005d7	0.37504455
241	0x3f272a6b	0.652991
242	0x3e5af9b9	0.21384324
243	0x3f640740	0.8907356
244	0x3e0a0cc9	0.1348144
245	0x3f10dcc1	0.56586844
246	0x3f1fa2e5	0.6235793
247	0x3e29cd01	0.16582109
248	0x3e602c3c	0.21891874
249	0x3ea5f069	0.3240998
250	0x3e9609ba	0.29304296
251	0x3eafafbc	0.34313762
252	0x3e559966	0.20859298
253	0x3e8e99cf	0.27851722
254	0x3eb248d1	0.3482118
255	0x3edc5663	0.43034658
