outs/lightning_logs/version_15/checkpoints/epoch=103-step=32551.ckpt (torch, 256221 bytes, 24 tensors)

encoder.0.weight f4 [64, 128]
000000 80 91 0c 3c 2d 45 17 bd 07 7a ac 3b 61 84 87 bc
       0.008579612 -0.036931206 0.00526357 -0.016542615
000010 70 cd ae bd 4f 7b 0e 3d 71 ac 88 3d a5 3a df 3d
       -0.08535278 0.034785565 0.066735156 0.108998574
000020 34 a3 25 3d 96 10 0c bd d3 a3 5b 3d f5 eb cb 3b
       0.040438846 -0.034195505 0.05362303 0.0062231966
000030 c6 cb a4 3c d6 a3 5a 3d 03 dc 04 3d 95 0f 62 bc
       0.020116698 0.053378902 0.032436382 -0.01379766
000040 61 0d 89 3d f0 f1 3c 3c 24 e8 d1 bc 4c dd c0 3c
       0.06692005 0.011532292 -0.025623389 0.023543023
000050 e9 90 b9 3d 21 ac 3b 3d 0e 16 cf bc 17 ec fe bb
       0.090608425 0.04581845 -0.025279071 -0.007779609
000060 90 74 18 3e 86 24 b2 3d 30 22 9c 3c d4 7b 9b 3b
       0.14888215 0.086983725 0.01905927 0.004744986
000070 1c c6 43 bb b9 f1 93 bd 78 12 b3 bc 3f 2d 3d bd
       -0.002987272 -0.07223839 -0.021859393 -0.04618573
000080 46 0c 8a 3d 63 a9 18 bc 9d 7a 71 3d e5 d7 ce 3d
       0.06740622 -0.009317729 0.058954824 0.10099772
000090 35 3c 18 3c 23 c0 cd 3b 53 85 ba 3d 93 87 24 3d
       0.009291698 0.006279008 0.09107461 0.040168356
0000a0 b4 1d 8b 3c b4 2b 23 bd 67 3c 42 3d 94 5f 62 3c
       0.016981937 -0.0398366 0.047420885 0.013816733
0000b0 97 dd 3f bd 5f 3e e5 bc 01 db 02 3d 2b 38 8c 3c
       -0.046842184 -0.027983842 0.03194714 0.017116627
0000c0 92 51 03 3e ce 4f 75 3c c5 f0 06 3d 7f 95 3d 3d
       0.12824085 0.01497264 0.03294446 0.04628515
0000d0 69 93 8a bc 1a 40 46 3d 3c 63 40 3d 1c 7f e3 bc
       -0.016915994 0.048400976 0.046969637 -0.027770571
0000e0 66 d8 ae 3b 90 45 1d 3d 2b d8 04 3d 89 00 13 bd
       0.0053358553 0.038396418 0.032432716 -0.035889182
0000f0 04 62 af 3c 07 e2 0f 3d e0 a9 9a 3d d6 28 0c bd
       0.021409042 0.035127666 0.07551932 -0.03421863
000100 40 dc 2a bc ce 9c 0e 3d a7 e0 84 3e e9 7e cf 3d
       -0.010428488 0.03481751 0.25952646 0.10131628
000110 b5 3f 1e bd f4 d7 84 bc 48 d3 ca bc 6b b7 c7 bc
       -0.038634975 -0.016216256 -0.02475895 -0.024379453
000120 73 54 a3 bd 8b be bf 3d 38 91 cc 3d 68 2f cd 3c
       -0.07975092 0.09362515 0.09988636 0.02504702
000130 cf 20 4c bd ad 45 6a bd 7e 72 35 3d f3 84 9e bd
       -0.049835976 -0.057195354 0.04429864 -0.07740202
000140 04 0a 16 bd c3 eb 79 3d 0c aa bd 3d f0 e8 f8 bb
       -0.036630645 0.061015856 0.092609495 -0.0075961277
000150 52 a0 99 bd bf 61 7c 3d 65 b6 84 3b ad 95 93 3c
       -0.07501282 0.061616655 0.0040500634 0.018015707
000160 25 7c 91 bd 7e 5c 96 3d 35 27 92 3c fe d4 78 bd
       -0.07103757 0.0734186 0.017840961 -0.06075
000170 4d db c2 bd 1e 8b 97 bb 55 e3 88 3e 8e f7 3b bb
       -0.095144846 -0.0046247384 0.2673594 -0.002868149
000180 28 d0 9c bc b3 f3 11 3d f6 da f8 3d 11 40 c9 bc
       -0.019142225 0.0356328 0.121511385 -0.024566682
000190 43 a6 11 bc 9e dd dd 3d 2a 79 46 3d 6c 07 2b 3d
       -0.008889738 0.10833286 0.048455395 0.041755125
0001a0 94 78 a5 3d f9 fc c8 3d f3 1c a3 3d 8d ec 08 be
       0.08079639 0.09813876 0.07964506 -0.13371487
0001b0 ba 11 d2 bc 67 27 62 bd 2e 9f a9 3d e8 87 25 3d
       -0.025643218 -0.05521336 0.08282314 0.040412813
0001c0 18 86 ba 3c 40 62 62 3d 68 c9 28 3e df a9 de bc
       0.022769019 0.05526948 0.1648308 -0.02718061
0001d0 a9 34 c4 3c 4d 65 b2 bc 80 99 cf bb 51 fe 15 3c
       0.023950892 -0.02177682 -0.0063354373 0.009154872
0001e0 e7 e8 a7 bd fa ea 18 3e 5e a0 74 3e e7 ae e7 bd
       -0.081987195 0.14933386 0.238893 -0.11312657
0001f0 d5 83 a0 bc 90 4f 93 3c 58 e7 1d bd 94 56 58 bd
       -0.019594112 0.017982274 -0.038550705 -0.052816942
000200 a6 12 60 3e c1 a7 b4 3d a6 49 b8 3d 17 b9 53 3d
       0.21882114 0.08821059 0.08998422 0.051690187
000210 56 fb d6 3a b0 c2 8f bd ab cd 3c bd 33 9b 7b 3c
       0.0016401808 -0.070195556 -0.046094578 0.015356827
000220 3a 6d af 3d f6 51 4b 3b 34 59 c2 3d 41 7a 0e 3e
       0.08565755 0.0031024194 0.094896704 0.13913824
000230 e9 3e 27 3d e8 9c 9d bb c5 7b a6 bc 9f 91 5e bd
       0.04083148 -0.0048099644 -0.02032269 -0.054338094
000240 a8 98 ac 3b 87 d8 44 3c 4f 37 c5 3d ec 5f 08 3e
       0.0052672215 0.012014515 0.0962969 0.13317841
000250 f4 84 ce 3d 7a ff e9 3b 84 91 88 3d ae 14 dc 3d
       0.100839525 0.007141051 0.0666838 0.10746132
000260 d4 e7 07 3e 0a 8f 39 ba 0f 84 50 3c ee 74 74 bd
       0.13272029 -0.00070785044 0.012726798 -0.059681825
000270 32 d3 6c 3d 29 c2 8f 3b 84 fc 7e 3d f5 67 96 3d
       0.0578186 0.0043871594 0.062252536 0.07344047
000280 69 81 40 3e 06 55 21 3e a8 20 fd 3d a5 c1 3f bc
       0.18799366 0.1575509 0.12359744 -0.011703883
000290 87 c5 02 bd 44 4a b0 bd e1 ea 06 be a4 49 f7 bc
       -0.031926658 -0.08607915 -0.13175537 -0.030186482
0002a0 78 37 90 bd 7b a3 a0 3c df e8 f3 bb f6 1c d5 3d
       -0.0704183 0.019609204 -0.007443532 0.104059145
0002b0 75 a9 66 3e 77 e3 48 3c b0 26 3a bd db bf eb bb
       0.2252558 0.012261263 -0.04544705 -0.007194502
0002c0 6d a9 bf 3b 3e 1f 4f 3d de cc 3d bd 40 74 95 3d
       0.0058490545 0.050566904 -0.046337955 0.072975636
0002d0 ee a7 88 3e 6c fb 0a 3d aa ab 00 3d 60 bf 3b bc
       0.2669062 0.03393118 0.03141371 -0.011459202
0002e0 0f b3 c6 3d 14 8f 3f 3c b7 e6 ba bd 83 32 47 bc
       0.097021215 0.011691827 -0.091260366 -0.012158039
0002f0 73 d1 56 3e 6a d2 53 3c aa 14 4c 3c 09 4e 8b 3d
       0.20978336 0.012928585 0.012456099 0.068019934
000300 6e 52 18 bb 4e c0 45 3d 46 0b 0b 3d b6 07 0d bd
       -0.0023242491 0.0482791 0.033946298 -0.03443118
000310 ce 79 80 3d 8a f0 8d bb db 4c 92 3d 10 b2 2e bb
       0.062732324 -0.004331653 0.07143565 -0.0026656426
000320 1e 12 c1 bd ae a2 a9 3c 63 1f fd bd ef a2 fa 3c
       -0.09427284 0.020707455 -0.12359502 0.03059527
000330 db 4f 52 3e 3d 6c ac 3d 98 b9 27 3d 60 17 b8 bc
       0.20538275 0.08419082 0.04094848 -0.022472084
000340 f9 f7 40 3d 3c 1a 8c 3d 85 43 e4 bb b1 a1 09 bb
       0.047111485 0.06840941 -0.006966057 -0.0021000917
000350 6c ef 53 3e f4 13 fd 3d d0 7f 2b 3c d8 f9 81 bc
       0.20696801 0.123573214 0.010467485 -0.015866205
000360 57 a1 e7 ba f4 89 19 bd cc 0c 42 bc d9 af ef 3d
       -0.0017671984 -0.037485078 -0.011843871 0.11703462
000370 61 d6 19 3e 1c e6 14 3c ac df 77 3c 6e f2 9e 3d
       0.15023185 0.0090880655 0.015129011 0.077610835
000380 8b 7e 8a bc 2d 98 2f bc fc c6 9b 3d cb ae 09 bd
       -0.016906044 -0.010717434 0.07606313 -0.03361396
000390 d7 4a 29 3d 11 9c 69 3c 72 e7 47 3d 2f 52 c9 bc
       0.04133114 0.014258401 0.048804708 -0.024575321
0003a0 b9 d7 02 bd be 5f 83 3c 1e f2 2a bc 24 eb 8e 3d
       -0.03194401 0.016036864 -0.010433702 0.06978443
0003b0 e6 53 01 3e 2b 64 09 3e 1a f8 9c bc 6d 01 bf bd
       0.12629661 0.13417117 -0.019161273 -0.09326444
0003c0 bd d7 30 3d 98 2b bb 3d 3f 91 01 ba eb 9b 08 bd
       0.043174494 0.09139174 -0.0004942603 -0.03335182
0003d0 bc cc 93 3d 2e 19 da 3d cb be 80 3d 50 13 0f 3d
       0.07216784 0.10649334 0.06286391 0.034930527
0003e0 59 64 d1 bd 44 44 6b bd c3 8f ba 3d 1d 8b 5a 3c
       -0.10224218 -0.05743815 0.091094516 0.013338831
0003f0 a5 85 b1 3d c6 e6 b8 3d f6 14 19 3d 1d f5 f7 bc
       0.08668069 0.090283915 0.037373506 -0.030268246

encoder.0.bias f4 [64]
000000 09 28 2d 3e 20 f2 2d 3e 9f a3 47 3e bd a6 74 be
       0.16909803 0.16986895 0.1949601 -0.2389173
000010 72 c8 9d bd 85 ef cd bd a1 b4 d5 bc 6d c1 d9 3c
       -0.077042475 -0.1005545 -0.026087107 0.02658149
000020 07 f8 80 be 6e b6 02 3e fb 1a a6 bd 91 2b 82 3d
       -0.2518923 0.12764904 -0.08110615 0.06355966
000030 7a 71 40 3b 62 dc 75 3e 5c 3c 03 be c9 3a 99 3d
       0.0029364512 0.2400985 -0.12815994 0.074819155
000040 b2 6f 8d 3e aa 1f 37 3d 92 a2 fc 3d 8f c9 34 bc
       0.2762428 0.04470793 0.12335695 -0.011034383
000050 87 a7 1d 3e a1 30 58 3c 0d ae b9 3d ac 5d ae bd
       0.15395938 0.013195188 0.09066401 -0.0851396
000060 b3 6a ee 3d 9b 83 55 bb 73 88 1a 3e bf b8 1c 3d
       0.11641445 -0.0032579664 0.15091114 0.038262125
000070 f2 1a 20 bd aa 1d 1b 3d 34 3f 21 bd 6a 5d 40 3e
       -0.039088197 0.037870087 -0.039366916 0.18785635
000080 47 c5 55 3e 4e 78 09 bd f3 b4 6f 3e 6d c5 b3 3e
       0.20876037 -0.033561997 0.2340887 0.3511156
000090 19 40 95 3e f1 15 4d 3e 8b 00 c6 3c 08 66 d5 3e
       0.29150465 0.20027901 0.02417018 0.41679406
0000a0 af 74 92 3e fc 07 4f be f7 24 86 be 7b 8f 70 be
       0.28604648 -0.2021789 -0.26200077 -0.23492233
0000b0 fb cc a7 bd 7e 7b de 3c e6 11 c8 3c a2 f5 d0 3c
       -0.08193394 0.027158495 0.024422597 0.025507752
0000c0 75 8d 9e 3d 43 92 4f bb 66 4f 89 bc d7 2b 7f bd
       0.077418245 -0.0031672872 -0.016761493 -0.06229767
0000d0 aa 0c a6 3d 79 bf 57 3d 05 d6 80 3c 88 f2 3c 3d
       0.08107884 0.052672837 0.015727052 0.046129733
0000e0 c1 55 fd bd f9 6e 75 3e 54 ff 05 3e be c8 2a 3e
       -0.12369872 0.23968114 0.13085681 0.1667814
0000f0 9c 26 b2 3d 57 26 28 3e 2e 63 bc 3e d6 1e 1e 3c
       0.086987704 0.16420875 0.36794418 0.009650907

encoder.2.weight f4 [32, 64]
000000 73 ae 7a 3d 30 45 88 3d d1 af 87 3d c7 6c be 3d
       0.061201524 0.066538215 0.06625331 0.092980914
000010 c6 81 47 bd 3f 5a 95 3d bf 35 a7 bd 24 1a cb bc
       -0.048707746 0.07292604 -0.08164548 -0.024792738
000020 f2 7c 44 3d 27 fc 14 3e ca 82 20 be af 88 9b bd
       0.04797072 0.14549313 -0.15674892 -0.0759443
000030 c1 bb 96 bd 4b a5 93 bd 62 5b f9 3d df 59 26 3e
       -0.0736003 -0.072092615 0.12175633 0.1624522
000040 c5 53 f0 bd 79 87 1f 3c b4 da 44 3d cc d4 50 3d
       -0.11734728 0.009736889 0.048060134 0.05098419
000050 f7 d9 11 3e b8 b3 bd bc 4f a8 cf bd 7e 92 c9 3d
       0.14243303 -0.023156986 -0.10139524 0.09842394
000060 ce 80 11 3e c9 fb 11 bd ec 6a f3 3d fe fa 1d 3c
       0.14209291 -0.03564051 0.11885628 0.009642361
000070 b6 62 67 3e 85 fe b1 3d 6a ae b3 3c 09 0c d7 bd
       0.22596249 0.08691124 0.021933753 -0.105003424
000080 c0 e7 fe bc b7 b8 92 bd eb 02 aa bd 50 2e 02 be
       -0.031116366 -0.07164138 -0.08301338 -0.1271298
000090 48 a3 0e be 8a e7 ff 3c 8b 21 b1 bd 94 bb 52 bd
       -0.13929474 0.031238336 -0.08648976 -0.05144842
0000a0 34 e9 8b bd d9 29 09 3d 3e 24 50 3d 17 3b 76 be
       -0.06831589 0.033487175 0.050815813 -0.24045978
0000b0 ae 3e 90 bd 0b 6f 12 be 24 31 81 bd 0a b9 58 3d
       -0.07043205 -0.14300172 -0.06308201 0.052910842
0000c0 46 eb a7 bd 33 06 25 3d 05 bb 0e be fc 03 4a 3d
       -0.08199172 0.040289115 -0.1393853 0.049320206
0000d0 be bc bf 3d b0 a5 54 3d 9c 7d b1 3a 46 51 94 3c
       0.093621716 0.051915824 0.0013541463 0.01810516
0000e0 b2 3c af bd de a2 9a 3b 3d 93 33 bc 07 eb bf bd
       -0.085564986 0.0047191223 -0.010960397 -0.09371
0000f0 a0 ba 9b 3d d8 b3 c8 3d 9b 79 c1 3c bf 26 29 3e
       0.07603955 0.097999275 0.023617556 0.16518687
000100 e9 98 b1 bc e3 78 3a 3d 98 2a 19 3e 3a 63 56 3e
       -0.021679359 0.045525443 0.14957654 0.2093629
000110 6b c0 8f 3d d2 6c ba 3d 44 f1 1a bd 94 00 06 3c
       0.07019123 0.09102787 -0.037827745 0.008178849
000120 8f 5f 09 be 4a 69 df bd 28 fb ad 3d 6d 6b 21 3e
       -0.13415359 -0.10908754 0.0849517 0.15763636
000130 bc 93 d0 bd 25 c1 f5 bd c2 ac d9 3d 10 7e 00 be
       -0.10184428 -0.1199973 0.10628654 -0.12548089
000140 d4 9e 1b 3e c0 70 40 3c e1 66 9c bc 47 f2 c7 3d
       0.15197307 0.011745632 -0.019092025 0.097630076
000150 47 22 1d 3d 6e cb 9c 3c 2f 79 64 bc ab 3c 00 be
       0.038362768 0.019139972 -0.013944908 -0.12523143
000160 f4 58 7e 3c dd 0e ab 3d 9c 04 56 be c4 ab 2b 3d
       0.015524138 0.08352444 -0.20900196 0.041911855
000170 6c 19 e4 3d 33 a8 29 bd 34 d8 d9 bd af 35 22 be
       0.11137661 -0.041420173 -0.106369406 -0.15840791
000180 3a 42 f6 bc 54 99 9f bd c8 13 3b 3d 5c a2 08 bd
       -0.030060876 -0.07792917 0.04567316 -0.033357963
000190 8a 94 20 bd fa 3e 13 3d 4d 36 9b 3c 02 76 ad bd
       -0.039204158 0.03594873 0.018946791 -0.08469774
0001a0 4d e8 0b be 9c 9f 34 bc 38 f1 f5 bd 2f 4d cf bd
       -0.13662834 -0.011024382 -0.120088995 -0.101221435
0001b0 2b 28 20 3d 06 09 66 3d 41 66 0f bb c9 81 47 3e
       0.039100807 0.05616095 -0.0021881016 0.19483103
0001c0 a5 cf f0 bd 91 c3 e6 3d 9c c7 15 be 31 67 24 3e
       -0.11758355 0.1126777 -0.14626926 0.1605499
0001d0 b5 04 d0 bc 55 7f 16 be 02 7d 7b 3d 9a 4d 12 3d
       -0.02539287 -0.14697011 0.061398514 0.035718538
0001e0 ef 0f 5f bc 40 b9 04 be fc a1 af bc 2b dd 8c 3d
       -0.013614639 -0.12961292 -0.021439545 0.06878122
0001f0 75 f8 b0 3d b9 26 3d bd 23 d9 45 bd 1b 05 a0 3c
       0.086411394 -0.046179507 -0.04830278 0.019533684
000200 3f 95 b0 bd 5b 9e 9a bb 2b 27 2b 3e 98 2a 91 bd
       -0.086222164 -0.0047185845 0.1671416 -0.07088202
000210 9e 41 29 bd cc 85 44 bd b3 e7 77 bd 9d 1f af 3d
       -0.041322343 -0.04797916 -0.0605237 0.08550952
000220 6f 39 24 bc f4 dc 53 3e 3b 3a a9 bd f5 b9 58 bc
       -0.010023459 0.20689756 -0.0826306 -0.013227929
000230 e4 ae a7 bd 0e 46 ff bc 15 d4 a2 bd eb 8b 13 bc
       -0.081876546 -0.031161334 -0.07950608 -0.009005527
000240 c6 ed 29 bd 77 ac de bc d2 c7 c2 3d 7b c4 ea 3d
       -0.041486524 -0.027181847 0.09510769 0.11463257
000250 df 0f 3e bd c3 df 35 be a2 81 f8 3c 61 51 1f 3d
       -0.046401855 -0.1776114 0.030335251 0.03889597
000260 f8 cb 7f 3c 90 46 f6 bd b8 14 97 bc 9a f0 3f 3e
       0.015612595 -0.120251775 -0.018442497 0.18744126
000270 09 77 f8 3c 6b 0b da bd c6 0d 84 bd 4e fa 45 3e
       0.030330198 -0.10646709 -0.064479396 0.19333765
000280 fa 34 b9 3d 52 2f e1 bd b2 c8 00 3e 47 c5 98 bc
       0.090433076 -0.10995354 0.12576559 -0.018648757
000290 a7 39 7b 3d 5f 3c 9b 3d 39 9a a2 bd b9 8a bd bd
       0.06133428 0.07579874 -0.07939572 -0.09254975
0002a0 93 f1 16 be 97 10 00 3e 0a 80 06 3d a9 50 72 3c
       -0.14740591 0.12506329 0.03283695 0.014789739
0002b0 ae 7d 0c be 28 a2 cd 3d ec a3 b8 bc 31 eb a2 bd
       -0.13719818 0.100406945 -0.022539102 -0.079550155
0002c0 9d f2 03 be ab 7e 9e 3d c5 4e e5 3d af ab c4 3b
       -0.12885518 0.07739004 0.11196665 0.0060019116
0002d0 66 92 4b 3d 4c 8a 23 be af 73 89 bd f4 45 39 bc
       0.049700163 -0.15970725 -0.06711518 -0.011308182
0002e0 17 63 96 3d 16 e2 81 3d cd 1f d1 3d 2d 05 56 bd
       0.07343119 0.063419506 0.10211144 -0.05225103
0002f0 74 10 54 3c 9c a0 e2 bd d7 2d 4c bb 62 6a 21 be
       0.012943376 -0.1106579 -0.0031155252 -0.15763238
000300 96 c9 d4 bd 5c bd 72 bb a8 a4 0c 3d f0 df 68 3d
       -0.10390012 -0.0037039137 0.034336716 0.05685419
000310 f8 06 95 3d 56 36 b2 bd 07 b3 db bd a6 0e 2c bc
       0.0727672 -0.0870177 -0.10727506 -0.010501539
000320 6a 52 7e bb d6 d8 cb bd 64 14 14 3e 4e 1f f8 bd
       -0.0038806447 -0.099534675 0.14460903 -0.12115346
000330 20 1b 79 bd 66 2b f9 bc 66 b4 ce bc 42 8e 3f 3e
       -0.060816884 -0.030416202 -0.025232505 0.18706611
000340 32 19 03 be 81 ff da 3c b7 67 1d be 2a 8b 8c 3d
       -0.1280258 0.026733162 -0.15371595 0.06862481
000350 d1 e5 47 3d ec 51 e8 bd 3d 33 ce 3c ec 50 31 3c
       0.048803154 -0.1134375 0.025170917 0.010822516
000360 87 b8 dc bd 63 6a 1b 3e 4b 91 f0 3d bb e9 28 bd
       -0.10777383 0.15177302 0.117464624 -0.041238528
000370 33 82 c0 3c fc 7a 06 be 61 48 b8 bd 64 c1 51 3d
       0.023499584 -0.13132852 -0.0899818 0.051209822
000380 59 83 0d be 2c 84 e5 3d 07 b6 e4 bd d1 25 37 3e
       -0.13819636 0.112068504 -0.111675315 0.1788552
000390 2a 0e be 3d 2e b0 8f 3d 45 5c ce bc 16 48 95 3d
       0.09280045 0.070160255 -0.025190482 0.0728914
0003a0 55 47 9f bd 20 45 ff 3d 37 05 6a bd 65 6d bd 3c
       -0.077772774 0.124643564 -0.05713388 0.023123452
0003b0 b0 b3 b1 3d 10 3d eb bc d3 87 8e bd 31 19 60 bd
       0.08676851 -0.02871564 -0.069595 -0.054711524
0003c0 81 a5 9a 3d bf 5a 41 be ca b8 e9 3b 84 23 14 3e
       0.075510986 -0.18882273 0.0071326243 0.14466673
0003d0 03 ea aa 3b 2a 49 95 bd 70 30 a3 bc 86 ad 99 bd
       0.0052158847 -0.072893456 -0.019920558 -0.075038
0003e0 c0 13 8a 3d c9 33 a1 bd 1f ec e3 bc da 1e 64 bd
       0.06742048 -0.07871205 -0.027822552 -0.055693485
0003f0 5e 5a 8a 3d c4 bb 58 3d 11 bf 74 ba 5e a4 13 bb
       0.067555174 0.052913442 -0.00093363324 -0.002252839

encoder.2.bias f4 [32]
000000 fe 0a f1 3d 96 d4 8c bd 31 99 3b 3e c2 7e b0 bd
       0.11769675 -0.06876485 0.18320157 -0.08617927
000010 57 4e b0 3c 41 3b 1e 3e ba 5a b1 3c 31 29 91 bd
       0.02152173 0.15452291 0.021649707 -0.07087935
000020 a2 e6 e1 3d 27 67 1d 3e 09 c3 8e bd cd ee 54 be
       0.11030318 0.15371381 -0.06970794 -0.2079422
000030 01 9b 9b 3d d8 c5 62 3c f2 97 72 3e 42 47 8a 3e
       0.07597924 0.013841115 0.23690775 0.2700749
000040 58 f8 14 3e 96 8f 60 be a7 0c a0 3e 5c 6f 4e 3e
       0.1454786 -0.21929774 0.31259653 0.20159668
000050 74 e3 90 3e 2b 7d aa bd 8b 91 6a bd c4 bc 0d be
       0.28298533 -0.08324655 -0.057267707 -0.1384154
000060 53 4d 20 bd 4b e7 22 be bd f9 0b be fe cf dc bc
       -0.039136242 -0.15908544 -0.13669486 -0.026954647
000070 63 dd 1c 3e 5d f1 c0 bd 61 a1 04 3e dc c3 6f bd
       0.15318827 -0.094210364 0.12952186 -0.058536395

decoder.0.weight f4 [64, 32]
000000 de 23 e4 3d 06 b5 f0 3c a3 2c 70 3e 1a 98 e0 3d
       0.111396536 0.029383194 0.23454528 0.10966511
000010 d4 fc ff bd e6 ee 8e 3e a3 7c e4 3d f5 32 49 be
       -0.12499395 0.2791664 0.11156585 -0.19648345
000020 81 7e 0b be 8b ae 9f 3d 7b 54 06 be 9a 60 8b 3d
       -0.13622476 0.07796963 -0.13118164 0.06805535
000030 fc 3e f1 bd d8 6a da 3d 2c 6d c2 bd 7e 37 c0 3d
       -0.117795914 0.1066491 -0.09493479 0.09385584
000040 65 b5 5e bd d8 f0 21 be 45 92 1c 3e 25 9f 2b 3d
       -0.05437221 -0.15814531 0.15290172 0.04189982
000050 89 63 05 be f8 1c 3f bd d4 a7 71 3d 6e 6d 99 bc
       -0.13026251 -0.046658486 0.058997944 -0.018728938
000060 ff 92 eb bd 92 b1 8f 3d 98 ba 48 be 0a ab 3a 3e
       -0.11502647 0.07016291 -0.1960243 0.18229309
000070 fd 54 06 bd 82 72 51 bd ef 6e 64 3e 50 47 35 be
       -0.032795895 -0.051134594 0.22307943 -0.17702985
000080 7f 13 66 be 2d 65 6c bd a5 29 1c 3e ab 84 1b be
       -0.22468375 -0.057713676 0.15250261 -0.15187328
000090 48 11 2f 3d 32 8a fe 3d c7 49 dd 3d 4c a3 11 3d
       0.04274109 0.124287024 0.108050875 0.035556123
0000a0 92 01 33 be 66 29 f8 bd 75 7b aa 3e 31 ea 06 3e
       -0.17481068 -0.12117271 0.33297315 0.13175274
0000b0 0e 0c 12 bd e8 41 99 3d 04 0a a8 bd e6 3c b8 3d
       -0.035656027 0.07483274 -0.08205035 0.089959905
0000c0 f8 ce b2 bd 8b 8a 3d be 23 66 e3 3d 3b 3c 6f 3c
       -0.087308824 -0.18509881 0.111034654 0.014601762
0000d0 26 2a 13 bc 12 6d 10 3e 1d d7 36 3d f7 86 85 bd
       -0.008982217 0.14104107 0.04463874 -0.06519883
0000e0 07 3a 76 be 11 8b 50 bd 22 bf 5a 3e e1 85 01 be
       -0.24045573 -0.050913874 0.21361974 -0.12648727
0000f0 f5 be 2e 3e 15 c4 04 3e 4f 76 03 3e 68 de 35 be
       0.17065032 0.12965424 0.128381 -0.17760623
000100 84 e5 de 3d 08 4e 48 be e1 60 45 3d c1 dc 07 be
       0.108836204 -0.19561017 0.048188094 -0.13267805
000110 a7 84 05 be c9 e1 16 3e 6e e1 0b 3e 37 7d 1a 3d
       -0.13038884 0.14734568 0.13660213 0.03771707
000120 31 8b a8 bb 3f 4c 9c 3d bf 65 13 3d 6d 5b 38 3e
       -0.005143546 0.0763173 0.035985705 0.18003626
000130 20 95 77 bc b0 39 20 bb 18 fc 09 bd 67 9b f3 bd
       -0.015111238 -0.0024448447 -0.03368768 -0.11894875
000140 79 70 6a be 2d 27 83 bd b4 78 f8 bd 14 2f b5 bc
       -0.22894467 -0.064039566 -0.12132397 -0.022117175
000150 a7 0b 69 3e db 00 07 3e be 61 c0 bc 1b 51 08 3e
       0.22758351 0.1318392 -0.023484107 0.1331219
000160 dd 08 a5 3c 12 46 ca bd 7b b4 07 3e 3f 68 99 bd
       0.020145828 -0.09876646 0.13252442 -0.074905865
000170 b3 0d bb bc 61 5b 07 3e 5f 07 23 3e 6a 08 59 be
       -0.02283368 0.13218452 0.1592078 -0.21194616
000180 55 f0 df 3e ed b0 00 3c 90 77 62 3e c3 01 64 bd
       0.43738046 0.007854682 0.22115922 -0.055665743
000190 f5 c1 03 3e 95 6f b0 bd 3a e9 33 3e 81 7e b3 3d
       0.12866957 -0.086150326 0.17569438 0.08764363
0001a0 e8 a5 1b bd 01 08 23 3d 96 af 5e 3e a2 f2 af bb
       -0.038000017 0.039802555 0.21746668 -0.0053695003
0001b0 2e 83 b2 bd d7 ba 9b bd bf a3 6c 3e 3e ed a8 bd
       -0.08716427 -0.07603996 0.23109339 -0.08248375
0001c0 d9 b7 e5 bd 54 35 68 3c c4 d4 7e 3d b9 cd 02 be
       -0.11216707 0.014172871 0.062214628 -0.1277379
0001d0 1e f7 11 bd 3d 49 46 be 33 94 fc bd ce 42 26 3d
       -0.03563606 -0.19363876 -0.12332954 0.040591054
0001e0 06 d4 a1 3d b7 62 81 bb 12 65 76 be 70 7b cb bd
       0.079017684 -0.0039485353 -0.24061993 -0.09935653
0001f0 e7 f8 d1 39 9b 36 8a be 2a 7c ce bb 7f 51 66 3e
       0.00040049033 -0.26994786 -0.0063014226 0.22492026
000200 ac bd 05 3d cd 5f c2 bd dc a4 9a be 0b 94 01 3e
       0.03265159 -0.09490929 -0.30203903 0.1265413
000210 fb 6b 80 3b ec 09 f6 bd 75 0d ea 3d 16 c7 d6 bc
       0.0039191223 -0.12013611 0.11428348 -0.026217978
000220 2f 13 83 be 0f 28 07 be 3b 01 24 bd 7f 77 22 be
       -0.25600573 -0.13198875 -0.040040236 -0.15865897
000230 7b cd 6c 3d 92 5b 23 3e 8a 4e 08 be 4b 60 4f 3d
       0.05781315 0.159529 -0.1331121 0.05062894
000240 15 b3 a3 be fe 5f 79 3d 01 de f2 3d 07 3c 70 be
       -0.31972566 0.06088256 0.1185875 -0.23460399
000250 a2 11 1b be a6 4a 19 be d9 5f f3 3d 84 20 9d 3d
       -0.15143445 -0.14969882 0.11883516 0.076722175
000260 16 88 73 bc b9 ca 58 3e 60 f5 5d be 9e 22 7b 3e
       -0.014863988 0.21171083 -0.21675634 0.24524924
000270 6c b3 66 be d8 a1 0c 3e 2e 60 e6 3c 1c da d9 bc
       -0.22529382 0.13733613 0.028122034 -0.02659326
000280 6a 08 ac bd 4a e2 da bc 9a 66 f1 3d 7c e6 6a bd
       -0.08400042 -0.026719231 0.11787148 -0.057348713
000290 e1 37 c8 bd 10 ed c4 3d 69 1e 64 3e 85 fd 11 3e
       -0.09776283 0.096155286 0.22277226 0.14256866
0002a0 77 df d5 3d 2d c5 60 3e 66 21 50 3d 29 9c df 3d
       0.10443013 0.21950217 0.0508131 0.10918457
0002b0 d3 fd 17 be 10 58 a0 bd 01 7f 52 3d a7 7a 71 be
       -0.1484292 -0.078292966 0.05139065 -0.23581944
0002c0 ef f3 8c 3d 04 b2 64 be 89 f7 13 3e 3f 87 2a 3d
       0.06882464 -0.22333533 0.14449896 0.041632887
0002d0 66 c4 39 3e 42 3e c9 bd 04 38 25 3d 6b a8 eb 3d
       0.18141326 -0.09826328 0.040336624 0.115067326
0002e0 09 10 e6 3d e1 09 32 3c e1 f9 03 be 66 50 0a be
       0.11233527 0.010866613 -0.1288829 -0.13507232
0002f0 c1 8b 7c 3e c0 ce 63 bc d8 2e 34 bd d1 85 6a be
       0.24662687 -0.0139042735 -0.043989986 -0.2290261
000300 84 c7 87 bd 61 4d bb bd a7 ac 5b 3e 39 6e f2 3c
       -0.066298515 -0.09145618 0.2145258 0.029593574
000310 e8 44 71 be 81 87 87 3e 50 1f 19 3e e5 f7 aa bd
       -0.23561442 0.2647057 0.14953351 -0.083480634
000320 79 a9 b6 bd 06 2b c6 3d ac 24 f7 bc 56 d0 59 bd
       -0.08919043 0.09676175 -0.030168854 -0.0531772
000330 82 7c 7c be 73 39 dc 3c 57 ec 35 3d ce 71 f5 bc
       -0.24656871 0.026882863 0.044414844 -0.029961493
000340 0a 5d 47 be 0c 95 f3 bd 18 09 26 be 74 25 66 3d
       -0.19469085 -0.11893663 -0.16214406 0.05618806
000350 f0 55 84 b8 21 f6 2e 3c 64 e5 3a be 73 0e 21 bd
       -6.3102576e-05 0.010678799 -0.18251568 -0.03932042
000360 f8 47 bb bd 5a 22 46 3c 12 d3 8a 3e f0 c2 5c bd
       -0.09144586 0.012093151 0.2711416 -0.053896844
000370 03 b9 02 bd f3 6c a3 bd 06 15 1b bd c3 7b 07 be
       -0.031914722 -0.07979765 -0.037861846 -0.13230805
000380 ad d1 28 3d 06 92 fb bc be eb 0c be 77 70 38 bd
       0.041215587 -0.030709278 -0.13761804 -0.04502913
000390 56 82 9e bd 52 90 76 3e 01 65 8e 3d 69 c9 90 3d
       -0.07739703 0.24078491 0.06952859 0.07069666
0003a0 ca 85 ef bd 4b 60 97 bd 46 12 00 ba 14 72 76 3e
       -0.1169544 -0.07391413 -0.00048855355 0.24066955
0003b0 f3 c6 6b be 7b 9e 37 3d b3 66 e3 3c 9f 69 14 bd
       -0.23025112 0.044828873 0.027758932 -0.03623354
0003c0 f6 a1 10 be 75 fa 8c bd e8 67 0b 3e 1c 9c 90 bd
       -0.14124283 -0.068837084 0.13613856 -0.070610255
0003d0 02 80 7e 3e 3a 56 0e 3e e9 e4 84 be 5c 13 6f be
       0.24853519 0.1390008 -0.25955895 -0.23347229
0003e0 e7 42 04 3e a4 c3 9b 3c 59 0f b7 bc 17 ab fa 3c
       0.12916146 0.019014187 -0.022346186 0.03059916
0003f0 ec ee 71 3c d6 bd 6a 3d ac 18 80 3b 38 a7 80 3d
       0.014766436 0.057309948 0.003909191 0.062818944

decoder.0.bias f4 [64]
000000 ea dd e2 3e 2d 16 ff 3d b9 40 fe be e6 37 f2 bd
       0.44309932 0.124554016 -0.49658754 -0.11827068
000010 19 7b e6 bd fa 77 01 3f de db 1f be 18 4e 97 be
       -0.11253948 0.50573695 -0.15611216 -0.29551768
000020 29 0d f7 3e 73 f3 bf be e7 75 00 be 58 4a 1e be
       0.48252228 -0.37490425 -0.12544976 -0.15458047
000030 ff f8 8a 3e f0 a2 16 3f 57 c3 60 3d ed 57 c1 3e
       0.27143094 0.5884237 0.05487379 0.37762395
000040 8f 4c 5a 3d 3f 83 41 3f f8 b7 81 3e 75 4d 8c 3e
       0.05329567 0.7559089 0.2533567 0.27402845
000050 af 82 8d 3e 2d 91 28 3f 45 4d 81 3e 3b 88 e0 3e
       0.27638766 0.6584652 0.25254264 0.43853936
000060 a0 14 1d bf ac ec 24 3e 23 9d 97 be 09 95 4c 3d
       -0.61359596 0.16105908 -0.29612073 0.04994682
000070 6b d0 c5 bb 56 7b 31 3e bb 32 2e 3d 0e 50 ec 3e
       -0.0060368082 0.17332205 0.04252885 0.46154827
000080 82 43 16 be 55 cc 8d 3e 6f 42 93 3e 1e 3c 0b 3e
       -0.1467419 0.27694955 0.28761622 0.13597152
000090 f9 f8 37 3d a9 f7 8f 3d dc 36 6a 3e 03 ae 6f bd
       0.044915173 0.07029659 0.2287249 -0.05851556
0000a0 e2 bd 1b 3d d4 78 18 3e e7 a0 d7 3d 09 24 29 be
       0.038022883 0.14889842 0.105287366 -0.16517653
0000b0 53 6f 85 be 5f 6e 48 3f d9 7a 0c 3f 23 37 10 be
       -0.26061496 0.7829341 0.5487495 -0.14083533
0000c0 b0 25 b4 be 53 d7 1a be ef 6b fc 3d 96 08 00 3e
       -0.35185003 -0.15121202 0.12325274 0.12503275
0000d0 81 97 0d be c4 3a b0 3d 37 3f e2 3e 65 7e 9f bd
       -0.13827325 0.08604959 0.44188854 -0.0778778
0000e0 7d ce 8a 3e 37 b3 42 3e df f6 a8 3e f8 78 0e bf
       0.27110663 0.19013678 0.33000848 -0.55653334
0000f0 d4 41 82 3e 87 c2 c7 be 84 57 19 3d 82 b4 d4 3e
       0.25440848 -0.390156 0.037436977 0.41543967

decoder.2.weight f4 [128, 64]
000000 a3 04 a5 bd 05 e0 0d 3e ae d1 0b be cf 1c 5d 3e
       -0.08057525 0.13854988 -0.13654205 0.21593021
000010 d6 b2 5f bd 28 f1 5b be 62 d1 69 3e 53 da 16 3e
       -0.05461391 -0.21478713 0.2283378 0.14731722
000020 59 ec ea be 0c 88 d5 3d bd fe 7f 3c 03 8c 86 bc
       -0.45883444 0.104263395 0.015624699 -0.016424185
000030 67 93 6b 3e 14 36 ae 3e 3e 6a d4 3c 89 b5 91 3e
       0.23005448 0.34025633 0.025929566 0.28458813
000040 b8 5d cf 3e 8f 2b b0 3e 76 59 d8 3d 47 0c 43 be
       0.4050119 0.34408233 0.10563938 -0.19047652
000050 c8 13 21 3e c6 93 21 3e bd 13 9b be f3 43 93 bc
       0.15730202 0.15779027 -0.30288497 -0.017976737
000060 7a a8 d0 3d 64 a3 9b bd 57 8b 22 be 03 7e 0c 3e
       0.10188384 -0.07599524 -0.15873466 0.13719945
000070 07 e7 53 bd 5d 9a 95 be 0b c9 25 3d 11 67 9b bd
       -0.051733997 -0.29219332 0.040474933 -0.07588018
000080 a3 d7 06 bd 35 bd 18 be c2 39 eb bc 5a b8 08 be
       -0.03292049 -0.14915927 -0.028714065 -0.13351575
000090 c7 14 82 be 72 01 0b be 38 a2 7b 3e a5 d5 20 3e
       -0.25406477 -0.1357477 0.245736 0.15706499
0000a0 f0 9f 23 3d be e1 f5 3d a2 c4 cb 3d ac 03 16 be
       0.03994745 0.120059475 0.09949614 -0.14649838
0000b0 7a 01 ba bd 8d a0 be 3b 04 d2 b5 bc 3a 1c 23 3d
       -0.09082313 0.005817479 -0.02219487 0.03982184
0000c0 bf f6 73 bd 83 e4 18 bd 56 3d bb 3e 11 4e 17 be
       -0.059561487 -0.0373273 0.36570233 -0.14775874
0000d0 5c 50 a5 3c fb d2 2b 3d 28 47 95 3c 72 05 a4 bd
       0.02017992 0.041949254 0.018222407 -0.08008851
0000e0 fd ee 95 bc 13 26 02 3e 2c fe 6a be de 96 a0 3e
       -0.018302435 0.12709837 -0.22948521 0.31365103
0000f0 b5 5e 8d bd e0 df 0e 3c 78 0d de bd 37 c4 55 3e
       -0.069028296 0.008720368 -0.10842413 0.20875631
000100 c1 bc 04 3e 99 11 d5 bc 79 82 e2 bc af 76 e2 bd
       0.12962629 -0.026009368 -0.027650105 -0.11057793
000110 8d 4d 9f 3d 7b 24 64 be 6e 97 b7 bd 32 08 d6 3c
       0.077784635 -0.22279541 -0.0896443 0.026126955
000120 02 63 fd bd 3b 3e 37 be bf ef de bd 89 d3 7d 3e
       -0.123724 -0.17894833 -0.10885572 0.24787726
000130 9f 56 fd 3c f2 d6 ea 3d 55 51 90 3d 88 c1 5f be
       0.030925093 0.11466779 0.07046763 -0.2185117
000140 fe e6 8d 3d 51 ac a3 3e 3e 5e 96 3d 8f 34 0d be
       0.06928824 0.31967404 0.07342194 -0.13789581
000150 f7 d7 1d bd 2d 6c e9 bb 79 a2 ca bd ca a8 6f bd
       -0.03853604 -0.0071234913 -0.098942704 -0.05851058
000160 68 aa ae bb 32 24 cc 3d 8d 0a 56 bd a6 a5 da 3d
       -0.0053303726 0.09967841 -0.052256156 0.10676126
000170 38 ab d8 3d 26 7e 7f bd 02 39 73 3d 4d e1 da bd
       0.105795324 -0.062376164 0.05938054 -0.10687504
000180 89 af 5f be e7 dc 27 be 08 83 a0 3d d2 b6 4e 3d
       -0.21844305 -0.16392861 0.07837492 0.05046732
000190 3b 13 0b bd 3b 7e 09 be cd 3d 31 bd b4 b3 87 3d
       -0.033953886 -0.1342706 -0.04327183 0.066260725
0001a0 bb f1 82 bd a6 90 e5 bc 3e 49 50 3c e1 bf 35 3e
       -0.06393763 -0.028023075 0.012712775 0.17748977
0001b0 eb 44 e8 bd 32 89 cb 3c 91 9a a2 bc 59 bf d4 bd
       -0.1134127 0.024845693 -0.019849094 -0.10388059
0001c0 61 c7 ea bd f9 d9 86 bd dd b5 2a be 64 a7 bd 3d
       -0.1146381 -0.06584544 -0.16670938 0.09260443
0001d0 d5 6c 63 3c c6 58 25 3d 59 99 92 bd 64 74 d1 3d
       0.013880928 0.040367864 -0.07158155 0.10227278
0001e0 84 3a 8f bd 7d 28 64 3e 7e 04 73 3d 0e 12 87 3e
       -0.06993583 0.2228107 0.059330456 0.26380962
0001f0 4d cd a0 3e e0 44 ed 3d c3 a7 a0 bc 7f 7e dd 3c
       0.31406632 0.115854025 -0.019611245 0.027037857
000200 10 40 c8 3c c9 82 03 be 64 55 c8 3b 24 d7 97 bc
       0.02444461 -0.1284286 0.006113695 -0.018535204
000210 fc 3b ef bd 29 e6 22 be dd 06 ad bd 32 a3 86 3c
       -0.11681363 -0.15908112 -0.08448575 0.01643524
000220 83 0c 77 3c d0 b2 80 bd 9b fa d2 bb ef 7d a8 3d
       0.015078667 -0.06284106 -0.006438566 0.08227145
000230 97 5b 72 3d 69 eb 2e bd 9e 51 3d bd d2 c7 d4 bd
       0.059169378 -0.042704973 -0.046220414 -0.10389675
000240 54 15 68 bd c2 e4 6b 3d 15 e4 86 3c 3f 1b 95 3d
       -0.056660965 0.057591207 0.01646618 0.072805874
000250 82 d5 91 3d 07 c6 c7 3d 4c 28 c2 bc 02 d4 c5 3d
       0.071208015 0.097545676 -0.023700856 0.09659578
000260 40 e6 2b 3e 97 34 37 3d 6a ad 13 be 77 05 04 3d
       0.16787052 0.044727888 -0.14421621 0.032231774
000270 af d3 5b 3d 21 f3 aa bd 26 5c 0d bd 0c 8f 64 bd
       0.053668674 -0.083471544 -0.034511708 -0.055800483
000280 6d 95 ad 3d d0 66 f9 bc 72 1e 80 3d d0 bd 42 bc
       0.08475766 -0.030444533 0.06255807 -0.011886075
000290 91 9b 47 3d f5 ec 9e 3c 79 b8 8e bd 01 3b 88 bc
       0.048732344 0.0194001 -0.06968779 -0.016629698
0002a0 dd 80 fa bc 1f 18 ff 3c c1 cb 15 3d 7e 6a 14 3e
       -0.030579025 0.031139432 0.036571268 0.14493749
0002b0 cd cc 9b bd 57 b8 1b bd 41 7f 2c bd df 6c 3c bd
       -0.07607422 -0.038017597 -0.042113546 -0.046002265
0002c0 81 c3 8d bd 39 50 10 be b2 0b 55 be 8d 61 d9 3d
       -0.06922055 -0.14093103 -0.20805243 0.106143095
0002d0 b0 10 69 bd fc fa 40 3d 90 29 d6 bd d3 1e 04 3e
       -0.05690068 0.047114357 -0.10457146 0.12902384
0002e0 44 4b e9 bc e9 2f 02 3e a4 80 c2 3d 1d b9 ab 3d
       -0.028478272 0.12713589 0.094971925 0.08384917
0002f0 22 66 ad 3e 4e 15 9f bd ef d1 42 3d 1d 03 66 3c
       0.33866984 -0.077677354 0.04756349 0.014038828
000300 23 53 29 bd 56 53 e8 bd de 1b 23 bc 22 2e 84 3e
       -0.04133905 -0.1134402 -0.0099553745 0.25816447
000310 41 f6 91 bd 14 95 3b 3a 86 4e 3e bc 70 3a 17 3e
       -0.07127047 0.0007155698 -0.011615401 0.14768386
000320 b4 d1 14 3c c2 84 df 3d 7f 36 27 bd 68 3f 32 3d
       0.0090832 0.109139934 -0.040823456 0.0435175
000330 fd 3d 28 3d de e1 4f be 1a ad c8 bd 42 80 ae bd
       0.04107474 -0.20301005 -0.097986415 -0.08520557
000340 01 e3 c7 bd 93 95 96 bd cf 65 dd bd 80 73 55 3e
       -0.097600944 -0.07352748 -0.10810434 0.20844841
000350 c8 04 fb bc 53 fd 0a 3e 34 71 36 ba 30 b8 a5 3d
       -0.030641928 0.13573198 -0.00069596176 0.080917716
000360 02 2c 4e 3d 9a f5 22 bd 71 15 27 bd 20 c9 3a bc
       0.050334938 -0.039785005 -0.040791932 -0.011400491
000370 e2 a2 3c 3d d6 cf fd bb 90 55 f8 bd dc 15 bd 3c
       0.046053775 -0.0077457232 -0.12125695 0.023081712
000380 c6 0a 1a 3e b2 1b 93 3b 2e 41 f4 bc ab 10 49 bd
       0.15043172 0.0044893855 -0.029816236 -0.04908816
000390 f2 de 1b 3e 55 6f 1d bd d4 00 84 bc a7 6c a3 3b
       0.15221766 -0.038436253 -0.016113676 0.0049873176
0003a0 36 35 31 bc f9 c2 a2 3c b7 49 a9 3d 23 e6 bf 3c
       -0.010815909 0.01986836 0.08266013 0.023425167
0003b0 40 37 d5 bd 83 1b dd bd f6 9b 9f bd 20 d0 37 3d
       -0.10410929 -0.10796263 -0.07793419 0.044876218
0003c0 6a 8c bc 3b 3c df d4 bd f0 8f 9d bd 21 cb 1f 3c
       0.0057540433 -0.10394141 -0.076934695 0.00975302
0003d0 1d 9f f3 bc c5 a6 0e 3d 9c 0d dd 3d d7 34 16 bd
       -0.029738957 0.034827013 0.107936114 -0.036671486
0003e0 2c c1 a6 3d e8 a7 a2 3d a4 e1 c4 3d e9 71 b4 bb
       0.08142313 0.07942182 0.0961335 -0.005506743
0003f0 01 68 1c 3e 73 a6 e2 bd cb d0 a5 bd 88 72 cd 3d
       0.1527405 -0.11066904 -0.08096465 0.10031611

decoder.2.bias f4 [128]
000000 69 36 9d 3e 0e 5f 38 bf 11 f2 a6 3d 7a d1 d4 3e
       0.30705574 -0.7202004 0.08151639 0.41566068
000010 58 de 94 3e 77 48 4c 3d f2 4e 41 3f 78 4b d4 b9
       0.29075885 0.049873795 0.75511086 -0.0004049202
000020 16 a5 a4 3e e5 41 55 be aa 72 b7 bd 87 c1 c0 bd
       0.321572 -0.20825918 -0.08957417 -0.094119124
000030 09 90 85 3e 23 ed 2a bd 6c 18 92 3e bc 33 04 bf
       0.26086453 -0.041730057 0.28534257 -0.5164144
000040 f0 09 3d 3d c3 2a 4d 3d c0 8a c3 3e 68 25 51 be
       0.046152055 0.05008961 0.38191795 -0.20424426
000050 5b 23 38 be 80 80 62 be f5 7b b1 3e 87 4b 97 be
       -0.17982237 -0.22119331 0.34664884 -0.2954981
000060 29 0b 36 be d5 d0 24 be cf d5 f7 3e 06 f5 64 bc
       -0.17777695 -0.16095288 0.4840531 -0.013974434
000070 b4 b3 41 3e b1 f9 00 3e d2 af 3c 3e 14 6f fb bd
       0.18916208 0.1259525 0.18426445 -0.12277046
000080 e0 a9 4c 3e 5d ef 74 bd 4e f6 eb 3e bd fb 63 3e
       0.19986677 -0.059798587 0.46086353 0.22264
000090 4d 39 7c bb 7c 7e 3f be 33 32 9f 3e f3 8c 33 bf
       -0.0038486302 -0.18700594 0.31092986 -0.70136946
0000a0 80 64 8d 3e fa 11 24 3d 17 5b d7 3e b9 ac d5 3e
       0.27615738 0.040056206 0.42061684 0.4173334
0000b0 37 25 6a 3e a5 99 9c be 3a f7 64 be a9 86 34 bf
       0.22865759 -0.3058597 -0.22359934 -0.70517975
0000c0 6f 98 f7 3e 89 12 d4 bd 71 3f d7 be cf 03 bc be
       0.48358485 -0.10355098 -0.4204059 -0.36721656
0000d0 b6 ec 79 3e b1 b5 2b be d8 b5 15 3f af 9b 78 be
       0.24406704 -0.16768529 0.58480597 -0.24278139
0000e0 fa 9b 7b 3e 10 90 ad be ca 3d 07 3f ef f6 44 bd
       0.24571219 -0.33898973 0.5282866 -0.048087057
0000f0 98 c9 85 bd f9 f1 ac bd 8c 90 27 3e 8e 65 48 be
       -0.065325916 -0.0844459 0.16363734 -0.1956999
000100 c9 6a 4c bd 95 14 c7 be 82 69 0d 3f 14 b1 85 be
       -0.049906526 -0.3888289 0.5523912 -0.26111662
000110 0a db 30 be 41 a1 51 bd 8e 59 4d 3e 9b 10 cb be
       -0.17271057 -0.051179174 0.20053694 -0.39661106
000120 52 3b c8 3e e0 4b 2b bf 9b fa 87 bd d7 c7 3e 3c
       0.39107758 -0.6691265 -0.06639596 0.011644325
000130 20 74 c9 3e e8 57 16 3e 00 96 a3 3e dc 1b 4b 3d
       0.3934641 0.14681971 0.31950378 0.049587116
000140 97 41 9b 3d 1c ec 18 be 5c 73 cd 3e 09 43 28 3e
       0.0758087 -0.14933819 0.40127075 0.16431822
000150 d0 66 45 be f4 4e a1 bd 91 6f 8f be ea 84 26 bf
       -0.19277501 -0.07876387 -0.28014806 -0.6504656
000160 02 90 89 3e e7 3c 0b 3e af 23 99 3e 4d ac 8b bd
       0.26867682 0.13597451 0.29910037 -0.06819973
000170 ba 17 96 3c 43 fd 37 3e 87 ce 5d bd ea 77 0a bf
       0.01832186 0.17967705 -0.054152038 -0.54089224
000180 44 47 47 bd 49 ab d6 3e 67 e7 e7 3e 4d d4 15 bf
       -0.04865195 0.41927555 0.45293733 -0.5852707
000190 2b 2f 36 3e fe 12 d3 3e 72 77 bb 3e bb 36 03 bf
       0.1779143 0.41225427 0.36614567 -0.5125539
0001a0 28 23 fe 3d 3c 2e 41 bd f1 a6 27 3f 7c f8 42 be
       0.12409049 -0.047163233 0.6548911 -0.19040102
0001b0 f8 e0 ec 3e 36 36 0f 3f 81 e6 de bd 2d 74 40 bf
       0.46265388 0.55942094 -0.10883809 -0.7517727
0001c0 d6 82 62 3d fe b7 96 3d de a8 68 3c d7 8e 9c 3d
       0.055300556 0.073593125 0.014200417 0.07644432
0001d0 ed 91 a9 3b 12 12 22 bd eb 98 c4 3e 7e 66 c9 be
       0.0051748664 -0.039568014 0.38397917 -0.39336008
0001e0 11 c7 fd 3c 1c 17 a8 3b 59 f6 c5 3c cb 96 60 bd
       0.030978711 0.005129708 0.02416532 -0.054831307
0001f0 ea e9 a2 3e 50 ba 91 bd 1c 77 08 3f c6 6b 22 3c
       0.31819087 -0.071156144 0.53306746 0.0099133905

exp_avg f4 [64, 128]
000000 98 ad b9 bd 23 45 c3 bd b3 bc 07 bd 3a ee 0c bd
       -0.090663135 -0.09534671 -0.033138942 -0.034406878
000010 9e a9 09 3d 9b 5f 9e 3a f3 ad be 3d b6 d2 92 3d
       0.033609025 0.0012082936 0.09310522 0.07169096
000020 a6 c2 11 3d f6 64 12 be 24 5a 8c be 69 2a 63 bd
       0.03558602 -0.14296326 -0.27412522 -0.055460367
000030 3b 15 73 3e 3f 6d eb 3d 0f 9f 6f bc 1c a7 2a 3a
       0.23738568 0.114954464 -0.014625325 0.00065098866
000040 84 0c 49 3e 3a 37 00 be 31 25 21 be 95 88 f1 bd
       0.1963368 -0.12521067 -0.15736844 -0.11793629
000050 28 51 0e bc 32 69 1a 3d e1 56 80 bd 56 26 2c 3e
       -0.008686341 0.03769798 -0.06266571 0.16811499
000060 76 37 c4 3d 01 34 65 3a 11 71 b7 bc 2c 51 cf bc
       0.09580891 0.0008743406 -0.022392781 -0.02530726
000070 3b 4c 85 bd 13 47 08 bd 01 ff 7b bd 53 5c 58 bd
       -0.065086804 -0.033270907 -0.061522488 -0.052822422
000080 32 2a 4f be 22 23 0b be 81 45 8c bb a1 bd b9 3d
       -0.2023094 -0.13587621 -0.0042807464 0.09069372
000090 5b 68 95 bc 70 71 31 3c d6 ee 50 3e e7 4b 02 bd
       -0.018238237 0.010830268 0.20403609 -0.031810667
0000a0 17 53 5a be 6e 2d 8b be a2 4c 52 be 7d ef b9 3c
       -0.21320759 -0.27183098 -0.20537046 0.022697205
0000b0 0a 9c 8d 3e 43 ae 3f 3e a0 b7 e1 3d ee 2a 33 bd
       0.2765811 0.1871882 0.11021352 -0.043742113
0000c0 a3 f3 ae 3e 0c 58 3a 3d 4a d9 68 be 32 8e a4 be
       0.34170255 0.045494124 -0.22739139 -0.32139736
0000d0 ca 2c bd bd 82 4a 8d bd 00 a3 15 3d 4b e6 84 3e
       -0.092370585 -0.06898977 0.036532402 0.2595695
0000e0 e7 f6 34 3e bb 40 03 3d 8d 16 e5 bd 36 a2 1b be
       0.17672311 0.032044154 -0.11185942 -0.15198597
0000f0 9f 07 1e be 04 89 08 be 20 30 5c bd 59 a4 9b 3c
       -0.15432595 -0.13333517 -0.053756833 0.018999266
000100 6c 99 27 be 75 9d 3e bc ef 2a 8f 3d 40 c7 83 3d
       -0.1636712 -0.01163422 0.06990611 0.06434488
000110 69 1e 26 3d 18 4d 6f bd dc 68 c6 bc 4b 57 41 be
       0.040556345 -0.05842313 -0.024219923 -0.18880956
000120 ef 59 45 be fb 95 66 3d e9 67 e9 3d ba 12 20 3e
       -0.19272588 0.056295376 0.113967724 0.15632144
000130 b5 0a 16 3e 44 76 6c bd 11 73 26 be 33 98 96 be
       0.14652522 -0.057729974 -0.16254832 -0.29412994
000140 53 0f b1 3e d7 1a 82 3e b7 e6 1d 3e 72 e4 f3 3c
       0.34582004 0.25411102 0.15420042 0.029772017
000150 38 0d 7f be 2b c4 a3 be d2 e4 47 be bb f2 69 3b
       -0.24907386 -0.31985602 -0.19520882 0.0035697657
000160 68 31 60 3e b0 5d 63 3d 4b 6f e5 3b 43 ec 46 bc
       0.21893847 0.05550927 0.0070017925 -0.01214129
000170 23 73 5f be 34 7e 11 be d3 b6 d7 bd 9f a7 47 3d
       -0.21821265 -0.14208299 -0.10532918 0.04874384
000180 65 88 c1 bd b6 ad 82 3d 3a cb 7b 3d 80 f9 99 bc
       -0.09449843 0.06380789 0.06147311 -0.018795729
000190 ac 57 92 3c ee 48 c7 3b e6 bd 9d bd 25 6d e0 bd
       0.01786407 0.006081692 -0.07702236 -0.10958318
0001a0 dd cf e4 bd a8 30 3b 3e 17 9d 97 3e ed fe 0d 3e
       -0.11172459 0.1828028 0.29612038 0.13866778
0001b0 9e 6d bf bd 0b 52 58 be 5c ed 7d be 4b 6d 3f be
       -0.0934708 -0.21125047 -0.24797577 -0.18694036
0001c0 f9 77 c1 3d 81 f3 06 3e ad 1a a6 3e 2c 23 d8 3d
       0.09446711 0.13178827 0.32442227 0.105535835
0001d0 f6 ee 28 be 95 41 4f be 75 85 5f be 84 b5 95 bd
       -0.16497406 -0.20239861 -0.21828254 -0.07310012
0001e0 ac aa b1 3d ab e7 1d 3d ff 97 ee 3d 4e b9 34 3d
       0.08675131 0.038551014 0.11650085 0.044122033
0001f0 b8 3e 80 bd ca 1b ff bc e8 6a b7 bd 0c db 09 bd
       -0.06261963 -0.03114118 -0.089559376 -0.033656165
000200 c4 65 91 3c ef 4c 90 3d bc 8c ae bc 97 4f 00 bd
       0.017748721 0.07045924 -0.021307342 -0.031325903
000210 93 aa 86 be 03 ec 69 bd de 67 c7 3c c4 56 d7 bc
       -0.26302013 -0.057109844 0.02434152 -0.02628649
000220 ea 4f 6c bd 5b bc 3a bd 48 ae e9 3d 9e 81 8d 3c
       -0.0576934 -0.045589786 0.11410195 0.01727372
000230 05 3f b0 be fc b5 e6 3b f2 60 da 3d 2f 58 7c 3d
       -0.3442308 0.007040737 0.10663022 0.061607536
000240 c6 bf 57 be 14 97 91 3d 78 89 32 3e de 2c 87 bc
       -0.2106925 0.07108894 0.17435253 -0.016500887
000250 2c b2 9a bc 78 f4 71 3d 69 74 bd 3d bc 93 51 3d
       -0.018883787 0.059071034 0.09250719 0.05116628
000260 eb 00 97 bd e1 0a e6 3c fb 8b a2 3d 9f 68 29 3e
       -0.07373222 0.02808136 0.079368554 0.16543816
000270 9c 88 01 3e b0 17 fc 3c e2 97 0b 3c 3d 6b 88 bc
       0.12649769 0.030773014 0.008520098 -0.016652698
000280 d5 93 8d bd be 45 c2 bb 3a 7c b6 bc 1d 9b 28 be
       -0.06912962 -0.005928724 -0.022276033 -0.16465421
000290 3d c6 97 be e8 75 31 3e dd 90 41 bd d5 e1 09 3d
       -0.2964343 0.17330134 -0.047257293 0.033662636
0002a0 79 ce 0d be db 74 11 bd 88 41 64 3d 46 d5 3c be
       -0.13848294 -0.035511833 0.055726558 -0.18440732
0002b0 c6 9c 01 bf 0b 32 6b bd 7d 52 e0 3d 25 47 e3 3c
       -0.5062984 -0.05742077 0.109532334 0.027743885
0002c0 02 8b 0d be d5 50 18 bd 8d 6b af 3d 2c 83 bc 3c
       -0.13822559 -0.037186462 0.085654356 0.023011766
0002d0 3a 30 68 bd 7b f9 e1 3d 8b 2d 82 3e 18 b4 f1 3d
       -0.056686617 0.11033913 0.25425372 0.11801928
0002e0 b6 98 48 bc 77 c0 41 bd 31 b9 e4 bb f3 f3 9c 3d
       -0.01224344 -0.04730269 -0.0069800843 0.07663717
0002f0 12 6f 5b 3e 38 51 f0 3d 34 c7 5e 3d 4b 52 14 3e
       0.21429089 0.11734241 0.054389194 0.14484517
000300 7a 2f ce bd 01 7f 94 3c ab 06 04 3d 3d 74 60 bd
       -0.10067649 0.018126966 0.03223292 -0.054798353
000310 9a 29 ea 3b 8e c6 18 3e 69 61 a8 bd 63 7f 07 be
       0.0071460726 0.14919493 -0.082217045 -0.13232188
000320 d7 cd a2 bd a2 18 53 bd ee 98 83 bb 02 e4 cd be
       -0.07949417 -0.051537164 -0.0040160334 -0.4021302
000330 67 65 98 be fb fb 83 3e 77 bb 5d 3d 37 ab 35 3c
       -0.29764864 0.25778183 0.05413386 0.011088184
000340 9b cd 68 bd da 5c ed 3b 5d 3e de bb 31 0e 1a be
       -0.056836706 0.007243735 -0.0067823366 -0.15044476
000350 53 f3 06 be 4c 45 0e 3e 29 9c 06 3e 17 b2 94 bd
       -0.13178758 0.13893622 0.13145508 -0.072605304
000360 80 f9 3c 3c ee 28 e7 3c 85 fb 8e bd c7 23 2d bd
       0.011534095 0.028217759 -0.06981567 -0.042270448
000370 fa d9 f5 bb 8d 8a 09 3e 88 06 1f 3e dc 7b ac 3b
       -0.0075027915 0.13431759 0.15529835 0.0052637886
000380 26 f0 90 bc 01 81 bd 3d 4c a6 61 3d 84 0a d2 bc
       -0.017692637 0.09253121 0.055090234 -0.02563978
000390 5f c3 30 3e 48 0f c0 3c 8e 96 a8 bd fc 5a b5 bc
       0.17262028 0.023444787 -0.08231841 -0.022138111
0003a0 6a d8 83 3c d0 92 15 3e 29 5a 66 3d 4c 02 5a be
       0.016094405 0.14606786 0.056238327 -0.21289939
0003b0 b2 47 5f 3c 8f 2a 18 3e 90 9f cb bc 5b 4b 04 bd
       0.013627933 0.14859985 -0.024856359 -0.032298427
0003c0 e9 7e 13 bd 14 11 c0 3d 3a b0 0a bd e1 ab 85 3b
       -0.036009703 0.093782574 -0.03385947 0.0040793275
0003d0 04 cf 4d 3d 48 f6 6d 3e 8f 8e 86 3d cb 18 0a be
       0.050246254 0.2323848 0.0657016 -0.1348602
0003e0 f2 f1 f4 3d 96 f6 2f 3e 3a 5f 00 be d0 88 2c bd
       0.1196021 0.17183909 -0.12536326 -0.042122662
0003f0 bf 71 3c bd 6b 73 32 bd 22 d8 1a 3e 12 1f 5c bd
       -0.046006914 -0.043567102 0.1512151 -0.05374057

exp_avg_sq f4 [64, 128]
000000 c0 2a 4c 3f 85 20 8c 3e 37 ba 14 3e 00 19 0c 3e
       0.7975273 0.2736856 0.1452416 0.13681412
000010 7e 0b 24 3e 5d e8 65 3e cb 42 95 3e 62 78 b3 3e
       0.16020009 0.22451921 0.29152521 0.35052782
000020 57 cf 72 3f 09 18 81 3f 4c 5f cb 3f 45 22 1b 3f
       0.94847625 1.008546 1.5888457 0.60599166
000030 82 2c bc 3e a5 6b 80 3f 6c 57 92 3f 70 a3 12 3f
       0.36752707 1.003285 1.1432929 0.57280636
000040 fc a7 b3 3f ac 09 09 3f 16 28 c3 3f c3 85 82 3f
       1.403564 0.53530383 1.5246608 1.0197071
000050 c3 17 a3 3e f5 f2 01 3f 42 9b 86 3f 88 9f 9c 3f
       0.31854066 0.5076135 1.0516131 1.2236185
000060 ed 40 43 3f 29 4e 8a 3e 44 05 98 3e c5 12 ab 3e
       0.76270944 0.27012756 0.29691517 0.33412758
000070 e8 5d 87 3e 3d 84 0a 3e 56 c3 08 3e b3 81 9d 3e
       0.26438832 0.13527007 0.13355765 0.30763015
000080 3f 5e 3a 40 70 68 17 3f 7c 81 8d 3e c2 54 d9 3e
       2.9120023 0.59143734 0.2763785 0.42447478
000090 40 12 23 3f 40 b0 58 3f 0c 6a 34 3f ba 33 35 3f
       0.6369972 0.84643936 0.70474315 0.70782053
0000a0 25 bf 65 40 4f 48 f6 3f 47 82 cd 3f cc 75 1a 3f
       3.5897915 1.9240817 1.6055382 0.60335994
0000b0 d7 ef 39 3f 69 f9 db 3f cd f4 b8 3f 1a 65 5e 3f
       0.7263159 1.7185489 1.4449707 0.8687302
0000c0 b5 dc 57 40 8a cc 1c 3f a4 18 fc 3f 9c 19 0d 40
       3.372846 0.612496 1.969502 2.204688
0000d0 bb e9 6a 3f f0 2a 17 3f 9c e6 7c 3f a9 cd 08 40
       0.91762894 0.5904989 0.9878938 2.1375525
0000e0 d2 40 20 40 3b 1c d7 3e 1a 85 1c 3f 86 89 91 3f
       2.5039563 0.42013726 0.61140597 1.1370094
0000f0 16 96 7f 3f 58 8c f0 3e f5 ec 87 3e 58 a8 47 3f
       0.9983839 0.46982074 0.2654797 0.7799125
000100 21 de 33 40 71 20 d4 3e b8 29 43 3f f3 a1 64 3f
       2.8104327 0.41431 0.7623553 0.89309615
000110 3e 2a 32 3f 6c 62 d3 3e 5f 53 90 3e 6e 71 73 3f
       0.69595706 0.41286027 0.28188607 0.95094955
000120 89 bb 77 40 e5 70 1a 3f e6 cc d2 3f 09 8c ca 3f
       3.8708212 0.60328513 1.646878 1.5823985
000130 66 7b 3f 3f a9 8b 1e 3f fe 68 aa 3f d1 84 29 40
       0.74797666 0.61931854 1.3313291 2.6487315
000140 0c cc 4b 40 0f 27 d9 3f 34 9e a3 3f 58 93 00 3f
       3.184329 1.6965045 1.2782655 0.5022483
000150 6d e1 77 3f 9d c8 1b 40 3b 24 e7 3f 8a df 36 3f
       0.9682835 2.4341195 1.8057932 0.71434844
000160 88 af 25 40 90 5e 1f 3f f8 ad 82 3e 59 e3 dc 3e
       2.5888386 0.62253666 0.25523353 0.43142202
000170 99 39 74 3f fc d8 9a 3f 74 28 30 3f c6 82 20 3f
       0.9540039 1.2097468 0.68811727 0.62699544
000180 11 46 4d 3f 05 f9 82 3e 3e 7a ba 3e 15 1c 8a 3e
       0.8018504 0.25580612 0.36421388 0.2697455
000190 7d 06 45 3e 0c 7d 10 3e 8d 68 f5 3d 07 d1 bc 3e
       0.19240756 0.14110202 0.11982832 0.36878225
0001a0 a2 d3 aa 3f b0 ae 0a 3f c2 82 bf 3f f2 85 68 3f
       1.3345835 0.541728 1.4961779 0.90829384
0001b0 26 08 a1 3e 1e a4 0d 3f e3 dc ae 3f 28 44 a4 3f
       0.3145153 0.5532855 1.3661159 1.28333
0001c0 1f b2 8d 3f 29 6f 82 3f 0b 07 b4 3f ab f6 15 3f
       1.1069983 1.0190173 1.4064649 0.5857951
0001d0 d2 2a bc 3e b5 1c 9f 3f 55 18 ab 3f 8d bb 06 3f
       0.3675142 1.2430636 1.33668 0.5262993
0001e0 75 55 42 3f 10 59 8d 3e 98 1b 43 3e 74 8f 3e 3e
       0.7591165 0.27607012 0.19053495 0.1860941
0001f0 85 3e 72 3e cf ca 86 3e 70 b3 98 3e 89 05 9a 3e
       0.23656662 0.26326606 0.298244 0.30082348
000200 f4 69 bc 3f bc d5 e3 3e 57 1d 8a 3e 02 3c 67 3e
       1.4719834 0.44499004 0.2697551 0.22581485
000210 16 01 99 3e 98 80 e2 3e 9d 9f 0a 3f 09 2c 25 3f
       0.2988364 0.44238734 0.541498 0.6452032
000220 18 d1 e6 3f 31 7a ad 3f a7 07 03 40 11 1e 5e 3f
       1.803256 1.3552915 2.047342 0.8676463
000230 3b 98 17 3f a1 fa d6 3f 5f 84 10 40 49 3f 8e 3f
       0.5921666 1.6795236 2.2580793 1.1113063
000240 ce 7e 0e 40 76 b5 52 3f 4a 70 04 40 73 d2 a8 3f
       2.2264895 0.8230814 2.0693536 1.3189224
000250 0a f2 0c 3f ab 3a 7c 3f a0 89 0e 40 3d a1 0e 40
       0.5505682 0.9852702 2.22715 2.2285912
000260 14 18 b8 3f dd 7f e5 3e 0e f9 0a 3f 98 9b 05 3f
       1.4382348 0.44824114 0.5428628 0.5219054
000270 38 ea d4 3e 4c 51 8e 3e 7e 40 8a 3e 05 60 18 3f
       0.41584945 0.277964 0.2700233 0.59521514
000280 83 bb 8c 40 b4 ff 71 3f fa 01 d8 3e b1 56 2a 3f
       4.3978896 0.94530797 0.42189008 0.6653853
000290 3b 56 99 3f 97 9f ba 3f 99 7a 92 3f 38 8b 8e 3f
       1.197944 1.4579953 1.1443664 1.1136236
0002a0 06 ba a6 40 b5 80 29 40 a1 d6 07 40 4e 51 81 3f
       5.210208 2.6484807 2.122475 1.0102937
0002b0 5a 9e b8 3f 92 46 43 40 79 ef 2f 40 a5 4a b1 3f
       1.4423325 3.0511823 2.7489913 1.3850905
0002c0 e0 bf c0 40 83 2f 82 3f bc e3 35 40 cc 98 2a 40
       6.0234222 1.017075 2.8420248 2.665576
0002d0 1a 9f 94 3f e7 1e 79 3f 10 4b f5 3f 31 34 79 40
       1.1611054 0.9731278 1.9163532 3.8938105
0002e0 1b 0d 96 40 78 b6 41 3f b7 0e 8f 3f f3 49 d0 3f
       4.6891 0.7566905 1.1176366 1.6272568
0002f0 20 23 b9 3f 15 77 4c 3f db 1c e8 3e a8 26 c2 3f
       1.4463844 0.79869205 0.45334515 1.5168047
000300 97 ee 85 40 c6 c6 37 3f c4 cc 93 3f f7 85 b3 3f
       4.1853747 0.7178768 1.1546865 1.4025258
000310 7e 40 99 3f 53 b4 2d 3f 28 7d ce 3e 54 e3 aa 3f
       1.1972806 0.6785328 0.40329862 1.3350625
000320 9c d0 ac 40 15 82 78 3f 89 dc 1d 40 55 10 23 40
       5.400465 0.9707349 2.4665854 2.5478718
000330 f8 52 b1 3f 99 26 5b 3f c3 a8 df 3f ee 47 63 40
       1.3853445 0.8560577 1.7473377 3.5512652
000340 c4 81 b8 40 ec 8a 3b 40 27 a8 0a 40 2b 60 55 3f
       5.7658405 2.930354 2.1665132 0.83349866
000350 21 9e a6 3f 01 2e 3f 40 b7 37 1e 40 02 6d a8 3f
       1.3017007 2.9871829 2.4721506 1.3158267
000360 ae 6a 9b 40 df 72 8c 3f 01 a4 ee 3e 9f 02 25 3f
       4.8567724 1.0972556 0.466095 0.64457124
000370 a2 b6 ab 3f a3 09 d6 3f 89 c8 87 3f 97 75 90 3f
       1.341511 1.6721691 1.0608073 1.1285886
000380 ff f4 a5 3f a4 a4 e4 3e 4a cc 0e 3f 4d 8b dd 3e
       1.2965392 0.4465686 0.5578047 0.4327034
000390 2f ff ac 3e 9b 18 4f 3e 3b 9a 4c 3e e2 5a 11 3f
       0.3378844 0.2022423 0.19980709 0.567793
0003a0 85 8d 07 40 a2 4a 7b 3f 2e 5d 10 40 e1 5d bf 3f
       2.1180127 0.98160756 2.2556872 1.4950525
0003b0 da df 1f 3f a0 56 33 3f 6d aa e6 3f 74 74 f8 3f
       0.62450945 0.70054054 1.802076 1.9410539
0003c0 b3 b8 fb 3f a4 fd e4 3f 8d 6f 0c 40 33 1a 7a 3f
       1.9665741 1.7889905 2.1943085 0.97696227
0003d0 3f 90 11 3f 3c bb c9 3f 1f a9 ed 3f 57 f9 61 3f
       0.5686073 1.5760264 1.8567237 0.8827109
0003e0 99 3c ad 3f fd c1 03 3f f6 d8 aa 3e 9d 5b 97 3e
       1.3534118 0.5146788 0.33368653 0.29562083
0003f0 e3 4e c5 3e 57 0b d0 3e 2b 44 ee 3e 33 81 0d 3f
       0.38536748 0.40633652 0.46536383 0.5527527
