outputs/lightning_logs/version_10/checkpoints/epoch=33-step=10641.ckpt (torch, 202753 bytes, 12 tensors)

encoder.0.weight f4 [64, 128]
00000000: 4b3f 2b3d 2163 b9bc 1f9f 83bd 5079 9c3b
00000010: 4c32 523c d8c7 983d 3ea0 1e3c 45b8 54be
00000020: bca7 ae3d ea8b 4fbd 5022 90bc 33be 273e
00000030: 37a7 98bb 90ab 883d 3aa5 1cbd 3e3e edbd
00000040: 31d4 cfbc 57f4 d4bd 4383 c03d 9bc7 ee3d
00000050: cf3d 7cbc aabe 253d 9bc8 ff3b 120e a63d
00000060: d8c1 103e 9983 fa3c 4dcb 20bd 7eed 8abd
00000070: a36b c03d 1d51 983d bf49 7abd 2bc8 58bd
00000080: 567b 8d3d 3b22 3abe 7552 c3bd d7c6 25bd
00000090: 2f3b a4bd 6c23 72bb d2ca 16bd 2316 96bd
000000a0: 6cb4 b4bd b66f 22be 219e 0cbd b504 3a3d
000000b0: c6ba 94bd 6bf3 bd3c 059e 88bd 4ecb 3fbd
000000c0: 28f4 ed3c 5c8c 25bd f65f 8e3d 9ddb 313d
000000d0: c416 4abb 4e17 103d ea3a e6bd b065 253d
000000e0: 632f 693d 85a0 79bb 45a4 b5bc 0fd0 f73c
000000f0: 97a7 243e 4477 6b3c 89bc edbd d3c6 b8bd
00000100: f7b2 cbbc f10d 65be b479 87bc d316 aebd
00000110: 54c3 babd df9a 1abd f6bb 54bd 1a55 003e
00000120: 2f5b 16be ceb5 02ba 9ba8 d03d b2bf 9abd
00000130: 7798 c5bd 462d c03c 8bae 3cbd 4858 db3d
00000140: 8970 c1bd a563 e73d e293 68bc 0d66 cd3b
00000150: eed7 8fbd c989 4cbd e515 993c 0e8a 333c
00000160: ee0c 0fbe 71a9 00bc 9fd5 4c3c fdab 943d
00000170: 9ddf c4bd 9e11 e8bd 2b1f 8f3d 3b68 f2bc
00000180: 6f59 d63c 902c 6b3d a966 5b3c f4a4 febd
00000190: 46ea 7fbd 16ad de3c 3c3d d839 e36e 17bc
000001a0: 5297 443c 6027 593e 56d7 2a3c 3c46 b0bc
000001b0: 2444 77bc 8f53 0f3d 6230 5c3b 15b9 da3c
000001c0: 12b3 343c 0068 f03d c9d1 2cbe 5684 383e
000001d0: f2eb ca3d 52ff c7bc 0ecb 7bbc f58e 353c
000001e0: a98b debc 747c 183d 4c97 40bd f3f7 793d
000001f0: ca67 7fbd 0b53 babd 1ed1 6c3d fdab 9bbc
00000200: 38b8 8c3d 21fb a0bd e610 b7bc 20e9 9fbb
00000210: e55f 55bd 1b24 0c3c 77ff a93d a97c 133e
00000220: f238 b63c 3d6f 44bd 93ba c33c b86b 023e
00000230: ee84 2b3d 5cc4 083e 727a 0b3c b6d2 c5bd
00000240: 5886 c63d 204d ad3d 5b49 27bd 3f44 0cbc
00000250: ece8 bebd c432 babd 070a 13bd f855 abbc
00000260: 3aeb ab3c 71b5 96bd 28de 5ebe 3f36 673c
00000270: d9bb 013e 8966 2f3d 1aba 513d d12a 9e3c
00000280: 2ae0 d3bc 6c96 d23c c2b3 94bb 8703 903d
00000290: b3eb 743c 4002 8fbc 9e95 debc 976a 063c
000002a0: 0c49 2b3d 4164 43bc be42 e2bd dca6 8a3c
000002b0: dd7d 013c 2b76 dd3d e49b 9b3d f62c 733b
000002c0: 8bea 40be 7828 7cbd 58b7 e6bd 6c7e 80bd
000002d0: f99c 84bd 2db2 363c 213b 133e 3061 fbbc
000002e0: 5bc6 11bd 3955 963d dcb2 08bc bbd0 a73c
000002f0: 13b9 c8bc 61ae 07bd efdc d53d d234 31bd
00000300: a6a2 c1bc 0226 f6bd 78dd c6bd d5f2 f43c
00000310: c674 9cbd 9628 bcbc 7e52 5f3d 2b0c 1a3e
00000320: a26e 703d 3f55 20bd 34cc 56bd 7610 b43d
00000330: 70c1 083c e66f afbc 8fd8 ecbc 5c61 7a3d
00000340: 68c9 cdbd 09d0 2b3b 87c2 36bc c31e be3c
00000350: 1ada de3c df7c 9abd 93da 9abd af9b 70bd
00000360: f53b 9f3d 0375 5fbd 8b06 3bbc c652 cf3c
00000370: 2370 5f3c 0073 dbbd 045f de3d 1809 b93d
00000380: 5b75 50bd 099e 833d f350 0d3e d7eb dc3c
00000390: 2ad0 09be 827c 2fbd 0946 09bb d369 2ebd
000003a0: 84ac 99bd 8a16 0c3d 9b9a 1f3d 6357 2d3c
000003b0: 2922 82bd b9c3 f03d 8175 7c3d df36 ebbd
000003c0: 53f6 7b3c 73cd 6a3d 4662 b1bd e9dc d3bd
000003d0: 5433 013d 8a3b 1a3d f068 6ebd 12a1 93bc
000003e0: 0edc e13c 55a0 83bd f797 8ebd a7b2 f93c
000003f0: 5199 423e 0bd2 123d 924b a1bd 6929 94bc
0.041808408 -0.022630276 -0.06426834 0.0047752038 0.0128293745 0.07459992 0.009681759 -0.20773418
0.085280865 -0.05067054 -0.017594486 0.16381149 -0.0046586054 0.06673348 -0.03824351 -0.115841374
-0.025369735 -0.103981666 0.09400036 0.116591655 -0.015395596 0.040465035 0.0078058965 0.081081524
0.14136446 0.030580329 -0.039256383 -0.06783579 0.0939553 0.07437346 -0.061105486 -0.05292527
0.0690829 -0.1817712 -0.09537212 -0.04047283 -0.08019101 -0.0036947383 -0.03681452 -0.07328441
-0.08823475 -0.15862927 -0.03433049 0.045414645 -0.07262187 0.02318736 -0.06670765 -0.046824746
0.029047087 -0.04041706 0.06951897 0.04342233 -0.0030836323 0.035178475 -0.11241706 0.04038018
0.056929957 -0.0038090062 -0.022173056 0.030250577 0.16079555 0.014371697 -0.11608226 -0.09022298
-0.02486561 -0.223686 -0.016537525 -0.08500447 -0.09119287 -0.037745353 -0.051937066 0.12532464
-0.14683221 -0.00049861975 0.10188409 -0.07556094 -0.09648221 0.023459088 -0.046064895 0.10710198
-0.094452925 0.112983026 -0.014195414 0.006268269 -0.07023607 -0.04993609 0.018687198 0.010958208
-0.13969776 -0.007852898 0.012502103 0.07259367 -0.09612963 -0.11331485 0.06988367 -0.029590717
0.026165692 0.057415545 0.013391175 -0.12433806 -0.06247928 0.027182143 0.00041244354 -0.009242746
0.011998968 0.21206427 0.010427317 -0.021517865 -0.01509193 0.034991797 0.0033598174 0.026699582
0.011029022 0.117385864 -0.16876902 0.18019232 0.09908284 -0.024413738 -0.015368236 0.011081447
-0.027166205 0.037228063 -0.047019288 0.06102748 -0.06235484 -0.090978704 0.057816617 -0.019002909
0.068710744 -0.07860399 -0.022346925 -0.0048800856 -0.052093405 0.00855353 0.08300679 0.14403023
0.02224395 -0.047957648 0.023892676 0.12736404 0.04187482 0.13356155 0.00851308 -0.096593305
0.09693593 0.08461976 -0.04084144 -0.008561193 -0.0932177 -0.09091714 -0.035898235 -0.020915017
0.020986188 -0.07358826 -0.21764433 0.014112054 0.12669314 0.042822395 0.05120287 0.019307526
-0.025863726 0.025706492 -0.0045380304 0.07031923 0.014948773 -0.017457128 -0.027170952 0.008204124
0.04181771 -0.011925758 -0.11047886 0.016925268 0.007903543 0.108135544 0.07598093 0.0037105656
-0.18839471 -0.06156203 -0.11265439 -0.06274113 -0.06475253 0.011150879 0.14378025 -0.030685991
-0.035589557 0.07340474 -0.008343425 0.020485273 -0.024502313 -0.033125285 0.1044253 -0.043263264
-0.023637127 -0.12018968 -0.097102106 0.029900948 -0.0763946 -0.022968572 0.05452203 0.15043704
0.058699258 -0.039143797 -0.052440837 0.08792202 0.0083469 -0.021415662 -0.028911857 0.061128005
-0.10048181 0.0026216528 -0.011154777 0.023208028 0.027203608 -0.075433485 -0.07561221 -0.05874222
0.07775108 -0.05455495 -0.011415134 0.025308024 0.013637575 -0.10715294 0.108579665 0.090349376
-0.05089317 0.06426627 0.13800411 0.026967926 -0.13458315 -0.04284335 -0.0020946285 -0.04258139
-0.07503608 0.034201182 0.038965803 0.010579917 -0.06354172 0.11756081 0.061635498 -0.11485075
0.0153785525 0.057324838 -0.08661322 -0.1034487 0.03154309 0.037654437 -0.058205545 -0.01802114
0.02757075 -0.06427065 -0.06962579 0.030480696 0.19003798 0.035844844 -0.07875742 -0.018086152

encoder.0.bias f4 [64]
00000000: bbf4 783d b5cd e83c 9715 263c 4bac 993b
00000010: f5a2 713d 67d2 abbd 1f86 e83b 6cec cd3c
00000020: c9f1 973c 0ee3 5f3c c9f4 a93c 628a 87bd
00000030: ddc5 783d fae8 833d 07f8 a83d 4c19 83bc
00000040: 1241 583c 27f6 a03c 5011 02bd 9e96 6abd
00000050: 0bdd e3bc f12b 37bd 72bf d13c 4a4f 35bd
00000060: a010 823d bbca 5ebd bb78 a83c d1d2 b8bd
00000070: 467a a9bd 242e 39bc dec8 b6bc 6718 793d
00000080: 707f 103d de7a 25bc 09f2 bf3c 7db0 683c
00000090: 660d 6b3d 7bd7 553d 73d7 2b3d 49fa c43d
000000a0: 003f 87bc 2336 403d 8299 58bd 4191 4abd
000000b0: 9628 67bd 77d1 b7bc e8c7 273d 3ca1 11bd
000000c0: 3ae5 73bd 0d4a 763a 759b 26bb 0e3f b43d
000000d0: 5409 133d 343b 64bd 5ae0 a93c c5de 8ebd
000000e0: 9944 6b3c fe48 ba37 3b3b 0fbd 2471 ce3c
000000f0: 1886 fa3c b48e ab3d b4cf 9c3c b507 9fbd
0.06078027 0.028418401 0.010136983 0.0046897284 0.0589933 -0.083897404 0.0070960666 0.025137149
0.01854791 0.013664974 0.020746605 -0.06618191 0.060735572 0.06440921 0.082504325 -0.016003273
0.013199108 0.019648625 -0.03175479 -0.057272546 -0.027815362 -0.04471964 0.025603984 -0.04426507
0.06350827 -0.054392558 0.020565381 -0.09024585 -0.08275275 -0.011302505 -0.022312578 0.060814288
0.035277784 -0.010100095 0.023430841 0.014202234 0.057385825 0.05220745 0.041953515 0.096180506
-0.016509533 0.04692663 -0.05288077 -0.04945493 -0.05643519 -0.022438748 0.04096213 -0.035554156
-0.05954478 0.00093951897 -0.002542225 0.08801089 0.035897568 -0.055720523 0.020736862 -0.06976084
0.014359617 2.2206917e-05 -0.034968596 0.025200434 0.030581519 0.08376828 0.01914201 -0.07765142

decoder.0.weight f4 [128, 64]
00000000: b913 9c3b bf01 213e e8b2 a03e 5c68 973c
00000010: 0809 803e 5894 8e3d ca9a 29be a2c5 fd3d
00000020: 3e6a bcbc 0368 86bd 26f6 76be 659d febd
00000030: 91d9 a23d be52 7cbd 2f0b 203e 93a9 9b3e
00000040: 88c6 c13c 340b 543e f062 513e a98a 793d
00000050: b9c8 d93d 8287 31bd cbdd 89be 7ac2 283e
00000060: f94a 733e ae3a d2bd 1772 d0bd 43d7 b63e
00000070: 346b 953e 8e1a 073e 85e9 283d 450e 0dbe
00000080: 602b 9c3d caa8 01be 2411 2cbd fc61 2ebd
00000090: 4ffa 8abd 8627 afbd c6a6 b73d 1f68 653d
000000a0: 5308 56be 8db3 343e 92a4 99bd 34fe 39be
000000b0: b596 8c3c 0874 603d 284a 64bd a53c 5bbe
000000c0: 68fe 04be 7f5a b03d 937a 9bbd 7e4d 9b3c
000000d0: 1bf8 913d 6941 23bd df23 f73d 935e 423e
000000e0: 07c3 a6bd 4b01 63be 990b 3cbd 2e17 ebbd
000000f0: 4523 a7bc 1fca 1c3e e667 873e 95be 8f3d
00000100: edd9 12bd 23ea c3bd 5220 293e 90b3 173e
00000110: 7fa2 d43d 7538 b23d eb13 96bd 5561 fcbc
00000120: 08b9 3abc b9ac 5abe b7eb 363d 499d 303e
00000130: 8bf0 42be b978 2f3c a9ef 2abe c2c6 b2bc
00000140: ac53 2e3e 1713 883d ee9d 243d c578 0fbd
00000150: 4e5b 6f3d bbaf 923d bcb5 70bd 26d2 efbd
00000160: 9055 893d 8044 8a3d 4937 60bb c282 07bd
00000170: c241 993d 2cd7 253d ff17 bb3c 7e6a 74bc
00000180: d573 0c3e a5b4 5f3d 8dfc 4e3c decd 11be
00000190: 1c31 0ebe 76bb 203d d39b f73d 22ed 97bc
000001a0: 3e72 363c 129e d73c 241b 103d 3921 dcbd
000001b0: f21c d9bc 41d7 4ebb 6d4e 923d df3d f73b
000001c0: 0934 703c d022 173e 1ef3 48be 232f f53d
000001d0: 349d c13d 471b 15bd bd61 233e 9fe1 8b3e
000001e0: 36ad 8a3d ed58 08be dbd2 9abd fc6e 6cbc
000001f0: f5df adbd 4762 80bc 2eea fbbd 22bc e3bc
00000200: 697a b9bd 51a9 f1bc 9b1d 003e 559c f63b
00000210: be33 083d 97f4 2e3d 423c 13be d37d 7ebd
00000220: 3d07 1b3d cf0f d5bd bc50 3bba 57cd 013e
00000230: e927 b9bd e1b0 89bd 7927 643d a075 1ebd
00000240: ed76 8a3d e610 8d3d 34f0 79bd 5b6f 6abc
00000250: 39d1 b23c a789 0a3d 42fb 0e3d c7dd 813d
00000260: aa34 47bc 3e4a 0a3e 24a2 dc3c 30fa 5cbd
00000270: 7ed9 d9bd 87e4 dabd ef04 05be ebdf 6abd
00000280: 845a 3b3c 2097 a33d 20c7 85bd cc0a b7bd
00000290: ef3f e33d 2635 e73c db2a 56bb 82f0 993d
000002a0: 2e0c de3c 7d1d 423c 1dfd 833d 17cb 82bc
000002b0: b245 78bd 5d39 79bc 1d86 673d f03d 733a
000002c0: 1e95 4abd 8e7e 923d 7082 943b 1eda 27bb
000002d0: b4ac ad3c 0203 1ebd 2a5b 2b3d 99b5 383e
000002e0: 292e c93d e23c 203d 92eb 59bc 8278 8e3c
000002f0: 9070 363d 1e6b 06be 0104 3fbe a10e 0c3e
00000300: a38f c0bc e025 e7bc 9cb6 0fbd 437d 7f3c
00000310: 1171 ad3d f39a c33d 8bdb f4bd e263 033e
00000320: 7e91 7dbd 2cba 81bd 46f7 00be 594e b13b
00000330: c149 22bd 7aae d5bd 7cf5 2f3e bb76 78bd
00000340: b2e7 ad3c beb4 443d e5ce 74bd 8e42 85bc
00000350: d3d8 56ba 5e03 e5bd 6011 0a3d 1331 043e
00000360: a6c7 82bd cad5 b2ba 17dd 933d 9cc0 483d
00000370: fe32 9cbc ff30 dabd 06e6 1bbe cb88 d63c
00000380: 7f64 61bd 95d1 d7bc 5c62 e4bd 9203 7a3d
00000390: 86a3 023e 0abb 123e 13d7 0ebe de11 c7bd
000003a0: 5699 753d b42c 843d 86f0 0fbd 6165 2dbd
000003b0: 4d32 c9bc e8ff cfbc c97f 10bd 4ad5 91bd
000003c0: a2ac 193d 9959 19bd bfd0 1a3d 4463 f1bc
000003d0: 9bf2 673c 01b9 8b3d 0c49 b7bd 8076 923d
000003e0: 457d 82bc 232a b73d eb11 6dbc 2077 42bd
000003f0: 40f7 4abd e375 fcbd ece2 18be 30df 3b3d
0.0047630933 0.15723322 0.31386495 0.01848238 0.2500689 0.06961888 -0.16562954 0.12391211
-0.022999879 -0.065628074 -0.24117336 -0.124323644 0.07951654 -0.061602347 0.15629266 0.30402812
0.023654237 0.20707399 0.20447898 0.060923252 0.10633988 -0.04334212 -0.26927027 0.16480437
0.23759069 -0.102650985 -0.10178011 0.35711107 0.29183352 0.13193724 0.041238327 -0.13774975
0.076254606 -0.12662044 -0.042008534 -0.042573914 -0.06786024 -0.0855246 0.089673564 0.0560075
-0.20901613 0.17646618 -0.075020924 -0.18163377 0.017161706 0.054798156 -0.055734783 -0.21409853
-0.12987673 0.08611011 -0.075917386 0.01895785 0.071274005 -0.0398573 0.12067389 0.1898139
-0.08142667 -0.22168462 -0.045909498 -0.114790305 -0.02040256 0.15311478 0.26446456 0.070187725
-0.03585236 -0.095661424 0.16516235 0.14814591 0.10382556 0.087021746 -0.07328018 -0.03080813
-0.011396654 -0.21354951 0.04465839 0.172475 -0.19037072 0.010709935 -0.16692986 -0.02182329
0.17024106 0.06644266 0.040189676 -0.035027284 0.058436684 0.07162424 -0.058767065 -0.117100045
0.06705773 0.067513466 -0.003421264 -0.033083685 0.074832454 0.040488407 0.02283859 -0.014917968
0.13716061 0.054615635 0.012633455 -0.14238688 -0.13885921 0.039241277 0.12090268 -0.01854569
0.011135636 0.026320491 0.035182133 -0.10748524 -0.02650306 -0.0031561407 0.07143865 0.0075452174
0.014660844 0.14759374 -0.19623992 0.11971881 0.09453812 -0.036402967 0.15955253 0.27320573
0.067713186 -0.13315172 -0.07559749 -0.014430758 -0.08489982 -0.015671862 -0.123005256 -0.02779967
-0.09056551 -0.029499682 0.12511294 0.0075259604 0.03325247 0.042713728 -0.14378455 -0.062131714
0.0378487 -0.10403406 -0.0007145514 0.12675987 -0.090408154 -0.0672319 0.055701707 -0.038686395
0.067609645 0.06887989 -0.06102009 -0.014308776 0.02182828 0.03382268 0.034907587 0.06341129
-0.012158552 0.13504884 0.026932783 -0.053949535 -0.106371865 -0.106881194 -0.12990163 -0.05734245
0.011435155 0.07987809 -0.06532121 -0.08937606 0.11096179 0.028223585 -0.0032679352 0.07516576
0.027105417 0.011847851 0.06444762 -0.015965981 -0.06061334 -0.01521143 0.056524385 0.0009278944
-0.049458615 0.07153045 0.004532151 -0.0025612186 0.021200515 -0.038577087 0.041834988 0.18038024
0.098232575 0.039120562 -0.013300793 0.017391447 0.04454094 -0.131268 -0.18653871 0.13677455
-0.023505991 -0.028216302 -0.03508626 0.01559383 0.08468831 0.095510386 -0.11955937 0.12831071
-0.06190633 -0.063343376 -0.12594327 0.005410951 -0.03962112 -0.104336694 0.17183489 -0.060660105
0.021228645 0.04802393 -0.059767623 -0.016267087 -0.00081957615 -0.11182283 0.033707976 0.12909345
-0.06385736 -0.0013644036 0.07219904 0.04901181 -0.019067284 -0.106538765 -0.15224466 0.026188275
-0.05502748 -0.026345054 -0.11151573 0.06103856 0.12757692 0.14329162 -0.13949232 -0.09720205
0.059960686 0.06453839 -0.03514149 -0.04233301 -0.024560118 -0.02539058 -0.035278115 -0.0712076
0.03751815 -0.037438963 0.037796732 -0.029466279 0.014156963 0.06822396 -0.089494795 0.07151508
-0.015928874 0.08943584 -0.014469604 -0.047476888 -0.049552202 -0.123271726 -0.14930314 0.045867145

decoder.0.bias f4 [128]
00000000: fdfe 573e 3627 c63c 402e 103e 08dd 21bd
00000010: cd73 783e bc76 753d 5ef2 3f3e b9e3 d03b
00000020: 0acc 3ebd c6b1 1b3e eaa3 0fbd 355e 8f3c
00000030: c08b 6e3c e0ac 353e 983e 4ebd 1dbb 31bd
00000040: fbb9 953d 2350 233e cafc ea3d b97d 3e3e
00000050: 134b 493d 8535 d83d 585e b63d 1060 0e3e
00000060: 5544 6d3e ea71 a3bc 1d62 573c 2bb7 9fbd
00000070: e059 933d 758f a63d 8254 513e 90e9 813d
00000080: 3000 293e da0a 813e 2867 083e 5cd6 0a3e
00000090: 085f 983d 9652 fabc b472 3d3d 4f02 983d
000000a0: 43c1 3f3e b07f b43c 9e5e 4b3d db18 9d3b
000000b0: 2316 86bd 7e9d c43d a60d 4cbd dfd7 cfbc
000000c0: ea9d 463e 1376 4dbd bcee 033e f07f 313d
000000d0: 580c 92bd 999c f9ba dde6 9b3e a05e 553e
000000e0: 0627 453e 81b9 bf3d e8e7 813e 737e f33d
000000f0: cc57 dfbc 7b69 28bd 4062 a03d b8d2 2b3d
00000100: 388c 323e 7622 7b3d 6659 c53d 53b9 373e
00000110: 9683 afbd 1e82 99bc 1e49 8a3c 3903 203e
00000120: 78d2 7c3e feda 1a3e 0e81 84bd d5d0 03bc
00000130: 5121 cf3c f248 873d da6d 343e 2b2a 893e
00000140: afb5 d73d 6c36 663e 10c2 b43e cf1c 523e
00000150: b918 e63d 1cdb a13d 7fc2 1abd 591f 513d
00000160: a294 523e ddf6 5b3d 008b 5abd a2ad 473d
00000170: 00a4 2d3e 0415 ee3d 9d7d 3abd f2ed 77bd
00000180: 7882 0e3e 734c d43d 316a 803d 75b5 27bd
00000190: e0cd e43c 6af6 1b3e 1a53 cb3d a10c b43d
000001a0: 3ad2 4c3c 8269 533b 8a5f 623e de6a 683e
000001b0: d10c ea3d 33e4 2e3e c158 213e d99f b83d
000001c0: dd7f 0c3e 599a adbc 80ff de3d c8d8 1a3e
000001d0: ade5 0f3e 3a9c 003e af4c d03d 72e9 c53d
000001e0: 5658 013d adf8 5a3e df01 633e 4ade d33d
000001f0: 9a3f d53d bfae 95bc 8361 783e bbcd 36bd
0.21093364 0.02418862 0.14080143 -0.039517432 0.24262924 0.059927687 0.187448 0.006374803
-0.046581306 0.15204534 -0.03506843 0.017500976 0.014559686 0.17741728 -0.050352663 -0.043391336
0.073108636 0.15948538 0.11473997 0.18602647 0.049143862 0.10557083 0.089047134 0.13903832
0.23170598 -0.01995178 0.013145951 -0.077986084 0.07194877 0.08132831 0.20442393 0.06343377
0.16503978 0.25203592 0.13320601 0.13558334 0.07440001 -0.030556958 0.046251968 0.07422315
0.18726067 0.022033542 0.04965078 0.004794223 -0.06547191 0.09600352 -0.049817704 -0.02537149
0.19396177 -0.050161432 0.12884039 0.0433349 -0.07131261 -0.0019043862 0.30449572 0.20836878
0.19253168 0.09361554 0.25372243 0.11889353 -0.027263544 -0.04111622 0.0783124 0.041949004
0.17436302 0.06131216 0.09636192 0.1794179 -0.0857002 -0.018738803 0.016880568 0.1562623
0.24689662 0.15122601 -0.06469928 -0.008045395 0.025284441 0.0660571 0.1762003 0.26789984
0.105327 0.22481698 0.35304308 0.20518802 0.11235184 0.0790312 -0.037783142 0.051055286
0.20564511 0.053702224 -0.053355217 0.048749574 0.16957092 0.11625102 -0.04552995 -0.060529657
0.13916957 0.10366144 0.062702544 -0.040944535 0.0279302 0.15230718 0.0992796 0.08791471
0.012501294 0.0032258932 0.22106758 0.22697017 0.11428226 0.17079239 0.15756513 0.090148635
0.13720651 -0.021191763 0.108885765 0.15121758 0.14052458 0.12559596 0.10170876 0.09663667
0.031578384 0.21383925 0.22168683 0.10345133 0.10412522 -0.018271802 0.24255948 -0.044629794

exp_avg f4 [64, 128]
00000000: ce0a a5bc 18ec 9abc 90cc b43b 21e2 033b
00000010: 8417 173c 4fdb acbc 4be9 83bd d4a3 a2bc
00000020: 3335 6f3c c5fe 92bd f5d8 34bd de58 03bd
00000030: 1399 3c3d 6d01 ed3c 085c c3bc b0d0 693a
00000040: 5ac7 f73d 6f93 3fbd 3abd babb f14b 803a
00000050: 17d5 a63c adf1 0fbc fb75 5cbc 741a c23d
00000060: 27c6 ad3d e251 a339 e740 75ba a81b 3ebd
00000070: dfa9 2b3d ff70 d1bc 98bb 41bb 833c 0a3d
00000080: 1c85 b5bd 51ce 57ba 3b42 163c 104d ac3c
00000090: 90f1 743d c3c4 8b3c b474 8bbd 961f d6bd
000000a0: 7904 bbbd 445d 74bd 5e4d f0bc b080 383d
000000b0: 9cd9 b53d 4ed3 f23a c2c7 ffbb 260d 85bd
000000c0: 0178 323d ec46 3bbc fb27 2fbd ceb2 ecbc
000000d0: a5de 3b3b 9228 7cbd 427b 203d 5a6f b73d
000000e0: 22aa cd3d cd47 01bd 4d92 fbbc 1496 e4bd
000000f0: 7fb6 853d b937 5ebd 0dc0 d9bc c434 a93d
00000100: edd3 2bbd 2623 fdbb 7f95 1a3c 58be 513d
00000110: b29a aa3c afee 503c 4c59 a03b bd01 95bd
00000120: 49e1 cabd 5ed4 d73b c71f c53d ea13 d83d
00000130: 4938 603d c903 7dbc 4baf c4bd aa7e cbbd
00000140: d544 323d 5edf 193e 83b0 023e a26b 583d
00000150: cfb5 0abc 22e4 07be b7b2 d3bd b81d cbbc
00000160: cc72 3e3d 9950 693d fd14 163d b599 de3c
00000170: 62f5 a53c 043c a5bd 835c a8bd 5891 103c
00000180: 8681 79bc 0506 0f3d c901 a23c 7579 84bc
00000190: b907 b23a d7dd 363c b517 1c3a 8782 8fbd
000001a0: d731 433c 997b 6f3d 4391 eb3d 5682 9c3c
000001b0: 573d 90bc e1b0 8fbd 85a8 f3bd 20fc aabd
000001c0: c0bf 6ebd 1b4c 783d 132f fc3d cbe5 4b3d
000001d0: e02c 173d a545 cbbd 701f edbd 6c82 4abd
000001e0: 058f fb3c a1df da3c d875 d43c 1898 723d
000001f0: 4370 0e3d eff1 f4bc 7ba9 10bd e794 dfbc
00000200: 758f 09bd 883c 2abd 0190 06bd c835 eebc
00000210: 339e 92b8 c3a2 ca3c fe4a d7bb 0b5b 123c
00000220: f608 0d3c 4659 c5bd b2fd e6bd bd93 b9bc
00000230: 6b6b 173c 278d 9b3c 417e 1cbd d7e9 28bc
00000240: 23fe cb3c 56bd 33bd a1d0 edbd 64f9 adbd
00000250: c9ed a73c 0aae 483b a295 efbb 3485 ca3c
00000260: 6806 5fbc 4db2 97bc eaba 52bd 97f7 adbd
00000270: 2ebc 243c 13d1 41bb c096 193c 6b87 5a3c
00000280: 5b09 c9bd 4a58 80bc 5d29 19bc f85e 89bc
00000290: 9b25 43bc 0574 863b b4a4 2bbd 714a e9bc
000002a0: 966b f4bd 9fcf d7bd 2d27 a5bd aae6 1abd
000002b0: 2680 483c be51 b93c dce5 dfba 5c9c 2bbd
000002c0: aeed 1bbc a4b9 1abd 7923 f0bd 19da d5bd
000002d0: bfe1 a73b 2507 8a3c ffd7 933c 5535 b23c
000002e0: c65c 033d b7c8 07bd db43 c4bd c21b ccbd
000002f0: 3865 f7bb ca4b c8bc 8ca7 abbc cb80 3b3d
00000300: bf25 9abd 6334 d1bc dcb8 1bbc 93c2 10bc
00000310: 730f 7ebc 9717 f93b 3a95 a6bc 3cf6 a7bc
00000320: 6adb 0bbe 75f9 88bc 5100 9c3c 22d7 8c3c
00000330: 133f 383d 07be 86bc 2ebc 36bd 7996 e0bd
00000340: 632f 78bd 41d1 b13c e052 803d f8a5 5ebd
00000350: cdc3 cbbc 6622 13bd baae 34bd 4711 e9bb
00000360: 65a3 423d f479 813d e044 31bd 674c 9fbd
00000370: 80d0 5bbb 8649 82bc d192 72bd a5b8 ff3b
00000380: c811 9fbd 762b 213d 297e 263c 9b34 3fbd
00000390: cf5c b2bc dd19 643c 046c 7a3c 4c57 6dbd
000003a0: 3672 d6bd d9a3 3cbc 3fa9 61bb 4191 f03c
000003b0: 8fdc 133c 2cc7 e4ba d7c9 7bbc a0f9 a9bd
000003c0: 70a8 25bd 45de 0cbd 2be6 1d3c 0d6e ac3c
000003d0: 615c 25bd e3d5 debc f18a f1bc 78eb 24bd
000003e0: c10b 99b8 a050 f33c e6b2 c03c 2fc3 913c
000003f0: 7274 48bc 2612 1bbd 1762 4abb b30d 3fbb
-0.020146754 -0.018911406 0.00551755 0.0020123797 0.009221915 -0.021100668 -0.064409815 -0.01985351
0.014600086 -0.071775 -0.04415222 -0.032067172 0.04604442 0.028931344 -0.023847595 0.00089193415
0.1209857 -0.046771463 -0.005698827 0.0009788257 0.020365281 -0.008785647 -0.013455863 0.09477702
0.0848506 0.0003115079 -0.00093556795 -0.046413094 0.04191005 -0.025566576 -0.0029561277 0.033749115
-0.08863279 -0.00082323427 0.009171064 0.02103284 0.059800684 0.017061597 -0.06809369 -0.10455243
-0.091317125 -0.059659258 -0.029333767 0.0450446 0.08879396 0.0018526108 -0.0078057954 -0.064966485
0.043571476 -0.011430483 -0.042762738 -0.028893854 0.0028666642 -0.06156213 0.039180048 0.089567855
0.10042216 -0.031562615 -0.03070941 -0.11161438 0.06528949 -0.05425236 -0.026580835 0.08262017
-0.041950155 -0.0077251373 0.009435057 0.051206917 0.020825718 0.012752219 0.0048934575 -0.07275722
-0.09906251 0.0065865954 0.09625202 0.10550673 0.054741178 -0.015442797 -0.09603747 -0.09936269
0.043522675 0.15026614 0.12762646 0.05283702 -0.008466198 -0.1327062 -0.103368215 -0.024794444
0.046496198 0.05696163 0.03664111 0.027172903 0.02025861 -0.08068088 -0.0822077 0.008823715
-0.015228635 0.03491785 0.019776242 -0.016171196 0.0013582624 0.011161289 0.00059544604 -0.07007318
0.011913738 0.05846748 0.11502316 0.019105118 -0.017607374 -0.07016159 -0.11897377 -0.0834887
-0.058288336 0.060619455 0.12313666 0.049779695 0.03690803 -0.09925393 -0.11578262 -0.049440786
0.030707845 0.026717963 0.025935099 0.05922708 0.03477503 -0.02990052 -0.03531788 -0.027292682
-0.033584077 -0.041561633 -0.032852177 -0.02907838 -6.9912894e-05 0.024735814 -0.006570219 0.008932839
0.0086080935 -0.09636168 -0.11278857 -0.022653455 0.009241919 0.018988205 -0.038206343 -0.010309658
0.024901455 -0.043881737 -0.116120584 -0.08494833 0.020499127 0.0030621313 -0.007311539 0.02472172
-0.013612367 -0.018517638 -0.051447786 -0.0849449 0.010054631 -0.002957408 0.0093743205 0.01333795
-0.098162375 -0.0156671 -0.009348241 -0.016768917 -0.011910821 0.004103186 -0.04190512 -0.02847788
-0.11934583 -0.105376475 -0.08064113 -0.037817635 0.012237584 0.022621986 -0.0017082053 -0.041897163
-0.0095171165 -0.037774697 -0.11725516 -0.104419895 0.0051233466 0.01684911 0.01804733 0.021753946
0.032070898 -0.0331504 -0.09583255 -0.09966232 -0.007549908 -0.024450202 -0.020953916 0.045777123
-0.07526731 -0.025537675 -0.009504523 -0.008835453 -0.015506613 0.007601689 -0.020334829 -0.020503156
-0.13657919 -0.016720513 0.01904312 0.017192427 0.044982027 -0.016448034 -0.044613056 -0.109662004
-0.060592066 0.021706225 0.06265807 -0.0543575 -0.024873639 -0.035921477 -0.044111945 -0.0071126553
0.047519106 0.06322089 -0.043278575 -0.077782445 -0.0033541024 -0.0159042 -0.059222046 0.0078039938
-0.077670634 0.03934809 0.010161915 -0.046681028 -0.02177277 0.013922182 0.015284542 -0.05794458
-0.10471003 -0.011513674 -0.0034433154 0.029366137 0.009024753 -0.0017454377 -0.015367947 -0.08299565
-0.040443838 -0.03439166 0.009637396 0.02104857 -0.040371303 -0.027201599 -0.029485198 -0.040263623
-7.297798e-05 0.029701531 0.023522805 0.017793266 -0.012234794 -0.037859105 -0.003088122 -0.0029152452

exp_avg_sq f4 [64, 128]
00000000: d200 3b3f 2121 9c3e a30b 043e a677 e23d
00000010: 6be1 053e 09fc 3e3e e91e 633e 9e75 933e
00000020: 01dd 863f 1020 a83f 4dec f23f 2945 113f
00000030: 6681 893e c012 653f 23ea 8d3f 7cf3 083f
00000040: 3a05 883f fc1e 083f bf65 fc3f c127 a03f
00000050: bf31 933e d198 d23e 0858 7d3f 8b63 913f
00000060: 1f81 1b3f 252f 743e b95e 9e3e 079b 963e
00000070: 1a4d 533e 54e6 d33d f25e cf3d 2ace 953e
00000080: c01c 7240 f3c5 3e3f 9f1c 473e 958f 993e
00000090: 9ddb 173f afea 433f f38f 003f 0432 293f
000000a0: 861c 9840 b29b 2740 893e f13f fdea 103f
000000b0: 9287 423f 7d44 d23f f3f6 a33f 0ebb 503f
000000c0: 5930 4540 17f3 0c3f 6372 2140 885b 3840
000000d0: 9ae7 873f 11b0 f63e 3f44 523f 231d 0740
000000e0: c6dc 0c40 297b c43e 9ad9 303f 14f2 a43f
000000f0: 3f2e 923f b075 dd3e aac1 4d3e 7903 3a3f
00000100: dd65 6440 75f6 c33e f274 063f 9d83 363f
00000110: 947e 173f 89ed a33e ff82 583e 6ad1 7f3f
00000120: 37d6 a140 16c4 0a3f ed00 b03f 1bf5 b93f
00000130: 8547 2f3f bb67 123f 97d8 c63f f0a5 5c40
00000140: db9f 3940 62fc c73f 54db 853f f5eb f53e
00000150: 82ab 853f 539d 4540 14ff 1c40 bee7 3e3f
00000160: 5b81 1540 cdfc 0b3f 1e6d 4a3e a14d c93e
00000170: f6bc 893f 3d5b be3f 70c2 3f3f ff4a 113f
00000180: 9f7b 353f 49fd 653e f7fe 913e 9fcf 533e
00000190: 0ae0 103e 4564 b53d d4e2 c33d b138 a63e
000001a0: 1549 a43f d54b f73e fc44 a03f 24d1 453f
000001b0: 6e4e 713e 2df2 0c3f b5be dc3f 4703 ca3f
000001c0: 5b54 4a3f dd42 603f 7221 963f 2ef4 f43e
000001d0: 8d72 973e fd60 b93f b14f ed3f fd01 003f
000001e0: 9424 1c3f 56cf 6e3e 139e e23d 9697 e93d
000001f0: 82e5 353e 1211 8d3e bec5 a03e 8296 8a3e
00000200: fdb0 ee3e bec3 473e f246 b53d 23c1 a33d
00000210: 426d bd3d 240d 093e b5d9 243e 04ae 513e
00000220: 3153 2d3f a00e 473f 5906 893f 4015 bc3e
00000230: 893d 453e 5ab6 253f 96fc 4a3f 1992 c53e
00000240: 3775 413f 4d24 b43e 0084 8e3f 9015 3b3f
00000250: 266c 463e 95d5 993e 1049 393f 65d7 553f
00000260: 2f8b de3e d983 283e 0e3e 423e 5fe6 403e
00000270: 2ee3 0b3e bd26 963d 8a8a 983d 6557 5d3e
00000280: 1aa5 0b40 c89a eb3e 7dfd 093e ddcd 5b3e
00000290: 4637 d83e 991b 0c3f c8a8 b53e 5374 e83e
000002a0: d72d 2e40 0ddb bf3f 5109 883f 5478 bc3e
000002b0: 51e9 113f f744 9b3f 00ff 6c3f e31d 0c3f
000002c0: d7dd 0f40 f718 c13e 643c b23f 0746 cc3f
000002d0: 1b7b 233f 5e40 a73e a7a2 153f bd38 c43f
000002e0: bfa1 cc3f 5c83 8c3e 358b d33e 91c1 393f
000002f0: 91dc 2a3f db4c 913e 7119 103e 9e1a 063f
00000300: e5ef 0340 e087 8b3e a541 c73e 06f8 033f
00000310: 04e5 d53e 82d0 663e 96f4 143e 2f89 1a3f
00000320: 7879 3740 8299 c03e c588 813f b83e 8a3f
00000330: d178 023f 7010 bb3e c4cf 663f 91f6 fd3f
00000340: cc52 0840 39a3 933f 68d5 433f ce56 ab3e
00000350: 6d84 223f 1d08 d93f 75ae ae3f b77d 043f
00000360: 8133 d93f 55d6 cb3e 8ccd 113e 6a90 853e
00000370: 6886 223f 03cc 553f f5f4 e83e 944d c93e
00000380: 5e2f ef3e e90e 233e a3d1 5a3e 3f06 183e
00000390: 01af c83d f664 7d3d 096e 853d 5ccb 563e
000003a0: 3125 4e3f cb84 b23e 116b 6b3f d697 123f
000003b0: f35e 303e 2cdd ad3e 9277 783f 2f91 6c3f
000003c0: 4368 113f 45ff 213f aa44 5d3f bf88 b63e
000003d0: fc51 4e3e 9650 503f ee45 863f 3cf6 ad3e
000003e0: df5f df3e 873d 2b3e 2a97 9f3d 48fc a83d
000003f0: 3831 ff3d c9d7 2c3e ab9b 483e 16ce 3a3e
0.73048127 0.30494025 0.12895064 0.110579774 0.13074271 0.18650831 0.2217976 0.28800672
1.0536195 1.3134785 1.8978363 0.56746155 0.26856536 0.89481735 1.1087078 0.5349653
1.0626595 0.5317228 1.971855 1.2512132 0.2874889 0.41132215 0.9896245 1.1358503
0.607439 0.23846109 0.30931643 0.2941515 0.2063488 0.10346666 0.10125531 0.29258853
3.7830048 0.74520797 0.19444512 0.29992357 0.5931948 0.76529974 0.5021965 0.6609194
4.753482 2.618878 1.8847209 0.56608564 0.75988114 1.6427151 1.2809738 0.8153542
3.081076 0.55058426 2.5226066 2.8805866 1.0617554 0.48181203 0.82135385 2.1111534
2.200975 0.38375214 0.69082034 1.2886376 1.1420363 0.4325385 0.20093408 0.7266155
3.5687172 0.3827397 0.52522194 0.71294576 0.5917752 0.32017162 0.21143721 0.99928916
5.0573993 0.54205453 1.3750283 1.4527925 0.68468505 0.5718953 1.5534848 3.447628
2.9003818 1.5623896 1.0457559 0.48031583 1.0442965 3.0877273 2.4530687 0.7457236
2.3360202 0.5468262 0.19768187 0.3931704 1.0760791 1.4871594 0.74906063 0.5675506
0.70891756 0.22459902 0.28514835 0.2068467 0.14147964 0.088570155 0.095647484 0.32465127
1.2834803 0.48300043 1.2521052 0.7727225 0.23565075 0.5505703 1.7245699 1.578225
0.79034966 0.87602025 1.1728957 0.47842544 0.29579583 1.4482723 1.8539945 0.50003034
0.60993314 0.2332128 0.110653065 0.11405866 0.17763332 0.27552086 0.31400865 0.27067953
0.46619406 0.19508263 0.08851422 0.07995822 0.09249355 0.13383919 0.16098674 0.20476538
0.67705065 0.7775669 1.0705062 0.36734962 0.19261755 0.6473137 0.79291666 0.38588026
0.7556948 0.35183945 1.1134033 0.73079777 0.19377193 0.30045763 0.7237711 0.8353179
0.43465564 0.16456546 0.18968984 0.1883788 0.13660881 0.073316075 0.07448299 0.2161537
2.181952 0.46016526 0.13475604 0.2146525 0.4222967 0.5472961 0.35480332 0.45401248
2.7215478 1.4988724 1.0627843 0.36810553 0.5699664 1.2130421 0.925766 0.54733104
2.247915 0.3771436 1.392468 1.5958871 0.6385972 0.32666296 0.5845131 1.5329815
1.5986861 0.2744397 0.41317144 0.72560984 0.6674281 0.2837895 0.14072205 0.52384365
2.061517 0.27252102 0.3891727 0.5155033 0.41776288 0.22540477 0.14546427 0.60365576
2.8667889 0.37617117 1.0119864 1.080039 0.509656 0.36535978 0.90160775 1.9840871
2.1300535 1.1534187 0.7649751 0.33464664 0.63483316 1.6955601 1.364699 0.51754326
1.6968843 0.3981196 0.14238566 0.26086742 0.6348634 0.8351442 0.45499387 0.39317
0.46715826 0.15923657 0.21369033 0.14846133 0.09799004 0.061863862 0.06515128 0.20976013
0.805255 0.34866938 0.91960245 0.57262933 0.1722372 0.33957803 0.9705745 0.9240903
0.56799716 0.63280135 0.864329 0.35651204 0.20148462 0.81372964 1.0490091 0.33976924
0.4362783 0.1672269 0.07792504 0.08251244 0.124605596 0.1687919 0.19590633 0.18242678

exp_avg f4 [64]
00000000: 570f c7b8 7e82 5fba 2fc3 c339 42b0 293a
00000010: 5ecb 4e3a ab80 923a 12d0 cd39 aa4d 98ba
00000020: b221 8d39 cdb8 2938 d3e9 f838 c23b 363a
00000030: bd2e e838 75bb f3b4 ce24 4436 c209 39ba
00000040: 80e6 33ba 8dea 0fba 5752 6839 6987 2938
00000050: 8642 9fba 0dbc 9939 1b1e cbb9 e3d5 6cb7
00000060: 6cf3 35ba 0322 43b8 95a9 24b6 6d10 52ba
00000070: 3085 40ba 73b0 8139 6cb8 3c3a 5022 8fba
00000080: a9c4 f1b8 def8 f939 f880 0a3a 683a e239
00000090: f1ca 16b9 9751 23ba 88be 8db9 c7b3 0dba
000000a0: ca06 033a 5db2 feb9 30d5 1739 11f4 51ba
000000b0: 0245 1eba 7baa 93ba 3cbf 21ba 1e39 49ba
000000c0: 56cf 7cba 35d5 02b9 f56f 373a be51 b7b8
000000d0: c32a 8aba dcb7 5eba 4257 fdb4 a373 56ba
000000e0: d92f 463a a6da 543a 6c53 c7b8 47ec 83b9
000000f0: beb3 97b9 0611 dd39 f607 c138 08a0 8cb9
-9.491917e-05 -0.000852622 0.0003733872 0.0006473103 0.00078885804 0.0011177262 0.0003925567 -0.0011619825
0.0002691872 4.046485e-05 0.00011869115 0.00069516536 0.00011071328 -4.539867e-07 2.92277e-06 -0.0007058644
-0.0006862655 -0.0005489968 0.00022155918 4.041885e-05 -0.0012150563 0.00029322543 -0.00038741608 -1.4116496e-05
-0.0006940875 -4.65233e-05 -2.4536614e-06 -0.0008013312 -0.0007344065 0.00024736262 0.0007199112 -0.001092026
-0.00011528406 0.00047678401 0.00052835 0.00043149595 -0.00014380716 -0.00062301144 -0.00027035573 -0.0005405512
0.0004998265 -0.00048579546 0.000144799 -0.0008009086 -0.00060375046 -0.0011266017 -0.0006170159 -0.00076760526
-0.00096439326 -0.00012477192 0.0006997579 -8.741346e-05 -0.0010541308 -0.0008496025 -4.718841e-07 -0.00081806834
0.00075602304 0.00081197394 -9.504598e-05 -0.00025162307 -0.00028934883 0.00042165088 9.20444e-05 -0.00026822113

exp_avg_sq f4 [64]
00000000: a21f 553a fb58 0a3a f4c0 173a 3462 da39
00000010: b3f6 cb38 56f4 2039 5d1b ab39 ec94 ff39
00000020: 6ae5 4b39 e163 ac39 aa15 b139 2f4f db39
00000030: 02f3 133a c3c1 243a 4b61 233a 190e 9339
00000040: a942 8539 1a07 7139 93b0 7639 9053 2739
00000050: 8808 483a 339b 7839 a985 8839 ad3e 0a3a
00000060: a98c cf39 e858 da39 02fe 8d39 dcc5 4c3a
00000070: 23e2 2539 2abb ca39 b626 153a d680 1939
00000080: 7cab ac39 02fb 9139 c723 0939 7059 1e39
00000090: f123 8639 7eca 6b39 f0ba 9839 5499 423a
000000a0: 95a1 3339 4ac3 123a 67eb f039 c586 9c39
000000b0: 5837 4a39 84f6 c639 83a9 5239 85fd d338
000000c0: a432 e939 2671 493a f8b4 8f39 48aa 3c3a
000000d0: 13c7 f438 76ab 563a 8510 5f3a 112d 5b39
000000e0: 8879 9339 f100 6639 3e4d ae39 8a3e 1539
000000f0: f1b5 6c39 71b6 b539 cbaf 4839 df87 f439
0.0008130019 0.00052775413 0.0005788945 0.00041653367 9.7257456e-05 0.00015349811 0.0003263605 0.00048748346
0.00019445052 0.00032880812 0.00033776212 0.0004182993 0.0005643816 0.0006284976 0.00062324543 0.00028048528
0.00025417403 0.00022986197 0.00023526167 0.0001595749 0.0007630666 0.00023708939 0.00026039526 0.00052736216
0.00039586917 0.0004164644 0.00027082866 0.0007811466 0.00015819869 0.0003866789 0.00056896673 0.00014639212
0.00032934162 0.0002784357 0.00013078666 0.00015101372 0.0002558525 0.0002248678 0.00029130979 0.00074233604
0.00017130964 0.00055985583 0.00045951756 0.0002985505 0.00019284838 0.0003794917 0.00020090309 0.00010108486
0.00044478953 0.0007684402 0.00027409918 0.0007197005 0.00011671907 0.0008189002 0.00085092365 0.00020902256
0.00028128573 0.0002193486 0.00033245416 0.00014233045 0.00022574492 0.0003465894 0.00019138974 0.00046640538

exp_avg f4 [128, 64]
00000000: 51a6 fabd 0eb6 373c 5c85 a43e ff6a 54bd
00000010: dcc9 67be 6714 a83c d2a1 e2bd dd1c 0b3e
00000020: a13a 5bbe f622 c6bc dd38 4fbe 16d2 083d
00000030: a204 ac3d e438 2abe b093 633e 16ea 5abe
00000040: b0a4 353e a318 013e bc6b bd3d 554c 063e
00000050: e58f b23e 8cc4 d83d d296 22be de56 a9bc
00000060: 5d96 2a3e 6346 a83e d46a 31be 9c5d e33e
00000070: 5eab 423e 6a97 2d3e 263c 12be 1b74 913e
00000080: 2741 fbbc 9b62 923e bfc8 153d 641c 4ebd
00000090: 9785 ecbd 8c8a e1bd bde0 743e 4c63 093e
000000a0: 1b20 35be df16 bf3e 8660 b8bd 9c24 203e
000000b0: c0bf 853d 45ff 3b3d bc51 7f3d 9336 183e
000000c0: 9f04 2837 33db 8bbe d8ae d63d e5f4 403e
000000d0: fd28 163e 5326 bd3e 2e0f d53e c064 d2bd
000000e0: 6d7c 443d 55c3 98bd e172 e93d 91a6 58be
000000f0: ec7b 29be cd43 0dbe 1831 ab3c 6c8e dcbd
00000100: 6ad8 5cbe c271 0ebf 31c1 e63e 0787 6bbe
00000110: dbff 14be a0a1 21be 4dff 20bd 43a5 623e
00000120: e375 72be c7d9 8dbe 790c 0cbe 3541 3a3f
00000130: 8283 a3bd 2b21 ffbd b950 6b3e 0e8f ba3d
00000140: 4222 6cbe 4c34 a13c 9f66 ab3e b410 b3bc
00000150: 2338 643e 3e92 cc3e ec6c 613e 700d a9be
00000160: 1e4f b23e a006 e03d 6dcb 453d efb8 3b3e
00000170: f02c cabd efc7 663f 1463 c1be 80cd 5abd
00000180: 869d 383e db16 bc3e 8c49 b43e bed4 43bd
00000190: 2421 093d cc3a d9bc 6798 f33e 2cb8 333e
000001a0: 99c0 d7be 3cee df3e d3af 22bf 691e ac3e
000001b0: 8cac 783e 7447 293e 6ed9 ff3d 105e f9bd
000001c0: 44f7 453e 1e04 a6be 86e1 07be eeba 123e
000001d0: e972 a03e 76ec 013f 28c2 d3bd 58af 9abc
000001e0: 83fd 35be cb6a 82be 68f2 21be d2eb 06be
000001f0: 48c7 11bf a068 56be 26e1 eebe d363 4e3e
00000200: 6db9 0dbe 890b d23d cb03 853e 9ba7 c43d
00000210: 714b 0bbe 58b8 8abe e233 12bf 0938 9a3c
00000220: 60fa d93e 2402 f43d 5bcc 6dbe 0d80 a5be
00000230: 089d abbd a195 3f3f af44 733e 556e 94be
00000240: 76c1 743d ad12 00be 32b5 bebe 79ff e13d
00000250: 1e60 423e 110e 9f3e 3bd8 843e 5f5f 81be
00000260: 3653 9dbe 726b a63d f726 10bf 5e18 313f
00000270: 19d0 d23d 3bd7 943d 76d2 59be 0c36 4d3e
00000280: 1496 283e 88e3 883e b1bd 89be bc34 65be
00000290: 8c12 433e f088 5b3e 27c7 a8be 0444 b63e
000002a0: 78b5 80be b12b 113b 9d9a 6a3e 492e 8bbe
000002b0: 4584 02bd 4efa a23d 8014 7f3e 24f4 393e
000002c0: 11b5 673d 177a 593e 5781 b7be aca0 f2bd
000002d0: 493e 94bc 812e a73e 5b25 cbbd ea5b 78be
000002e0: 9fa1 1e3e b435 b53e 4f01 4e3e d462 403f
000002f0: dcff a73e 7b2c 073d db28 22be cbb1 13be
00000300: eb72 d7be 43ff fabe 2c32 0e3e b563 d3be
00000310: 8596 6abe 5a21 cabd 50db c5bd 9825 0fbe
00000320: 2f8d 8ebd 266c e3bd bc45 4ebe 9b59 8f3d
00000330: 7744 cc3e 99f1 68be 9fee b93e 42dc 8dbe
00000340: 4c96 d1bd 92ba d6bd 9d1a a03d 2513 16be
00000350: a445 3c3e 4c21 81be da05 0e3e 470c 2ebe
00000360: f80c bfba 0697 ebbd d2f9 7fbe 2595 a33e
00000370: 7c8d dd3d 86f9 86bd 9fd2 8cbe 0258 ac3d
00000380: 3526 40bd 0206 3bbd 3df1 62be ae75 093d
00000390: 8394 2c3d 8cf3 7ebe a11c 293e ebd8 b03d
000003a0: 6d34 a83d 0713 043e 00ad f9bd ae74 c7bd
000003b0: 738d 10be ecd7 273c 5697 aebd df55 ecba
000003c0: 2088 543e 621e a1be 7361 b9be 7515 8cbc
000003d0: 4a15 2f3e 237e 4e3e fcfe 90ba f8ca 9cbc
000003e0: 5dce b4be d4bf 8b3e 1b36 04be 181a e6be
000003f0: d85a 9fbe 6151 32be 4595 ecbe 9f6c f83e
-0.122387536 0.011212839 0.32132995 -0.051859852 -0.22635597 0.020517541 -0.11066021 0.13585229
-0.21409084 -0.024186593 -0.20236535 0.03340348 0.08399321 -0.16623265 0.22224307 -0.21378359
0.17738605 0.12607054 0.09249064 0.13115056 0.34875408 0.10584363 -0.15877846 -0.020671304
0.16658922 0.328662 -0.17325908 0.44407356 0.19010684 0.16952291 -0.14280757 0.28408894
-0.030670715 0.28590855 0.0365684 -0.050320044 -0.11548918 -0.11012754 0.23913856 0.13416785
-0.17688029 0.37322137 -0.090027854 0.15638965 0.06530714 0.04589774 0.062333807 0.14864568
1.0014656e-05 -0.27315673 0.104825675 0.1884342 0.14664073 0.36943302 0.41613144 -0.10273123
0.047970224 -0.07459132 0.113988645 -0.2115729 -0.16551179 -0.13795395 0.020897433 -0.10769352
-0.2156693 -0.5564233 0.45069268 -0.23000728 -0.14550726 -0.15784311 -0.039305974 0.22133355
-0.23677783 -0.27705213 -0.13676633 0.7275575 -0.079840675 -0.12457498 0.22980012 0.09109317
-0.23059943 0.019678257 0.3347673 -0.02185855 0.2228704 0.39955324 0.22014207 -0.33018064
0.34825987 0.109387636 0.048289705 0.18332265 -0.098718524 0.90148824 -0.37770903 -0.053418636
0.1802884 0.36736187 0.35212362 -0.04781031 0.03347887 -0.026517294 0.4757721 0.17550725
-0.42139128 0.43736446 -0.63549536 0.3361695 0.24284571 0.16531163 0.12492643 -0.12176144
0.19332606 -0.32425016 -0.13269624 0.1432912 0.3133767 0.50751436 -0.10339767 -0.018882439
-0.17772488 -0.25472102 -0.15815127 -0.13175896 -0.56944704 -0.20938349 -0.4665615 0.20155267
-0.13840266 0.102561064 0.25979456 0.09602281 -0.13602997 -0.27093768 -0.57110417 0.018825548
0.42573833 0.11914471 -0.23222487 -0.32324257 -0.08379561 0.7483769 0.2375667 -0.28990427
0.05975481 -0.12507124 -0.37247616 0.11035056 0.18981978 0.3106542 0.2594622 -0.25268075
-0.30727547 0.08125962 -0.56309456 0.69177806 0.10293598 0.072676145 -0.2127169 0.20040148
0.164635 0.26736093 -0.26902536 -0.22383398 0.19050044 0.21438956 -0.3296444 0.35598767
-0.2513845 0.0022151286 0.22910543 -0.2718375 -0.031864423 0.07957898 0.24910164 0.18159539
0.056569163 0.2123798 -0.35840866 -0.11847052 -0.018096106 0.32652667 -0.09919234 -0.24253812
0.15491341 0.35392535 0.20117687 0.751508 0.32812393 0.033001404 -0.15835898 -0.14423291
-0.42079863 -0.49022874 0.13886327 -0.41287008 -0.22908981 -0.098696426 -0.09660971 -0.13979185
-0.069605224 -0.11104612 -0.20143789 0.06999513 0.39895985 -0.22748412 0.36314866 -0.27707106
-0.10233745 -0.10484804 0.07817576 -0.1465574 0.18385941 -0.25220716 0.1386942 -0.16996871
-0.0014576009 -0.11503415 -0.24997643 0.31949726 0.10818002 -0.065905616 -0.2750444 0.08415224
-0.046911437 -0.045660026 -0.22162338 0.033559494 0.04213382 -0.24897593 0.16514827 0.08635124
0.082131244 0.12897883 -0.121912 -0.09739052 -0.14116459 0.010244351 -0.08524959 -0.0018030963
0.20755053 -0.31468493 -0.3620716 -0.017100075 0.17097965 0.20165305 -0.0011062319 -0.019139752
-0.35313693 0.2729479 -0.12911265 -0.44941783 -0.31123996 -0.17413856 -0.46207634 0.4852037

exp_avg_sq f4 [128, 64]
00000000: 5122 553f 3f2b 043f 48ee 473f 1e0a f83e
00000010: 3bfe 923e 878a 8d3e e544 dd3e 2cb0 133f
00000020: adf3 a53e c4ad ed3e 6ceb a33e c250 233f
00000030: db05 403f 498e 613f 97ed fa3e af6f bf3e
00000040: 7f9f f93e 514b 0e3f 8dcf b53e 7b68 ea3e
00000050: d2ec 4b3f 1bb3 c33e f794 de3e be81 d43e
00000060: 4129 f33e 6476 d83e cba9 f03e 40a5 653f
00000070: 7ad9 bd3e bff3 193f cccd 2a3f b2c7 943e
00000080: a7d5 023f 5eee bd3e c43e a33e 5d22 1e3f
00000090: 4d14 c33e b1a0 b23e 6da7 e93e f499 3b3f
000000a0: 7fa2 ae3e 96ef 313f 5a2c 0f3f 5e23 d93e
000000b0: 3bb2 a23e 75fb 053f e234 943e 814a a73e
000000c0: 86a6 403f d513 203f 653b f53e f579 313f
000000d0: e6b8 503e 5d80 2f3f 6468 673f 34e1 a73e
000000e0: 93be a33e e4ec fe3e b1f7 de3e 1eb6 fa3e
000000f0: a0fb b43e 0bd5 bd3e c031 113f 1319 033f
00000100: d225 dc3f f929 313f f67e bd3f fa81 803f
00000110: ed0b ff3e c57f 023f f7e4 4c3f 3176 403f
00000120: 6ad9 f13e 139c 683f 2f3b ff3e 8766 a33f
00000130: d4d5 a33f e5f1 ae3f 1d17 5c3f 47fa 263f
00000140: 62b4 403f 5d14 463f d25a 233f 8197 1d3f
00000150: a8f4 cf3f 020e 2e3f a13a 5b3f 1443 6b3f
00000160: 8a6a 473f 5aed 703f af23 473f 3469 a83f
00000170: 9e2f 2e3f 3859 613f 7b7b 893f 627d e43e
00000180: 8696 713f 167f 393f 75c2 e83e 4192 9c3f
00000190: 8557 1f3f ffad 2d3f 52ff 483f 2400 933f
000001a0: 2caa 103f 59d8 9a3f a16f 4f3f 80b3 5a3f
000001b0: 948b df3e 0dc2 2c3f b0c7 ff3e 941c 233f
000001c0: b28d a13f 99fa 973f 3d02 833f ad46 c53f
000001d0: ea20 c23e 7149 9b3f b125 cf3f afb6 253f
000001e0: bb0e 043f 04bc 433f e533 373f 38cb 103f
000001f0: 86fc 253f 7b8b 1b3f 15db 613f 786a 813f
00000200: 65ea c73f b767 843f b06e b43f 7293 4b3f
00000210: 90a9 de3e dd14 fa3e e242 513f 1721 2c3f
00000220: 7655 fd3e c68e 4e3f 3753 fd3e e9d2 a23f
00000230: f81d a43f 42bd d43f cdac 913f 752c 393f
00000240: 58c5 363f 8b9d 713f aa87 2a3f 1e86 3c3f
00000250: 08e9 ce3f a334 243f 700e 3d3f c97d 543f
00000260: 9c18 3b3f a398 5e3f a34a 3e3f c89e 813f
00000270: fc07 ff3e deb4 8d3f 7726 9a3f b179 093f
00000280: 1763 583f ba70 353f ed75 133f b013 883f
00000290: 35bd 273f b54e 203f 911d 2f3f a1a8 823f
000002a0: 2e06 e03e afeb 8f3f 575c 2a3f 36ef 1a3f
000002b0: fff7 e23e 1ef6 293f 0013 073f 87de 063f
000002c0: a2ac 883f 5038 923f 7d7b 5b3f 6b69 793f
000002d0: ff12 e93e 1b2b aa3f 958f e03f a03b 073f
000002e0: 0c00 143f ff72 393f 4c3c 413f 183f 3f3f
000002f0: 46b5 203f e887 543f 8495 8a3f 4b89 863f
00000300: 592f 993f a3c2 4b3f fbd5 7a3f 2faa 3b3f
00000310: cb91 d53e 60ec e13e 2bb0 353f 1b58 2d3f
00000320: ab35 c33e ff56 453f d766 0e3f c098 683f
00000330: cab6 5f3f 866e 933f 2b63 8a3f 2b3f 3a3f
00000340: a56c 293f bd5b 3d3f 4ef5 153f dde2 163f
00000350: 634f 8c3f 13e9 483f f46b 373f 59bc 143f
00000360: e608 713f 54be 373f a604 333f 7c47 983f
00000370: 72d6 093f f2a3 673f bc4f bb3f d0de e23e
00000380: 531e 773f 1986 2c3f 9ad1 ef3e 30a2 a03f
00000390: 93a1 2c3f b25a 053f a94a 193f 3f22 713f
000003a0: 2301 f03e e9ce 7e3f 2cbd 503f 5ca2 363f
000003b0: 518b f13e e8cd 2a3f a8c2 003f e250 133f
000003c0: 9921 643f 9cc8 aa3f 4c0a 1b3f 7ab7 923f
000003d0: d7fa 8f3e 0dab 863f be58 8a3f 122c f63e
000003e0: 5399 123f e569 273f a55f 273f 4ff6 553f
000003f0: e477 033f a630 503f c182 3e3f d5c3 6d3f
0.8325549 0.5162849 0.78097963 0.4844522 0.28709587 0.2764475 0.43216625 0.5769069
0.32412472 0.46421635 0.3201555 0.637951 0.75008935 0.88107735 0.49009392 0.37389895
0.48754498 0.55583674 0.3550991 0.45782837 0.79658234 0.38222584 0.43473026 0.41505235
0.47492412 0.42277825 0.47004542 0.89705276 0.37079984 0.6013755 0.6672027 0.29058605
0.5110726 0.37095922 0.31883824 0.61771184 0.38101426 0.34888223 0.45635548 0.7328179
0.3410835 0.69506204 0.5592705 0.42409796 0.31776604 0.5233682 0.28946596 0.3267403
0.75254095 0.6253026 0.47896877 0.69326717 0.20383033 0.6855524 0.9039366 0.32789004
0.31981334 0.49790108 0.4354835 0.4896707 0.35348225 0.370766 0.5671654 0.51210135
1.7199042 0.6920467 1.480437 1.0039666 0.49813786 0.5097621 0.8003687 0.75180346
0.47236186 0.9086315 0.4984984 1.2765664 1.279963 1.366757 0.8597277 0.6522564
0.7527524 0.7737482 0.63810456 0.615593 1.6246538 0.67990124 0.85636336 0.9189923
0.7789694 0.9411217 0.77788824 1.3157105 0.6804141 0.8802676 1.0740808 0.4462691
0.94370306 0.7245954 0.4546086 1.2232133 0.6224292 0.6784362 0.7851459 1.1484418
0.5650966 1.2097274 0.8102971 0.85430145 0.43661177 0.674836 0.49957037 0.6371548
1.2621367 1.1873351 1.0235058 1.5412194 0.37915736 1.2131788 1.6183378 0.6473188
0.51584977 0.76458764 0.7156356 0.5656009 0.64838445 0.60759705 0.8822492 1.0110617
1.5618407 1.0344151 1.4096279 0.7952186 0.4348874 0.48844042 0.8174268 0.6723799
0.49479264 0.80686605 0.4947755 1.2720615 1.2821646 1.6620257 1.138086 0.7233346
0.7139487 0.94381016 0.66613257 0.73642147 1.6164865 0.6414282 0.73850155 0.8300443
0.73084426 0.86951655 0.74332637 1.0126581 0.4981078 1.1070821 1.2042989 0.5370131
0.845262 0.7087513 0.57601815 1.0631008 0.6552308 0.626201 0.6840449 1.0207711
0.43754715 1.12438 0.6654715 0.60521257 0.4432983 0.6639117 0.52763367 0.526833
1.0677683 1.1423435 0.85735303 0.9742648 0.45522305 1.3294405 1.7543818 0.52825356
0.5781257 0.72441095 0.7548263 0.7470565 0.627766 0.83019876 1.0826879 1.0510648
1.1967574 0.7959387 0.9798276 0.73306555 0.41712794 0.44125652 0.70971936 0.67712563
0.38126883 0.7708587 0.5562567 0.9085808 0.8738829 1.1518104 1.0811514 0.72752637
0.66181403 0.73968107 0.5857743 0.58939916 1.0961727 0.78480643 0.716491 0.58099896
0.941542 0.7177479 0.6992897 1.1896815 0.5384284 0.90484536 1.4633708 0.44310617
0.96530646 0.67392117 0.468396 1.2549496 0.6743404 0.52091515 0.5987955 0.9419288
0.46875867 0.9953447 0.81538653 0.7134149 0.47176602 0.6672044 0.5029702 0.5754529
0.89113766 1.3342471 0.60562587 1.1462243 0.28121063 1.052095 1.0808332 0.48080498
0.57265204 0.6539596 0.65380317 0.8357896 0.51354814 0.8132423 0.74418265 0.9287694

exp_avg f4 [128]
00000000: e8d9 093c d227 273c b764 e53b 0cc3 0c3c
00000010: 25a2 11bb 85e2 143c 1d1b a33b 92a3 fe38
00000020: 1e6a 15bc 46b2 a93b fa26 02bb ef0e 353b
00000030: dca2 f8bb 6e6d 133c 80de 36bc 4da9 213c
00000040: a993 0cbc 4b97 29bc 4f44 0dba b1e9 adbb
00000050: 0299 213c 0a26 20bb 5ebb 51bc 1816 fa3a
00000060: e84e 03bb 1a3f 213b 9629 1ebb 6c0d 9d3a
00000070: 89dd 2dbc 9548 09bc d0d3 933c ef1f 5cbb
00000080: 04e7 81bb 0798 9dbb b04b b1bb 7707 f63a
00000090: 2f14 c3b9 847e babb 0b33 aaba 610f eebb
000000a0: f7b1 b6ba f471 d33b ff02 75ba b12b 3b3c
000000b0: 952d b3bb 850e 15bb 224d 643b 132b e4bb
000000c0: 139e 473c ae63 e039 514a 5f3b 446d c9bb
000000d0: 5f41 953b ff18 20bb b051 963b b2c1 043a
000000e0: e0b4 453b c6d5 23bb d2de fbbb 8de2 7b3b
000000f0: 5a1f 093c c50b 4abb 75b0 d83c 84a6 4dbc
00000100: 0aa9 abb8 1156 253b c193 c03b 5067 3ebb
00000110: 19e7 6c3b 74f2 34bb ccb6 5e37 cd48 9d39
00000120: 8cd3 893b c73d 733b 95b7 6e3b 233a 3fbc
00000130: aaee d5ba db79 913b 3bfb dfbb 00ae 053c
00000140: 2b27 42bb f1dd c5bb a427 223b 30f7 8fbb
00000150: 105b 36bb f2dc 86bb 724a 31bb 87e1 47bb
00000160: fc86 393b c144 44bb 5c36 823c 683e 25bc
00000170: 4b25 0abb c6e3 9339 942d d1bb 5b6d ac3a
00000180: ade1 76b9 fce6 03bc fadd 37ba 61a2 b1bb
00000190: 966f c8bb 73f4 423b 026e 203c 74b4 81bb
000001a0: baef 3e3b 3ed5 ecba 704a 7cbb f19a 4e3c
000001b0: 6dc4 313a e3da 2f37 5e66 f439 e5f3 02bc
000001c0: 8a2d 67bb eee0 fd3b 6794 45bb c881 0a3a
000001d0: 98ee a4ba b58d 8cbb 6894 3d3b fef8 26bb
000001e0: 687b 1c3b c070 d4bb f7a5 9d3b fc0b 13ba
000001f0: 1b58 6d3b c7ea a13b 5524 b53b f722 38bb
0.008413769 0.010202365 0.0070005315 0.008591425 -0.002222189 0.00908721 0.0049775974 0.00012142131
-0.009119539 0.0051787226 -0.0019859658 0.002762731 -0.0075877737 0.008998258 -0.011161447 0.009867025
-0.008580127 -0.010351012 -0.0005388902 -0.005307399 0.00986314 -0.0024436736 -0.0128010195 0.0019080071
-0.0020036045 0.0024604262 -0.0024133674 0.001198215 -0.0106119 -0.008379121 0.018045336 -0.003358837
-0.003964307 -0.004809383 -0.005410634 0.0018770535 -0.00037208336 -0.0056913514 -0.0012985183 -0.007265017
-0.0013938536 0.0064527933 -0.0009346455 0.011423991 -0.0054680803 -0.002274425 0.0034836014 -0.0069631427
0.012183684 0.00042798877 0.0034071396 -0.0061470587 0.004554912 -0.0024428961 0.0045873746 0.0005064263
0.0030167624 -0.0024999245 -0.0076864744 0.0038434595 0.008369291 -0.003082977 0.026451329 -0.012551907
-8.1854014e-05 0.0025228302 0.0058769886 -0.0029053278 0.0036148487 -0.0027610334 1.3274792e-05 0.00029999614
0.0042061266 0.003711568 0.0036425341 -0.011671576 -0.0016321738 0.004439575 -0.006835369 0.008159161
-0.0029625397 -0.0060384204 0.0024742866 -0.0043934807 -0.0027825274 -0.004115694 -0.002705243 -0.0030499415
0.0028309217 -0.0029948207 0.015895061 -0.01008568 -0.0021079357 0.0002820773 -0.006383607 0.0013155149
-0.00023544459 -0.008050676 -0.0007013973 -0.0054209684 -0.0061168177 0.0029747754 0.009791853 -0.0039582793
0.0029134587 -0.0018068922 -0.0038496517 0.012610183 0.0006781284 1.0481776e-05 0.00046615576 -0.007992719
-0.0035274946 0.007747761 -0.003014827 0.0005283621 -0.0012583314 -0.0042893537 0.0028927568 -0.0025478
0.0023877267 -0.0064831674 0.0048110443 -0.0005609391 0.0036215845 0.0049413177 0.0055280128 -0.0028097013
