outs/lightning_logs/version_3/checkpoints/epoch=100-step=31612.ckpt (torch, 256221 bytes, 24 tensors)

encoder.0.weight f4 [64, 128]
00000000: 4807 b73b 4e28 1dbd 2e3c db3b fe48 8ebc
00000010: ba1a b2bd 252b 123d 72a7 8a3d 3745 e13d
00000020: 3383 253d c007 12bd d54d 673d 7928 053c
00000030: 9780 9d3c 405e 593d e8bd 0b3d 0a8f 28bc
00000040: 6fcd 873d b54f 093c 1c27 c9bc 75fa da3c
00000050: 3a6a b63d e22a 2f3d 0fc4 c9bc aa5c b4bb
00000060: d926 173e efad b13d ec5e ba3c c00f 103c
00000070: c013 b6b9 3bb6 91bd c5fb c1bc e9be 36bd
00000080: 54f2 873d e9d4 22bc 2d26 743d 6c72 cc3d
00000090: 1a39 063c f524 853b d29f ba3d f024 2a3d
000000a0: 12ff 953c b77c 1cbd 901a 4c3d da32 8f3c
000000b0: 6e17 3ebd bab8 cbbc 60f9 0f3d 8e06 903c
000000c0: 5fbc 033e f4f2 7a3c 93f3 0a3d a10c 3c3d
000000d0: 2f20 94bc d8a3 4b3d 5de0 443d 3383 e1bc
000000e0: d14b 9d3b 727d 163d 5e14 0d3d 4e19 0fbd
000000f0: b68e b33c 0b35 243d 8ced 9e3d fcc7 0fbd
00000100: 9478 34bc b6bc 0b3d 2942 853e 0cb8 ce3d
00000110: f394 17bd b086 71bc d6a8 d8bc 1538 bbbc
00000120: 7ecb a3bd 3542 c03d 613e cd3d 4737 e13c
00000130: b547 4bbd ed52 68bd 75d2 393d 18fd 9ebd
00000140: e87d 15bd 16c1 7f3d 91d3 ba3d 5467 20bc
00000150: f0a5 98bd a6ef 793d 7afa 0a3a 55ac 883c
00000160: d0fd 93bd d4a1 913d c19e 703c 363e 77bd
00000170: ffaf c5bd 0cd9 15bb 2c0b 883e 7d54 aebb
00000180: a345 aabc 5e96 153d ec49 f93d 770d c2bc
00000190: 82ee 19bc 3ddb e13d 94bc 443d 3d82 283d
000001a0: c758 a33d 32ff c73d fa3e a13d 2852 06be
000001b0: cb7a d1bc 0730 5dbd 53a2 ad3d 1daa 2a3d
000001c0: 18e5 be3c 078c 583d 683a 283e 3a26 dabc
000001d0: b953 a93c 2b5c a6bc c51b 9bbb 1ca5 263c
000001e0: 76c4 acbd d7d7 173e ac57 713e 79b9 ecbd
000001f0: 1369 9cbc a523 9d3c fac8 28bd aa01 58bd
00000200: a5b7 603e b6d2 b33d b853 be3d b261 513d
00000210: 08f0 653b 8a0e 8dbd 4560 47bd 8142 963c
00000220: cd0f b13d f360 ae3b e3ab c23d 54ac 0e3e
00000230: fb0a 263d ebd3 89bb 47e4 acbc f514 56bd
00000240: cb6f ff3b 7f6e 683c 7d3f c43d a2b8 073e
00000250: 34b3 cd3d 6e96 f83b 90eb 873d 04e9 dd3d
00000260: d7ca 083e c407 1e3b 8dc0 203c 2a1b 6fbd
00000270: 839a 743d 9670 9c3b 3db9 7b3d d43e 993d
00000280: 10d8 403e 5eef 213e 1cfc fd3d b938 36bc
00000290: 7e8b 00bd 9660 adbd fea9 07be 799d f1bc
000002a0: 2a1c 92bd 6ec3 9b3c 09e5 10bc 0be6 d73d
000002b0: 2842 683e 43b7 6d3c 36aa 3abd 37cb a9bb
000002c0: 8333 b83b 4d12 5a3d 3f40 3fbd 4df8 963d
000002d0: 3e58 873e 2d6a 053d c499 0a3d b609 2fbc
000002e0: 31a3 c33d 6073 393c aec3 c3bd 543c 68bc
000002f0: ff4e 583e 3731 6c3c bd9d 5b3c 4d6f 8f3d
00000300: 5b0e 5dbb 23f1 3c3d 4f4f 0a3d b01b f8bc
00000310: 4134 7b3d 5d41 9abb 8cf1 903d 0be8 33bb
00000320: 0e61 c1bd 5737 b63c a6c8 febd db56 fc3c
00000330: 1dab 523e d5b6 ad3d 42bd 2b3d 575e bdbc
00000340: f5fe 373d c5e3 8e3d 9b88 dabb c8d1 f639
00000350: 04dd 533e 0f64 003e 9836 833c 90ba 79bc
00000360: 0a9c 7ebb fa16 1bbd dd2b 43bc d3b8 e83d
00000370: b986 1b3e ad87 1a3c ff71 943c 8ee7 9f3d
00000380: e3a0 98bc bdaa 2ebc 7b28 9a3d 06bf f8bc
00000390: 37d1 233d 9ba8 513c 5e51 493d c5d1 bebc
000003a0: f4d1 05bd 1be0 803c 257b 1abc 800e 933d
000003b0: a5b2 fe3d f26b 0a3e beb8 9bbc d8f5 c1bd
000003c0: f949 363d c9e0 ba3d 0c97 6639 7345 f0bc
000003d0: 7685 973d 6085 d73d 5f2f 7c3d ec75 0d3d
000003e0: 39e0 d0bd 9449 6bbd e87d c23d 72f1 6b3c
000003f0: 87ed b33d c2f2 b33d 8a97 1d3d 3ba8 00bd
0.005585585 -0.038368516 0.0066905236 -0.01736879 -0.08696504 0.035685677 0.06770219 0.1099953
0.040408324 -0.035651922 0.05647071 0.008127325 0.019226355 0.0530684 0.034116656 -0.010288009
0.0663098 0.00838082 -0.024554782 0.026730755 0.0890698 0.042765506 -0.02462962 -0.0055042105
0.14760913 0.08675753 0.02275034 0.008792818 -0.0003472846 -0.07114836 -0.023679623 -0.04461566
0.06638017 -0.009938457 0.05960672 0.09982762 0.008192325 0.0040632435 0.091125146 0.041539133
0.018310104 -0.038204875 0.04983002 0.017480303 -0.046409063 -0.024868358 0.035149932 0.01758125
0.12864827 0.015316714 0.033923697 0.04591048 -0.018081753 0.0497168 0.048065532 -0.027528381
0.004800298 0.036740728 0.03444325 -0.03493624 0.021918636 0.04008965 0.07760152 -0.03510283
-0.011015076 0.034115516 0.2602704 0.10093698 -0.037007283 -0.014741585 -0.026447695 -0.02285389
-0.079977974 0.09387628 0.100216635 0.027492179 -0.049628932 -0.05671971 0.045366723 -0.077631176
-0.036497027 0.06244 0.09122384 -0.00979026 -0.07453525 0.061019562 0.0005301606 0.016683737
-0.07226145 0.071109444 0.014686287 -0.060362063 -0.09652709 -0.0022864966 0.26571023 -0.0053201304
-0.020785159 0.036520354 0.121723026 -0.023688061 -0.009395244 0.110281445 0.048031405 0.04113983
0.07975917 0.097654715 0.0787334 -0.13117278 -0.025571248 -0.05400088 0.084782265 0.04166614
0.0233026 0.052867915 0.1642853 -0.026629556 0.020669805 -0.020307621 -0.004733535 0.010171201
-0.084359095 0.1482843 0.235686 -0.115588136 -0.019093072 0.019182036 -0.04120729 -0.052735962
0.21945055 0.08780424 0.09293312 0.05111856 0.0035085697 -0.06887539 -0.048675794 0.018342258
0.08645592 0.005321616 0.09505441 0.13932925 0.040537816 -0.004206171 -0.021104945 -0.05226608
0.007795309 0.014186501 0.09582422 0.13254026 0.10043946 0.007586292 0.06636727 0.1083546
0.13358627 0.0024113515 0.009811533 -0.058375515 0.059717666 0.0047741635 0.061455954 0.07482687
0.18832421 0.15813968 0.12401602 -0.011121922 -0.03138303 -0.08465688 -0.1324844 -0.029494034
-0.07134278 0.019014087 -0.008843669 0.10541924 0.22681487 0.014509025 -0.045572482 -0.005181696
0.005621375 0.05324011 -0.04669213 0.07371578 0.2643451 0.03257196 0.03383805 -0.010683468
0.09552611 0.011319011 -0.09558807 -0.01417454 0.21123885 0.014416031 0.013404307 0.07003651
-0.003373048 0.046128403 0.03376704 -0.03028664 0.06132913 -0.004707499 0.070773214 -0.002745154
-0.0944234 0.022243185 -0.124406144 0.030803135 0.20573087 0.08482138 0.041928537 -0.023116274
0.04492088 0.06977037 -0.0066691167 0.00047077076 0.2068978 0.1253817 0.016017243 -0.015242234
-0.003885033 -0.03786371 -0.011912313 0.113633774 0.15188111 0.009431762 0.018120764 0.078078374
-0.018631404 -0.010660824 0.07527252 -0.030364525 0.039994445 0.012796546 0.049149863 -0.023293385
-0.03267093 0.015731862 -0.009428774 0.071805 0.124364175 0.1351774 -0.01900899 -0.09470719
0.04450414 0.091249056 0.00021990779 -0.029329991 0.073985025 0.10523486 0.061568614 0.034536287
-0.10199017 -0.057443216 0.09496671 0.014400827 0.08785539 0.08786537 0.038474597 -0.031410437

encoder.0.bias f4 [64]
00000000: a6d3 2a3e bf65 2c3e 8dea 483e 57ac 69be
00000010: 09a1 9abd 85ef cdbd ca0a c2bc 79b6 dd3c
00000020: e46d 76be b66d 043e 6ce2 9ebd 2ff2 7e3d
00000030: 7a71 403b 48db 763e 7195 f9bd 64bf 953d
00000040: fbea 893e 67a5 2c3d 712f fb3d a914 2cbc
00000050: 45ca 1a3e f4c6 3e3c a7cb b93d ac5d aebd
00000060: 68c0 e73d b9c6 94bb abdc 173e 27eb 073d
00000070: 3bc7 2dbd 6275 1b3d 343f 21bd da46 393e
00000080: bb19 523e 22b0 cfbc 85f1 693e 8a20 b03e
00000090: e1f1 903e 1ac2 4f3e dd17 cd3c 711d d03e
000000a0: 36b3 913e 8d81 47be d859 84be 81b6 6dbe
000000b0: fbcc a7bd 7ab9 e43c 28f3 c03c 10a0 be3c
000000c0: bd76 943d 684f a2ba 4a45 abbc 87ed 6fbd
000000d0: d0c8 a93d d6fb 423d f3ce a13c bda4 433d
000000e0: 8e29 fcbd ba78 713e 9896 043e 8d46 303e
000000f0: 7e67 b13d ce4a 233e 982a b83e 51f2 393c
0.166823 0.16835688 0.19620724 -0.22819649 -0.07550246 -0.1005545 -0.023686785 0.027064549
-0.24065357 0.12932476 -0.0775803 0.062242683 0.0029364512 0.24107087 -0.12186707 0.073118955
0.26937088 0.042149927 0.12264908 -0.010502973 0.15116222 0.011644114 0.09072047 -0.0851396
0.113159955 -0.004540291 0.14830272 0.033183243 -0.04242633 0.03795374 -0.039366916 0.18093434
0.20517628 -0.025352541 0.22846039 0.34399825 0.2830954 0.20288888 0.025035793 0.40647462
0.2845704 -0.19483013 -0.25849795 -0.23214151 -0.08193394 0.027920473 0.023553446 0.023269683
0.0724921 -0.0012383284 -0.020907063 -0.058576133 0.08290255 0.04760345 0.019752001 0.04776453
-0.123126134 0.2358121 0.12948072 0.17214413 0.08662318 0.15946504 0.35969996 0.011349277

encoder.2.weight f4 [32, 64]
00000000: a616 803d d3ae 873d 6068 883d 4a5b c33d
00000010: daf4 43bd 3f5a 953d 165d aabd 64e9 b8bc
00000020: 40b4 4d3d 2517 163e 9b9c 22be 64b2 9cbd
00000030: c1bb 96bd 82fc 90bd 6c80 fb3d c21e 283e
00000040: b298 efbd 3a6d 1f3c 2bb3 493d 99a8 4f3d
00000050: 3e57 123e 3ffe c4bc f36c d2bd 7e92 c93d
00000060: b807 133e 4be5 09bd 59fd f13d 7ef2 1c3c
00000070: 46fd 673e d764 b23d 6aae b33c ac77 d6bd
00000080: 33b8 edbc 9050 96bd b3da a9bd 7c0c 03be
00000090: a30a 10be 4942 043d 2109 b5bd def5 4fbd
000000a0: dba5 8cbd 6dd7 063d 8383 4e3d e177 78be
000000b0: ae3e 90bd e1ad 12be d4ab 85bd d48b 5c3d
000000c0: 6f5c aabd cd8a 273d 3fa6 0fbe 9b3a 493d
000000d0: 1922 c23d 6883 523d 71d8 5d3b 08d4 8c3c
000000e0: 4f91 b0bd d04f 523b 214c 25bc 8361 c2bd
000000f0: f0e9 9b3d 184b c93d c7d7 c83c 9eae 2a3e
00000100: 2871 afbc 7d53 3b3d af1f 1a3e 3d8b 563e
00000110: 5f53 913d d26c ba3d b291 1cbd 6ab7 653c
00000120: b479 0cbe 04a5 e4bd 9e87 ac3d c90e 223e
00000130: bc93 d0bd fd15 f8bd 5c7f da3d 4b49 01be
00000140: 64bf 1b3e 6625 3c3c 2b5f a2bc 7a27 c93d
00000150: bc5d 1d3d 6e83 9c3c d24d 62bc ab3c 00be
00000160: ca96 7c3c 0fbd a93d 5384 56be fa14 283d
00000170: 18ef e33d 9843 2bbd 34d8 d9bd 8acb 22be
00000180: 5573 f7bc f394 9dbd d3c6 393d 49aa 06bd
00000190: 174c 24bd ff0d 193d 9980 963c e77e aebd
000001a0: 8d7b 0dbe 5da4 42bc 1328 f9bd bb01 cfbd
000001b0: 2b28 203d ec69 633d 52b2 19bb 910b 483e
000001c0: ed8a f0bd 4b64 e53d b87d 17be e92e 253e
000001d0: ed1f ddbc 61cf 16be dee3 833d 2845 133d
000001e0: 7493 5dbc 23d2 05be 846e a8bc 7a14 8f3d
000001f0: b86c b03d 3aea 3dbd 6f92 48bd caa9 9d3c
00000200: 6e14 b0bd a38b 6bbb bd93 2b3e 01d0 93bd
00000210: a21a 31bd cc85 44bd 7ae0 80bd a2d0 bf3d
00000220: 2828 9bbb db68 553e 81f2 a8bd d9dd 42bc
00000230: e4ae a7bd 9fca febc f783 a4bd 4df7 16bc
00000240: f8ed 29bd 1b94 e4bc 9654 c63d d6b7 e93d
00000250: 1112 41bd 50af 38be 99f5 ed3c 6151 1f3d
00000260: bc22 8e3c 2fe1 f8bd 8cee 93bc f107 413e
00000270: ad84 fa3c a79b dabd c60d 84bd 17c5 453e
00000280: aa05 bc3d b3d5 e1bd 597d 023e a990 90bc
00000290: ee71 7a3d 7e80 983d 4aff a4bd 499d c0bd
000002a0: ed58 17be 2bd2 003e 7f56 0a3d 36d9 703c
000002b0: ae7d 0cbe d351 cd3d ff47 b8bc df00 a4bd
000002c0: ff4d 05be fba9 a03d ecdb e43d 10d0 a53b
000002d0: 6d42 543d b4e6 25be dff0 88bd b302 33bc
000002e0: 8c8a 933d a557 803d 277f d43d 0eb0 53bd
000002f0: 691d 733c 9e63 e5bd 0228 04bb 0c30 22be
00000300: d90c d7bd 46ce 41bb c744 0c3d a8ef 7a3d
00000310: bf61 953d 5636 b2bd bd50 dabd 5cb7 07bc
00000320: 7f8b ffbb 4d08 cfbd 1969 133e 9615 f8bd
00000330: 201b 79bd a2fe ffbc 4a96 d3bc d620 403e
00000340: c3cf 03be dac1 e33c 6bd3 1fbe 7fc6 8d3d
00000350: 11b0 453d 8d94 ecbd a707 c93c ec50 313c
00000360: 5eec debd 82f5 1b3e a4df f13d 8aac 29bd
00000370: 2f22 c13c d8c8 07be 6148 b8bd 602f 533d
00000380: b4bf 0dbe 0ae5 e63d 5989 e5bd a23b 383e
00000390: 43be be3d d609 923d 6e0c d1bc 753e 983d
000003a0: 53f9 9fbd c2d7 fc3d 9ad8 6ebd 7847 c73c
000003b0: b0b3 b13d c1c9 e8bc a111 8fbd a227 61bd
000003c0: a46d 9a3d b680 42be 5885 d13b cd42 153e
000003d0: cfd2 973b fcc4 93bd f2f9 b9bc 66ed 97bd
000003e0: d9cf 873d 56f0 a2bd 4d2f e7bc e64b 66bd
000003f0: 25d8 893d 5443 5a3d 47ff 6fba 5e04 10bb
0.0625432 0.06625142 0.06660533 0.095388964 -0.04784093 0.07292604 -0.08318536 -0.022572227
0.050220728 0.14657266 -0.15880053 -0.07651213 -0.0736003 -0.07079412 0.12280354 0.16417983
-0.11699046 0.0097306315 0.049243134 0.050697897 0.14291093 -0.024047015 -0.10274687 0.09842394
0.14358413 -0.033665936 0.118159 0.009579299 0.2265521 0.0871064 0.021933753 -0.10472044
-0.029018497 -0.07339585 -0.08293667 -0.12797731 -0.14066558 0.032289777 -0.08839632 -0.050771587
-0.06867572 0.03292029 0.050418388 -0.2426448 -0.07043205 -0.14324142 -0.06526914 0.053844288
-0.083184116 0.040903855 -0.14028262 0.049128156 0.0947916 0.05139485 0.0033850933 0.017190948
-0.086214654 0.003209103 -0.010088951 -0.09491255 0.076129794 0.09828776 0.024516953 0.16668174
-0.021416262 0.045733918 0.15051149 0.20951553 0.0709598 0.09102787 -0.038224883 0.01402078
-0.13718301 -0.11164287 0.084243044 0.15825953 -0.10184428 -0.12113569 0.10668823 -0.12625615
0.15209728 0.011483526 -0.01982077 0.09821983 0.03841947 0.01910564 -0.013812499 -0.12523143
0.01541681 0.08288013 -0.20948915 0.04103563 0.11129588 -0.04181251 -0.106369406 -0.15897956
-0.030206362 -0.076944254 0.04535563 -0.03287724 -0.040111627 0.037366863 0.018371867 -0.085202985
-0.13816662 -0.011880008 -0.12165847 -0.10107752 0.039100807 0.055520937 -0.0023452234 0.19535662
-0.11745248 0.1120077 -0.14794052 0.16131176 -0.026992762 -0.14727546 0.064399466 0.035954624
-0.013523925 -0.13068442 -0.02056051 0.069863275 0.086144865 -0.046365954 -0.048967775 0.019246
-0.08597647 -0.0035941384 0.16755576 -0.07217408 -0.04323829 -0.04797916 -0.062928155 0.093659654
-0.0047350116 0.2084078 -0.08249379 -0.011893713 -0.081876546 -0.031102477 -0.08032983 -0.009214235
-0.04148671 -0.027902653 0.09684102 0.11412017 -0.04713637 -0.18035626 0.029047774 0.03889597
0.017350547 -0.12152325 -0.018058084 0.18850686 0.030580843 -0.106742196 -0.064479396 0.19313465
0.09180768 -0.11027088 0.12743129 -0.017647104 0.061143808 0.07446383 -0.08056505 -0.09405
-0.14780016 0.12580173 0.033773895 0.014700225 -0.13719818 0.10025372 -0.022495268 -0.08007979
-0.13018034 0.07844921 0.11174759 0.0050602034 0.05182116 -0.16201288 -0.066865675 -0.0109259365
0.0720416 0.06266717 0.10375815 -0.05168157 0.014838555 -0.11200641 -0.0020165448 -0.15838641
-0.10500497 -0.0029572411 0.03424528 0.06126371 0.07294034 -0.0870177 -0.10659931 -0.008283462
-0.0077986117 -0.10109005 0.1439556 -0.12113492 -0.060816884 -0.031249348 -0.0258285 0.18762526
-0.12872224 0.027802397 -0.15607993 0.06922626 0.048263613 -0.11551771 0.024539782 0.010822516
-0.10884927 0.15230373 0.11810234 -0.04142431 0.02357587 -0.1326021 -0.0899818 0.051558852
-0.1384266 0.112741545 -0.112078376 0.17991498 0.09313633 0.07130782 -0.025518622 0.07433788
-0.07811227 0.1234584 -0.058312036 0.024326071 0.08676851 -0.028416516 -0.06985784 -0.054969437
0.075404435 -0.18994412 0.0063940696 0.14576264 0.0046332846 -0.07215306 -0.022702191 -0.07418327
0.06631441 -0.07955997 -0.028220797 -0.056224726 0.067306794 0.053286865 -0.0009155166 -0.002197526

encoder.2.bias f4 [32]
00000000: 26fb f13d a237 86bd 3736 3a3e 1bbb aebd
00000010: da89 d33c 0245 1f3e 0c03 a13c 9c31 8bbd
00000020: 845c ec3d 8af5 173e 6365 99bd 54de 56be
00000030: ac5f 983d 6ac4 113c b13a 6e3e 912b 883e
00000040: c43d 133e 4b49 59be 4fae 9a3e ccda 4b3e
00000050: d091 8e3e dba0 a1bd 68cc 5dbd 432a 0ebe
00000060: 5208 04bd 172c 1ebe 7cbb 00be a49a c6bc
00000070: e737 1b3e 97f2 c2bd 7e08 043e 95e0 6dbd
0.11815481 -0.0655358 0.18184744 -0.08531781 0.025822569 0.15553668 0.019654773 -0.067965716
0.115410835 0.1483976 -0.07490041 -0.20983249 0.07440123 0.008896926 0.23264576 0.2659574
0.1437903 -0.21219365 0.30211112 0.19907683 0.2784562 -0.07892009 -0.054150015 -0.13883309
-0.032234497 -0.15446506 -0.1257152 -0.02424366 0.15158044 -0.095189266 0.12893865 -0.058075506

decoder.0.weight f4 [64, 32]
00000000: 64bb e73d b0ef e03c 022c 713e 6e6d de3d
00000010: c655 01be 67b7 903e 12c6 e93d ab7d 49be
00000020: 5d84 0bbe 1b2c a13d b130 08be 6319 8d3d
00000030: 3d44 f8bd 57e1 d93d ed3e c4bd 81d9 c63d
00000040: 80e2 60bd d745 23be c449 1f3e 9e8c 2e3d
00000050: 3914 05be 939c 3cbd 7a03 753d 7bbc 91bc
00000060: 7734 f1bd 9759 8e3d f6fe 47be a866 3a3e
00000070: 37e9 07bd 729d 54bd 3e97 633e 2921 34be
00000080: 32c1 65be 894a 6abd 5efb 1a3e 00de 18be
00000090: d1bc 243d cb74 f23d 0e01 db3d e188 0c3d
000000a0: e429 32be b209 f8bd 7bc7 a93e 2ba9 043e
000000b0: a62c 08bd de94 953d bbcd a8bd 2ec7 b63d
000000c0: 850d afbd 39ca 3cbe 5dca e03d 9539 683c
000000d0: 1f55 0fbc 2180 103e a160 303d 236e 82bd
000000e0: 51fe 75be 410c 4fbd 2654 5c3e d99a 00be
000000f0: 8dc2 2e3e 6712 053e 1e05 003e 43fc 33be
00000100: a460 d93d bae6 43be 02e9 4c3d 2ee2 05be
00000110: ed2f 02be 0d2c 113e a219 093e 8128 2c3d
00000120: 2a88 baba 7f43 943d 85ff 243d f02d 353e
00000130: ddfa 67bc 65fe 26bb 723a 07bd 535a f7bd
00000140: 09fa 68be ee23 84bd 96a3 f8bd a2cd b8bc
00000150: f1ed 6c3e 827a 063e dfe2 d9bc ce18 0c3e
00000160: 913c a23c c8f2 d5bd 945c 083e 0dd3 a3bd
00000170: de9f bfbc f125 093e 2814 213e 59cf 5abe
00000180: 87e8 de3e ed1e 053c 0997 5e3e ac67 5fbd
00000190: c831 043e 6111 bebd adb4 303e fb83 b83d
000001a0: 0b8f 19bd 674d 2d3d 626a 5f3e b247 d5bb
000001b0: be09 b7bd 62a0 9dbd 13c2 6a3e 543c a5bd
000001c0: 5938 e1bd 48f1 653c 6efe 833d 320e 02be
000001d0: c7f3 16bd 76a5 45be 65bb f3bd 7cad 2c3d
000001e0: 5793 9c3d f019 a7bb 561a 74be 9981 c7bd
000001f0: 9cb4 74b8 e16a 8bbe f03e e9bb f65c 643e
00000200: f659 023d 7e8b babd 004c 9abe 87ab 023e
00000210: 352a 793a 711f eebd e12b eb3d c342 c9bc
00000220: 78a9 82be 93d9 08be 62e5 1dbd ac31 1dbe
00000230: 4bc0 673d 9ef9 223e 7011 0bbe 81a8 573d
00000240: 03e4 a3be 23d5 623d c42b eb3d 9226 76be
00000250: e562 1cbe 845e 17be 6dc3 f63d d7f8 983d
00000260: 4924 96bc 99b2 5c3e 5b1e 60be f499 793e
00000270: e336 65be 9681 103e 570a f13c 5df3 cabc
00000280: 4068 a9bd 6b43 cdbc 7388 f93d f099 6bbd
00000290: 90ad c4bd da96 c03d 15c9 613e ff19 153e
000002a0: cf7a d13d 3dad 5f3e 77da 593d 9f9a de3d
000002b0: 7f24 15be 62d2 a5bd 171d 613d 27cd 70be
000002c0: c2b2 8d3d 6d8e 60be d5cd 103e 841f 3d3d
000002d0: a8d2 393e 7f3b c5bd 7107 353d 4162 ef3d
000002e0: ec3c e13d 6c2f 313c a324 06be e530 0ebe
000002f0: 554b 7c3e c19a 67bc b9db 34bd 3635 69be
00000300: f1ba 87bd d412 babd e463 5a3e ea2f fc3c
00000310: 502e 70be a897 883e 19bd 163e 9518 abbd
00000320: 8b4c b5bd 9f64 ca3d 254e f1bc 748e 60bd
00000330: 1dd4 7abe 58a8 b13c afaf 353d 054a f0bc
00000340: ff68 46be ac24 efbd 5e04 2abe 67e8 6f3d
00000350: fc9c ceba f8d6 4a3c 2508 3cbe f9ab 33bd
00000360: ffe3 b7bd 3d20 153c dd83 8a3e 116a 61bd
00000370: 4da2 0fbd 08db aabd 22f8 18bd ae03 06be
00000380: b68b 2d3d b3b7 e8bc 3e9d 0fbe 3acd 2fbd
00000390: 8d7b 9fbd e008 793e 57f7 8b3d a093 973d
000003a0: 3597 f5bd 72bf 9bbd 0e77 94ba bea3 743e
000003b0: 02af 6abe 16fb 293d 38ed fa3c c7f4 17bd
000003c0: 5f63 10be aa49 82bd 9c91 093e a143 8cbd
000003d0: 38e2 7c3e d4e9 0f3e 0c9b 82be 13e4 70be
000003e0: 5cbe 023e 835d 9f3c 84d4 b1bc 066a 073d
000003f0: 5590 a83c 7eab 623d 6682 673b 66c8 833d
0.11315039 0.027458042 0.23551944 0.10860716 -0.12630376 0.28264925 0.11414732 -0.19676845
-0.13624711 0.078697406 -0.13299824 0.06889608 -0.121223904 0.10638683 -0.09582315 0.09709454
-0.054903507 -0.1594461 0.15555483 0.04261457 -0.12995996 -0.04604776 0.05981777 -0.01779007
-0.11777585 0.06950682 -0.19530854 0.18203223 -0.033181395 -0.051907964 0.22225663 -0.17590775
-0.2243698 -0.05719999 0.15134951 -0.14928436 0.04021913 0.11838683 0.106935605 0.034310225
-0.17398793 -0.12111224 0.33160004 0.12955157 -0.033245705 0.07303785 -0.08242365 0.08924709
-0.085475005 -0.18436517 0.10976098 0.014173885 -0.008748322 0.14111377 0.043060903 -0.06368663
-0.24022795 -0.050548796 0.21516475 -0.1255907 0.17066403 0.12995301 0.12501952 -0.17576699
0.10614136 -0.19130984 0.0500269 -0.13074562 -0.12713595 0.1417696 0.13388684 0.042030815
-0.0014231254 0.07239436 0.040282745 0.17693305 -0.014158932 -0.002548122 -0.033014722 -0.12077775
-0.22751631 -0.064521655 -0.121405765 -0.02255899 0.23137642 0.1313267 -0.026597438 0.13681337
0.019804271 -0.104466975 0.13316566 -0.07999239 -0.02339166 0.1339338 0.15730345 -0.2136816
0.4353678 0.008125049 0.21737303 -0.05454223 0.12909615 -0.092806585 0.17256422 0.09009548
-0.037489932 0.042310145 0.21817926 -0.006508791 -0.08937405 -0.07696606 0.22925596 -0.08068147
-0.109970756 0.014034577 0.06445013 -0.12700728 -0.036853578 -0.193014 -0.11900977 0.042157635
0.0764529 -0.0050995275 -0.23838171 -0.09741516 -5.834234e-05 -0.2722998 -0.0071180984 0.22301087
0.031824075 -0.09108637 -0.30136108 0.12760745 0.00095048855 -0.11627091 0.114829786 -0.024567967
-0.2551992 -0.13364248 -0.038548835 -0.1535098 0.05657987 0.15915534 -0.1358087 0.052650932
-0.32009897 0.055379044 0.11482957 -0.24038151 -0.152721 -0.14782149 0.12048993 0.074693374
-0.018327849 0.21552505 -0.2188658 0.24375135 -0.22384219 0.14111933 0.029423876 -0.024774248
-0.08271837 -0.025056561 0.12184229 -0.057519853 -0.09603417 0.09403773 0.22049363 0.14560698
0.10228502 0.21843429 0.05318686 0.108693354 -0.14564703 -0.08096768 0.054959383 -0.2351576
0.06918861 -0.21929331 0.14141019 0.046172634 0.18146765 -0.096304886 0.04419655 0.11688662
0.10997948 0.010814529 -0.13099913 -0.1388584 0.24638112 -0.014136017 -0.044154856 -0.22774205
-0.06627453 -0.090856224 0.21327168 0.030784566 -0.23455167 0.26678205 0.14720573 -0.08354298
-0.0885249 0.09882473 -0.029456208 -0.054823354 -0.24494977 0.021686718 0.044356998 -0.02933217
-0.1937599 -0.116769165 -0.16603228 0.058571246 -0.0015763338 0.012380354 -0.18362482 -0.043865178
-0.08979034 0.0091019245 0.2705373 -0.055032793 -0.03506689 -0.08342558 -0.037346013 -0.13087341
0.042369567 -0.028407907 -0.14024827 -0.04292033 -0.07787237 0.24319792 0.06834286 0.07401204
-0.11991731 -0.07604875 -0.0011326985 0.23890588 -0.22918323 0.04149922 0.030630693 -0.037098672
-0.14100407 -0.063617066 0.13434452 -0.06848837 0.2469567 0.14054042 -0.25508916 -0.23524503
0.12767929 0.01945377 -0.02170778 0.033060096 0.020576635 0.05533933 0.0035325526 0.06434707

decoder.0.bias f4 [64]
00000000: 8b4e df3e 3e68 e33d b74c f9be 82bb 04be
00000010: abe0 edbd b638 003f 1229 1abe e08d 94be
00000020: 8e44 f13e e33d c0be d324 00be aa9c 16be
00000030: f9d7 8b3e 4795 133f 4cd5 463d 8fbb c13e
00000040: e599 6c3d c6b3 403f ae9c 7c3e db5e 8c3e
00000050: 3a2a 8c3e 80cc 263f 6db7 773e 5c44 df3e
00000060: cd3e 17bf 0327 1f3e 4749 93be 1aaf 593d
00000070: 17f7 30bc 2dfc 2a3e ddcd 283d e8a4 e43e
00000080: f0e1 10be 687e 8b3e b7de 953e 9540 0f3e
00000090: 1647 023d 3c80 773d ee17 643e 90b3 85bd
000000a0: 5d4f 023d b1df 183e 45bd d03d 1fc9 20be
000000b0: 56bd 82be b2c7 453f 75d8 093f aa5e 0cbe
000000c0: 0f2e b5be 9bf4 19be 9083 053e aba2 f93d
000000d0: ccf9 04be 5dc6 9c3d 8611 df3e aa76 8ebd
000000e0: a919 883e b1a8 3b3e b220 a13e 82a0 0abf
000000f0: ed78 803e f85b c0be 1e97 0a3d a83a cd3e
0.4361461 0.11103867 -0.4869134 -0.12962154 -0.11615118 0.50086534 -0.1505473 -0.29014492
0.47122616 -0.37547216 -0.12514047 -0.147082 0.27313212 0.57649654 0.04854326 0.37838408
0.057763953 0.7527431 0.24669144 0.2741612 0.27375966 0.6515579 0.24191065 0.43606842
-0.590802 0.15542226 -0.28766844 0.053145505 -0.010801098 0.1669776 0.04121195 0.44657063
-0.14148688 0.27244878 0.2927148 0.1398948 0.031806074 0.06042503 0.22274753 -0.065283895
0.031813968 0.14929081 0.1019235 -0.15701722 -0.25535077 0.77257836 0.5384591 -0.13707986
-0.35386702 -0.15034716 0.13038468 0.121892296 -0.12985915 0.07655022 0.43568057 -0.06956227
0.26582077 0.1832607 0.31470257 -0.54151165 0.2509226 -0.37570167 0.033835523 0.40083814

decoder.2.weight f4 [128, 64]
00000000: 2b1b a8bd 627c 0d3e 0d71 0cbe 8585 5a3e
00000010: 93ec 4ebd c664 5dbe 5f19 633e de9e 0e3e
00000020: fa1c e5be 3ef6 d63d 2fad 463c e895 aabc
00000030: 2093 853e a6f0 a93e 91c3 b93c f3f0 8e3e
00000040: 7a8a cd3e 4b89 ae3e afea d53d 77cc 3ebe
00000050: ea41 1c3e 4e8d 213e cbe1 96be 4553 86bc
00000060: 5dab ce3d be1b 9bbd b2f7 21be f52a 0b3e
00000070: 03d2 47bd fcf4 91be a59a 233d 5c22 94bd
00000080: 80b5 1cbd 996d 19be 7f5f d9bc 39c6 08be
00000090: f742 81be 78b4 09be d29e 7c3e 38a2 243e
000000a0: 116b 253d df99 ff3d 109c c03d 7005 12be
000000b0: b91b bfbd aed9 833b 6de3 87bc 8ef8 203d
000000c0: ecf7 7dbd 0ecf 08bd 015e b93e 7090 12be
000000d0: 0ed4 b83c 8899 1d3d 36eb 893c 8004 b0bd
000000e0: efe6 afbc 7ef5 fd3d a923 67be cb7a 993e
000000f0: 1d0e 92bd c2c7 353c 0f74 e0bd 11d5 543e
00000100: 0f13 023e 64d2 cebc 3dbe 01bd 55a4 dcbd
00000110: faa0 9d3d cb90 62be 8d48 b5bd 396e d93c
00000120: d4a4 febd 7e14 39be 3097 dabd 7e96 783e
00000130: 9f7c 0a3d 8b56 e73d 5b51 8f3d e0cd 60be
00000140: d59e 913d fefb a13e 6585 923d b7ab 0cbe
00000150: 79c3 14bd 7d92 15bc 5060 c4bd 6cad 64bd
00000160: c8db 613b 3446 cc3d 1b15 4dbd eaa0 d33d
00000170: 2427 da3d 9b80 64bd ea59 7b3d 461f d6bd
00000180: d9e4 5bbe e3c1 23be bed6 9d3d 5395 3b3d
00000190: 209b 11bd 0694 06be 9b02 38bd b275 833d
000001a0: 533c 7ebd d3a1 f1bc fa90 2a3c 6e44 353e
000001b0: c579 e1bd d652 b93c f7ce 95bc 63f7 d3bd
000001c0: 84db ecbd 6795 72bd 9f28 2bbe 918a c23d
000001d0: efa1 3b3c fa28 233d 87d5 91bd 4e21 d23d
000001e0: 85cb 90bd 65e4 5f3e 3941 653d 9cc3 843e
000001f0: 00db 9f3e 43bc ed3d 23d6 b0bc f364 cc3c
00000200: 9c31 bc3c b312 02be 7526 083c cdd7 b5bc
00000210: 6766 e4bd 6988 23be 0775 afbd b2f5 5c3c
00000220: 0495 863c cc86 82bd 3e33 a9bb 2213 a43d
00000230: 063a 843d 2e0b 36bd bd8c 44bd b504 d7bd
00000240: 7080 65bd 5b42 653d fa55 883c 5ad7 8f3d
00000250: 145d 8f3d 3591 c23d 2d0f c5bc 5ead c53d
00000260: 0082 263e 5663 293d 926c 15be 9552 053d
00000270: f7f1 553d da5b a6bd 26f2 03bd 9601 4ebd
00000280: 28aa a73d e2bc e8bc e058 833d 26c6 47bc
00000290: 36b0 413d a030 ba3c 4df6 8fbd c20c 8cbc
000002a0: f551 e9bc 749f 143d 884c 153d 5aa7 153e
000002b0: 8f2e 9ebd 3453 28bd 9673 33bd 5573 39bd
000002c0: b82c 8cbd f421 0bbe 830c 56be ffe6 db3d
000002d0: 07d5 5dbd 24ba 2a3d a459 d5bd 435c 033e
000002e0: 802b ebbc 596e 013e 4a69 c23d 0234 a63d
000002f0: 34ee ac3e 6fba 96bd a39b 363d 581c 703c
00000300: 6b10 1ebd f48f e1bd 5dea 2dbc 9205 813e
00000310: 7d81 8cbd 8ee9 ecb9 86ea 38bc 2d7b 133e
00000320: 29e2 343c 000b e13d 2cc7 2abd 5f7a 233d
00000330: 86fc 403d 73e7 4ebe f68c c8bd 9f1d aebd
00000340: 8d52 c1bd 0f8b 95bd 8c56 d8bd b4ae 513e
00000350: 3577 03bd 1acb 0b3e 8e94 74ba 7ed1 a73d
00000360: c1ec 3b3d 9a59 2cbd 5d66 21bd f27a 10bc
00000370: fdcd 3b3d 100a 0ebc 44a1 f4bd fbcf e43c
00000380: 779d 153e b549 883b f301 ebbc 57c9 46bd
00000390: 7cc9 193e f71f 11bd e6d6 83bc 1a34 ca3b
000003a0: c262 31bc 7e5f be3c c3f0 a03d 033f cc3c
000003b0: e5f4 d6bd 1a59 ddbd c08d a5bd 3544 413d
000003c0: 10c3 583b 74fb d5bd 9e44 9cbd a31d 3a3c
000003d0: 9ca8 f7bc 9127 0e3d 1e18 db3d 0890 18bd
000003e0: 9f8e a33d 068a 9c3d 6397 ca3d 8a24 f8bb
000003f0: 5594 1c3e 8aeb e7bd 1c2b a9bd 2485 cb3d
-0.08208307 0.1381698 -0.13715 0.21339996 -0.050518584 -0.21620473 0.22177647 0.1392779
-0.4474867 0.10496186 0.012126251 -0.020823434 0.2608881 0.33191413 0.022676261 0.27918205
0.40144712 0.3408912 0.10445153 -0.18632685 0.15259519 0.1577656 -0.2946914 -0.016397128
0.10091279 -0.07573651 -0.15817145 0.13590606 -0.048784267 -0.2850722 0.039942402 -0.07233116
-0.03825903 -0.14983214 -0.026534794 -0.13356866 -0.25246403 -0.1344775 0.2466996 0.16077507
0.04038531 0.124805205 0.094047666 -0.14259887 -0.093314596 0.004023752 -0.016587937 0.03929954
-0.062004015 -0.033400588 0.36204532 -0.14312911 0.022562053 0.038476497 0.01683579 -0.08594608
-0.021472422 0.124003395 -0.22572197 0.29976496 -0.07131598 0.011094989 -0.109596364 0.20784403
0.12702583 -0.025246806 -0.031675566 -0.10773531 0.076967195 -0.22125547 -0.088517286 0.026541816
-0.12433782 -0.18074223 -0.10673368 0.24276158 0.033810254 0.11295804 0.06997939 -0.21953535
0.07110373 0.31637567 0.07154349 -0.13737379 -0.03631923 -0.009129164 -0.09588683 -0.05582945
0.0034463275 0.09974328 -0.050068956 0.10333426 0.10651997 -0.05578671 0.061365046 -0.10455184
-0.21474017 -0.1599193 0.077069744 0.045796704 -0.03554833 -0.13142404 -0.04492436 0.06418933
-0.06206925 -0.02949611 0.010410542 0.17701885 -0.11009554 0.022622507 -0.018287165 -0.1034992
-0.11565307 -0.059224512 -0.16714714 0.09499086 0.011452182 0.039834 -0.07120805 0.102602586
-0.07070068 0.2186447 0.055970404 0.25930488 0.3122177 0.11608174 -0.021586483 0.02495048
0.022972874 -0.12702446 0.00830995 -0.022197628 -0.11152344 -0.15970005 -0.08567243 0.013486313
0.016428478 -0.06373367 -0.0051635792 0.08011462 0.064563796 -0.044444256 -0.04798578 -0.10498945
-0.05603069 0.055971485 0.01664256 0.07023497 0.07000175 0.09500352 -0.024055088 0.09652208
0.16260529 0.0413545 -0.14592198 0.03254946 0.05223271 -0.08122988 -0.032213353 -0.05029448
0.081867516 -0.028410379 0.06413436 -0.012193238 0.04728719 0.022728264 -0.070294 -0.017095927
-0.028481463 0.03628488 0.03644994 0.14614621 -0.07723724 -0.041094974 -0.043811403 -0.045276005
-0.06844467 -0.13587171 -0.2090321 0.107374184 -0.054158237 0.041681424 -0.10417488 0.12828164
-0.028707266 0.1263975 0.094927385 0.081153885 0.33775485 -0.07359778 0.04458202 0.014655195
-0.038589876 -0.11013785 -0.010614959 0.25199562 -0.068606354 -0.0004518744 -0.0112863835 0.14402457
0.011040249 0.10988426 -0.04169385 0.039911624 0.047115825 -0.20205478 -0.09792511 -0.085017435
-0.094395734 -0.07301914 -0.105633825 0.204768 -0.032096107 0.13651696 -0.00093299977 0.08194254
0.045880083 -0.04207764 -0.03940426 -0.008818375 0.045850743 -0.008669391 -0.119448215 0.027931204
0.1461085 0.004159177 -0.028687453 -0.048531856 0.15018266 -0.035430875 -0.016093682 0.006170762
-0.010826768 0.023238894 0.07858422 0.02493239 -0.10495929 -0.108080104 -0.08083677 0.047184188
0.003307525 -0.104483515 -0.07630275 0.011359605 -0.030231766 0.034705702 0.10697959 -0.037246734
0.07986187 0.076435134 0.09892156 -0.007572715 0.15290959 -0.113242224 -0.082601756 0.09937504

decoder.2.bias f4 [128]
00000000: b0cb 973e 05cb 33bf 3933 a43d 8074 d23e
00000010: 38b5 913e f06b 253d 92a5 3d3f 1085 a1bb
00000020: 0c9e a33e 2dd6 4fbe b820 b7bd 0f1f bebd
00000030: 3409 803e 1f6e 30bd 25f9 933e 9e63 00bf
00000040: 9b00 1e3d 0242 3b3d ab6e c13e 6d2f 4abe
00000050: 94ad 33be 997b 60be 1d0d b03e c26b 91be
00000060: efe4 30be e378 1ebe 608f f03e 48f4 43bc
00000070: c6e2 413e 9324 fa3d 3bec 363e 6332 e9bd
00000080: 8ef7 473e 9f76 6fbd 0469 e43e f401 633e
00000090: cacf 953b 0dd0 45be 596e a03e bf05 30bf
000000a0: e633 8a3e d6f5 1a3d a830 ce3e 9578 d03e
000000b0: 653a 673e ee9d 9bbe f529 64be 5f5d 31bf
000000c0: e393 ef3e 3178 c6bd 3383 d2be 5e26 bcbe
000000d0: 6db4 7f3e 6ed4 2cbe 360e 113f bef8 6ebe
000000e0: f136 743e 0e61 a5be 2ad4 033f 2294 4ebd
000000f0: 8dcb 66bd 68f2 a8bd a857 233e 5cba 3fbe
00000100: b04f 4cbd 9137 c3be 9acd 0c3f 054e 85be
00000110: 4b24 2abe b126 45bd 250b 423e 38f0 c5be
00000120: 7276 bf3e dbea 27bf f419 72bd 5712 f53b
00000130: f38b c43e adae 193e b2b0 9c3e bae0 2b3d
00000140: e950 8c3d 2230 18be 80ec c53e b343 213e
00000150: a984 3dbe f9a3 96bd 4cb8 8abe 4444 22bf
00000160: 7a02 853e 88be 0e3e 5656 9a3e b3f2 80bd
00000170: 2997 633c a10d 363e c9d1 2ebd 9ceb 06bf
00000180: f924 3cbd d4f0 d03e de16 e33e 8ad6 13bf
00000190: 7ec2 363e d173 ce3e 3146 b83e f4e0 ffbe
000001a0: a94a ee3d 9d2b 5ebd 1545 233f 5878 3fbe
000001b0: 5748 e73e 5ece 0c3f 5b49 debd bd59 3dbf
000001c0: 9f95 723d 9536 8a3d 24a4 5a3c 8258 aa3d
000001d0: 07dc 8c3b 5f67 22bd 4913 bf3e 171b c5be
000001e0: 6c3e e23c f8f4 113c 0a73 d53c f1de 54bd
000001f0: 8383 9b3e cc9d 9dbd acb1 043f 9918 9b3b
0.2964759 -0.7023166 0.080175824 0.41104507 0.2845857 0.04038614 0.74080765 -0.0049291924
0.31956518 -0.20296545 -0.089417875 -0.09283268 0.2500702 -0.04307377 0.2890102 -0.50152004
0.038574796 0.045717247 0.37779745 -0.19744654 -0.17546684 -0.21922149 0.34385005 -0.28402525
-0.17274831 -0.15475802 0.46984386 -0.011960097 0.18934163 0.12214007 0.17863552 -0.11386564
0.19528028 -0.058462735 0.4461137 0.22168714 0.0045718895 -0.19317646 0.3133419 -0.6875877
0.2699272 0.037832104 0.40271497 0.40716997 0.2258087 -0.30393928 -0.2228163 -0.692831
0.46792516 -0.096908934 -0.41115722 -0.36748022 0.2497117 -0.1687791 0.5666231 -0.23337075
0.23849083 -0.3230061 0.5149561 -0.05043424 -0.056346465 -0.0824936 0.15951407 -0.18723434
-0.049880683 -0.3812833 0.55001223 -0.26036087 -0.16615407 -0.048132602 0.18949564 -0.38659835
0.37395054 -0.65592736 -0.059106782 0.007478993 0.38388023 0.1500804 0.30603558 0.041962363
0.0685137 -0.14862111 0.38656998 0.15748481 -0.18507637 -0.07355494 -0.27093732 -0.63385415
0.25978452 0.1393987 0.30143994 -0.06296291 0.01389102 0.17778637 -0.042680535 -0.5270326
-0.045933697 0.40808737 0.44353384 -0.57749236 0.1784763 0.40322736 0.35991052 -0.49976313
0.11635334 -0.05424081 0.63777286 -0.18698251 0.45172378 0.5500239 -0.10853835 -0.73965055
0.05922472 0.06748692 0.013344798 0.08317663 0.0042986902 -0.039649364 0.373194 -0.3849723
0.027617656 0.008908503 0.026055831 -0.051970426 0.30373773 -0.07696113 0.51833606 0.004733157

exp_avg f4 [64, 128]
00000000: 016f 38bd d77d aabd 79a2 b9bc 5bbb 97bc
00000010: e3b5 143d 723f 74bc e991 9d3d 6910 b93d
00000020: edee a13d d357 a8bd 85a9 55be 16a7 2fbd
00000030: be3a 723e b3f0 b33d 2d9e 01bd 2270 d73c
00000040: 2c78 513e a43b acbd e48b 9dbd 7967 abbd
00000050: d323 1a3c 6199 ee3c 7e00 a2bd 4775 203e
00000060: 4cf6 d73d 5b86 d83b 7d47 b03c b48a f73c
00000070: 5bf4 5ebd 178c 00bd c26e 87bd 6c0f 32bd
00000080: 201c eabd e65b 0ebe 7766 843b 01fe d03d
00000090: 98d0 e83c 1587 2fbc 47ae 413e 0ae5 943c
000000a0: b7b2 afbd a38f 5dbe b9a7 47be b036 693c
000000b0: d0cc 963e 957c 2c3e 529b ee3d 44f7 b43c
000000c0: 59a1 b53e b5f5 9d3d 3d74 43be 31d0 9dbe
000000d0: 9170 8abd b355 2cbd 84e4 2b3d 0fe6 8f3e
000000e0: f7e2 3f3e 978f 433d a166 b3bd 097a d9bd
000000f0: f956 f9bd a029 c4bd 23e0 4ebd 0e4c 973c
00000100: 0874 bebd 2ea9 82bc 2318 ff3d 031e e23d
00000110: 7841 8d3d 5ac8 68bd 4bb7 6ebc db20 20be
00000120: 7f30 b2bd 11bf 9e3d 0b05 1b3e 894a 2d3e
00000130: 0160 2f3e 4790 40bd 6043 0ebe 198c 58be
00000140: c876 b73e 2caa 943e 73c9 323e a375 8f3c
00000150: a4dd 66be 27ab 8cbe 9641 28be a95e 953c
00000160: 66e7 6b3e 5a84 573d de32 853c f49d 8abc
00000170: 0845 49be 3a6b e2bd 63ee b7bd 42da 683d
00000180: f71c 6bbd 9aa3 6f3d 6643 813d fdaa 1b3c
00000190: cddf 713c a434 5a3c edab 6cbd a87f a6bd
000001a0: 2f13 f5bc 5ba3 443e 7557 aa3e b501 233e
000001b0: d5b1 a0bd 3260 4ebe d3f1 62be 7907 10be
000001c0: 9880 ca3d fdac 1b3e dd05 ae3e 0856 f43d
000001d0: f9c9 1dbe b697 34be df61 3ebe 926e 8bbd
000001e0: f372 ad3d 7732 173d ccfc f93d 9c77 403d
000001f0: 2126 69bd cf09 eabc 6aed 9ebd e1a8 aabc
00000200: 5a9b f7b9 1608 e83c 73d3 a1bd f21b 62bd
00000210: 4904 77be 3b11 c2bc 2f5e 3d3d a238 35bc
00000220: 0061 a6bd 8772 29be d3bd 63bd f48b 3e3c
00000230: 8ab4 9bbe e7f7 603d 9dad e83d 2f0e 753d
00000240: 12a8 18be 7a67 0ebc 60f8 7bbb ec34 75bd
00000250: 1352 d5b9 6994 943d 6d0b 9a3d d191 c33d
00000260: 1cc2 68bd a409 963c 3672 d6bc 1e25 343d
00000270: 54fe 283e f611 063d b4a7 9d3b 79c5 9dbc
00000280: e7ac 27be 5129 d6bc a342 0cbd 2f1e 4abe
00000290: b5ed abbe 1d0b 303e 5d41 2abd 78bb 8d3c
000002a0: e1a3 97be 81e7 22be 052a 27bc ade3 2bbe
000002b0: f5f7 f5be ed91 66bd 8ad7 bb3d 5182 b93a
000002c0: da65 c9bd 21d9 80bd 1612 03bd 0f35 11bd
000002d0: aa39 6bbd 4257 cc3d 5374 683e 6e66 ed3d
000002e0: 062d 673b 2d72 6bbd 113c 4dbd b821 44bd
000002f0: 8626 7b3e 89e2 e53d c893 3b3d a91c fa3d
00000300: 354b 1abe 432e 1a3d 9a7c 693c a855 dcbd
00000310: 06ef f5bc 642f fb3d c84f c8bd 3657 24be
00000320: 7f50 6ebe a985 7dbd 0614 8ebc 8398 c2be
00000330: 38ad 94be 6899 763e 19cb 213d fb23 f7bd
00000340: 3a3f 32bd eaa5 0a3d 6f69 083c 42b9 1fbe
00000350: a13f 1abe 207e 023e ae25 053e a354 95bd
00000360: 4b14 e63b 70c8 123d 1133 5cbd 79d7 14bd
00000370: f2ca afbc 20bd 0d3e 7911 2e3e d065 5a3c
00000380: 3556 44bd 9931 ba3d cffa 5d3d b849 9cbd
00000390: ce65 343e fbbb 973c 486b bcbd 78aa 3fbd
000003a0: 44a3 13be e82a fb3d ff19 3d3c bc25 58be
000003b0: 12a6 f63c b136 143e 30ca 59bd 2dfa efbd
000003c0: 87e5 94bd bbc0 df3d c59f 00bd b0e9 23bc
000003d0: 6ecc 053d eeff 4b3e d962 0e3d a319 1bbe
000003e0: 872a e43d 1545 2b3e bf38 f8bd b18f f4bc
000003f0: dd9e 3cbd e7e1 44bd 8f97 113e 4ef5 6abd
-0.045027737 -0.08324783 -0.02266048 -0.018521955 0.036306273 -0.014907705 0.07693846 0.09036333
0.079068996 -0.08219876 -0.20865448 -0.042883955 0.23655221 0.08786144 -0.03164499 0.026298586
0.20455998 -0.08409813 -0.07692698 -0.08369345 0.009407955 0.029125871 -0.0791025 0.15669738
0.10545024 0.0066078133 0.021518463 0.030217506 -0.054432254 -0.0313836 -0.06612922 -0.04347174
-0.11431146 -0.13902244 0.004040535 0.102046974 0.028419778 -0.010713358 0.18914138 0.01817562
-0.08579009 -0.21636824 -0.19497575 0.01423423 0.29453135 0.168444 0.11650719 0.022090562
0.3547466 0.077128805 -0.1908731 -0.308229 -0.067597516 -0.042073917 0.041965976 0.28105208
0.18738924 0.04774436 -0.08759809 -0.106189795 -0.12174792 -0.09578252 -0.050506722 0.018468883
-0.09299475 -0.015949812 0.124557756 0.110408805 0.06897253 -0.056831695 -0.014570068 -0.15637533
-0.08700656 0.07751287 0.15138642 0.16922964 0.17126466 -0.047012594 -0.13892889 -0.21147193
0.3583281 0.2903608 0.1745966 0.017512148 -0.22545487 -0.2747433 -0.16431269 0.018233614
0.2303749 0.052616455 0.016259607 -0.016921021 -0.1965524 -0.11055608 -0.089810155 0.056848772
-0.05740067 0.058505632 0.06311683 0.009501216 0.014762831 0.013318215 -0.05778115 -0.08129817
-0.029916374 0.1920294 0.3326985 0.1591862 -0.07846419 -0.20153883 -0.22162561 -0.1406535
0.098878086 0.15202709 0.33988848 0.11930472 -0.15409078 -0.17635998 -0.18592022 -0.06808199
0.084691904 0.03691336 0.1220642 0.04698907 -0.05692113 -0.02856913 -0.07760127 -0.02083248
-0.00047227257 0.028324168 -0.07901659 -0.055202432 -0.24122728 -0.023689857 0.0462324 -0.011060866
-0.0812397 -0.16547595 -0.055600952 0.011630047 -0.30411178 0.054923918 0.11361239 0.05982798
-0.14907864 -0.008691663 -0.0038447604 -0.059864923 -0.00040687676 0.072548695 0.075217105 0.09549297
-0.056825742 0.018315144 -0.026177507 0.04398071 0.16503268 0.032731973 0.0048112515 -0.019259201
-0.16374551 -0.026142748 -0.034243237 -0.19738077 -0.33579794 0.1719174 -0.04156624 0.017301306
-0.29617217 -0.15908624 -0.010202889 -0.1678607 -0.4804074 -0.05629151 0.0917197 0.0014153217
-0.0983388 -0.06291414 -0.03199967 -0.03545099 -0.05742804 0.099775806 0.22700624 0.115918025
0.0035274639 -0.057481933 -0.050106112 -0.04788372 0.24526414 0.11224849 0.045795232 0.12212498
-0.15067752 0.037641775 0.014250899 -0.10758525 -0.030021202 0.122648984 -0.09780842 -0.16048893
-0.23272894 -0.061895046 -0.017343532 -0.38006982 -0.29038405 0.24081957 0.03950033 -0.120674096
-0.04351733 0.033849634 0.008325919 -0.15598014 -0.15063335 0.12743425 0.13002655 -0.07291534
0.007021462 0.035835683 -0.05375964 -0.036338303 -0.021459077 0.13841677 0.16998853 0.013329938
-0.047933776 0.09091491 0.054194268 -0.07631248 0.1761696 0.018522253 -0.0920015 -0.04679343
-0.1441775 0.12264043 0.0115418425 -0.21108145 0.030108485 0.14473988 -0.053171337 -0.11717639
-0.07270341 0.10925432 -0.031402368 -0.010004446 0.032665662 0.19921848 0.034762237 -0.15146498
0.11140924 0.16725571 -0.121201985 -0.029853674 -0.04604994 -0.048067 0.14217971 -0.057362847

exp_avg_sq f4 [64, 128]
00000000: 9981 423f 8817 8a3e 0c04 113e 9975 093e
00000010: afe5 1f3e 15e0 5f3e 0387 8e3e 70f2 ae3e
00000020: a59a 683f 2f6c 7e3f 1759 c73f b56c 173f
00000030: e8f3 b73e ec68 783f 14ed 8c3f 651e 0d3f
00000040: 75a9 ab3f 4af3 043f f074 bf3f b6dc 7e3f
00000050: 32b1 a03e 2425 fb3e f942 833f 7b11 973f
00000060: babb 3b3f 64bf 843e 4a22 943e f1c2 aa3e
00000070: e08d 853e 2e5f 043e 625c 093e 8d5b 9a3e
00000080: f7d5 3340 8479 183f 01bc 8a3e ba39 d23e
00000090: d2bf 1e3f 03f9 513f dac2 2c3f fdb9 2f3f
000000a0: 2b81 5d40 d8d6 f43f e393 cb3f fbc3 143f
000000b0: 97cf 353f e821 d53f 613d b13f 0e3d 523f
000000c0: 88f0 4e40 e689 173f 9805 f73f c02f 0b40
000000d0: bee8 683f ef20 123f fda8 753f 397b 0340
000000e0: 6c00 1b40 d3a7 cc3e 66c0 143f 4f46 923f
000000f0: 2809 7f3f 1b85 e63e b549 823e 76b9 3f3f
00000100: 8717 2f40 ec06 cb3e e0a4 3b3f af1a 603f
00000110: cb97 2b3f 2372 cb3e 0a8d 8e3e b0b1 6f3f
00000120: 5a7a 6f40 65fe 133f 1a3f cb3f 6a74 c33f
00000130: c8a4 373f 39cb 183f af3b a73f f7c1 2540
00000140: 99ef 4240 68dc d13f 0ea7 9c3f 2b23 f83e
00000150: f70e 753f dcf8 1740 d8c9 e03f 4042 2f3f
00000160: 747d 2040 c581 1b3f 5223 7f3e 335b db3e
00000170: 49d9 753f 0667 983f b1ed 273f 854a 1a3f
00000180: 3f02 493f 6145 7a3e b5eb b53e dc90 873e
00000190: a13b 403e 58a1 0a3e 5fca f43d ba07 bd3e
000001a0: f2cd a43f 6f8d 053f 7a33 b83f 43af 623f
000001b0: c194 9f3e e869 0a3f 98c7 ae3f 7d96 a13f
000001c0: 9c2d 893f 84b4 7a3f 6b8f ac3f 0858 0f3f
000001d0: 5a1c b63e 88ae 9d3f 48f9 a93f ca39 043f
000001e0: ec75 3d3f c313 893e 4eb1 3c3e a545 353e
000001f0: f845 6e3e 4fa5 873e a040 963e 655f 963e
00000200: d9e5 bb3f dcbb e43e d6df 893e 34e1 693e
00000210: bdce 9a3e 6814 dc3e 7146 033f 7881 223f
00000220: 8574 e43f c2ef ab3f 7ddf 0240 b68c 5f3f
00000230: 9e57 163f d069 ce3f a439 0840 0d2b 893f
00000240: 6b3e 0a40 a574 513f 582d 0540 23da a83f
00000250: 7135 093f 6bba 743f 8e22 0840 330e 0940
00000260: c905 b33f 5c60 e43e ec81 0b3f cf46 073f
00000270: a786 cf3e 2c6b 8a3e 5826 873e 4b6e 123f
00000280: 237d 8d40 25b9 713f ceb0 d53e 28c0 283f
00000290: 6243 963f bd53 b33f 7f8c 8a3f 1230 8e3f
000002a0: 33b2 a740 7983 2a40 1159 0840 bb27 803f
000002b0: 6fd6 b23f 815b 3a40 314f 2540 5253 ad3f
000002c0: 913e b740 476b 803f 3f33 3740 aa75 2b40
000002d0: 56a4 953f 6330 703f b091 e93f 0840 6e40
000002e0: 26ae 9040 c08a 3e3f 30e4 8e3f ce31 d03f
000002f0: 14e1 b73f 9d91 433f bf5a e23e 884c bb3f
00000300: c4a3 8540 4db2 323f a76c 913f 1755 b03f
00000310: b928 963f c8da 283f b355 cb3e ff85 a93f
00000320: 5c7d ae40 f196 763f e706 1840 9f29 1d40
00000330: 46b4 a93f 8e80 593f 89f1 db3f 2fce 6140
00000340: 72e8 af40 e4fd 3440 57b4 0640 7f15 523f
00000350: f392 a63f fb96 3c40 c799 1a40 5203 a33f
00000360: 518f 9640 a045 873f d40a e93e d791 253f
00000370: 0d3e ac3f f834 d23f b235 833f 8183 8d3f
00000380: 1d59 a33f 09f4 de3e fb42 0d3f a9ef de3e
00000390: 13de ac3e e343 4f3e 0df1 4c3e b217 103f
000003a0: 768e 0840 eb36 783f ca6b 0a40 9c36 b93f
000003b0: 6d33 1b3f bed3 323f 34e6 e53f 6732 f73f
000003c0: 7ac6 f23f d872 dd3f 9bb7 0640 1b1e 723f
000003d0: 2df7 0e3f 6683 c93f 3364 eb3f 3d56 613f
000003e0: 9ce0 a83f 8f67 fe3e 717a a63e 6d2f 943e
000003f0: 1ee8 c53e c047 cf3e f049 ec3e 0eca 0b3f
0.75979 0.26971078 0.141617 0.13423766 0.15614961 0.21862824 0.2783738 0.3416934
0.9086097 0.99383825 1.5574063 0.5915025 0.35928273 0.970351 1.100985 0.55124503
1.3411089 0.5193373 1.4957561 0.9955553 0.3138519 0.49051774 1.0254813 1.180221
0.73333323 0.2592727 0.2893241 0.33351853 0.26084805 0.12926933 0.13414147 0.30147973
2.8099344 0.5956042 0.2709656 0.41059667 0.62011445 0.82020587 0.6748482 0.6864317
3.4610088 1.9128065 1.5904506 0.5811154 0.7101988 1.6650972 1.3846856 0.8212441
3.2334309 0.5919479 1.9298582 2.1747894 0.90980136 0.570815 0.9596098 2.054396
2.4219007 0.3997179 0.58106077 1.1427706 0.99623346 0.45023426 0.2544686 0.74892366
2.735811 0.39653718 0.73298454 0.87540716 0.6702849 0.39735517 0.2784198 0.93630505
3.7418427 0.5781005 1.5878632 1.5269902 0.7173581 0.59685093 1.3065089 2.5899637
3.0458739 1.6395388 1.2238481 0.4846433 0.9572596 2.3745642 1.7561598 0.68460464
2.507657 0.6074489 0.24915817 0.42843017 0.96034676 1.190644 0.65597063 0.6026996
0.7851905 0.24440528 0.35531393 0.26477706 0.18772747 0.1353811 0.11952662 0.36919957
1.287535 0.52168936 1.4390709 0.8854868 0.31168178 0.5406785 1.3654661 1.262405
1.0717044 0.97931695 1.3481268 0.559937 0.35568506 1.2318888 1.32792 0.5165068
0.7400806 0.2677289 0.18427011 0.17702349 0.23268878 0.26493308 0.2934618 0.29369655
1.4679519 0.44674575 0.26928586 0.22839814 0.30235854 0.4298432 0.5127936 0.63478804
1.7848059 1.3432543 2.0448906 0.8732408 0.58727443 1.6126041 2.128518 1.0716263
2.1600597 0.8181861 2.0808926 1.319157 0.5359717 0.9559695 2.127109 2.1414917
1.398614 0.44604766 0.5449512 0.5284242 0.4053242 0.2703489 0.2639644 0.57199544
4.4215255 0.94423133 0.41736454 0.6591821 1.1739314 1.400993 1.0824126 1.110842
5.240503 2.6642745 2.1304362 1.0012125 1.397169 2.911835 2.5829585 1.3541052
5.7263875 1.0032738 2.8625028 2.6790566 1.1690776 0.9382383 1.8247585 3.7226582
4.5212584 0.74430466 1.1163387 1.6265199 1.4365563 0.76394063 0.4420986 1.463273
4.176241 0.69803315 1.1361283 1.3775967 1.1731178 0.65958834 0.3971382 1.3244017
5.4528027 0.9632407 2.3754213 2.4556653 1.325814 0.84961784 1.7183086 3.5282094
5.4971247 2.8279963 2.104757 0.8206405 1.3013595 2.946715 2.4156358 1.2735388
4.7049947 1.0568123 0.45516074 0.6467566 1.3456436 1.6422415 1.0250762 1.1055757
1.276157 0.4354556 0.5518033 0.4354222 0.3376318 0.2024074 0.20013829 0.56286156
2.1336951 0.969588 2.162829 1.446979 0.60625345 0.6985434 1.7960877 1.9312257
1.896682 1.7300673 2.1049564 0.9457719 0.5584591 1.5743225 1.8389953 0.88022214
1.3193545 0.49688384 0.3251529 0.28942433 0.38653654 0.40484428 0.4615016 0.54605186

exp_avg f4 [64]
00000000: 369d d239 ea5c 5fba 4cea 803b c8ec 87bb
00000010: eaeb 133b 0400 0000 b9db b83a 6947 78ba
00000020: 38fd b5bb 63f6 953b 0cdb fb38 e2c9 a33b
00000030: 0400 0000 6cb9 633b b9e5 10ba 1f42 78bb
00000040: 5451 1fbb a7b1 073a f22a d7ba e514 feba
00000050: de4a b03a 4dc9 0a3b 0c4f 6d39 0400 0000
00000060: 158e 213a e4df d63a 9419 e139 2dc5 ee39
00000070: 08f2 85ba 0a7e 813a 0400 0000 b491 43bb
00000080: 81fb 0b3a 5569 a43a 64c7 94bb 40b5 47bb
00000090: 0074 16ba c951 35bb a2d6 343b c03f 213b
000000a0: 65b7 603b 8614 0ebb f85a a737 1ace 92b9
000000b0: 0400 0000 3dfd 513b c7ac 12bc e5b9 10bb
000000c0: f705 51bb a13e 75bb e6a3 893b 28eb 9bba
000000d0: ed9d 353b 337a a5ba 14d1 443a da76 a13b
000000e0: ec6d 0eba 2d8c a0ba 81d5 003b e21c dc3a
000000f0: a3cd 293a 51a4 bfb8 cc32 0b3b 94a1 2cba
0.00040171453 -0.000852062 0.0039341804 -0.0041480996 0.0022571036 6e-45 0.0014103568 -0.000947109
-0.0055538677 0.0045764907 0.00012009413 0.0049984315 6e-45 0.0034747971 -0.00055273954 -0.0037881208
-0.002430995 0.00051763136 -0.0016415997 -0.0019384889 0.0013450047 0.0021177114 0.00022631529 6e-45
0.00061628345 0.0016393629 0.000429344 0.00045541805 -0.0010219226 0.0009879482 6e-45 -0.0029841485
0.0005339906 0.0012543598 -0.004540371 -0.0030473024 -0.0005739331 -0.0027667156 0.0027593751 0.0024604648
0.0034289 -0.0021679713 1.9950312e-05 -0.00028000848 6e-45 0.003204181 -0.008952326 -0.0022083458
-0.0031894424 -0.0037421363 0.0042004464 -0.0011895644 0.002771254 -0.0012624919 0.0007507962 0.0049274983
-0.000543325 -0.0012248807 0.0019658508 0.0016793276 0.00064774806 -9.138196e-05 0.0021239994 -0.00065853563

exp_avg_sq f4 [64]
00000000: 3e21 323a 282c 973a 726f c43a 3afc 9839
00000010: 5fbf 663a 40d5 b01e 303f 4f3a 2d8e 1139
00000020: 7a6e 063a 60dd 4a3a dad9 b73a 0fa3 663a
00000030: 596e 8b1f 832c 033b 6521 0f3a c93e 803a
00000040: 2db9 1f3a 1168 6f39 c331 503a adf3 f739
00000050: ae9a 3a3a 8469 103a 6894 eb39 65d2 161f
00000060: eede 3d3a 9fc9 0c3b 8ac0 633a 3bec 833a
00000070: ea6a 003a d8e9 0a3a 8174 4120 fcf5 5c3a
00000080: 665c 673a 1b23 1c3a 1cfa 313a 0d5d 163a
00000090: 8a00 743a 1899 3f3a e8cc 1b3a f044 3a3a
000000a0: db83 6b3a e41d a53a ffc3 2b3a 1d49 953a
000000b0: 65de 0c21 36c6 8d3a 0473 0c3b c0e3 403a
000000c0: dffa 3f3a 7ef2 843a 7ffe 443a 1043 423a
000000d0: 91e2 043a ec57 c53a 500d b338 e1b7 793a
000000e0: c295 173a 2353 813a 9f19 613a 95f6 b939
000000f0: ba2c 243a b691 b33a bd67 833a d6cb 423a
0.00067951146 0.0011533545 0.0014986827 0.00029179623 0.000880232 1.8722923e-20 0.0007905839 0.00013881242
0.00051281566 0.0007738676 0.0014026717 0.00087981013 5.9051345e-20 0.0020015545 0.0005459993 0.0009784336
0.0006092962 0.00022831584 0.00079419854 0.00047293064 0.0007118386 0.0005508887 0.00044933264 3.193777e-20
0.0007242997 0.002148248 0.00086880533 0.0010064909 0.0004898744 0.00052991277 1.6386284e-19 0.00084289885
0.0008825719 0.0005956159 0.00067892834 0.00057359115 0.00093079417 0.00073088845 0.0005943314 0.00071056094
0.00089841866 0.0012597409 0.0006552338 0.0011389587 4.772818e-19 0.0010816518 0.002143086 0.0007358156
0.00073234545 0.0010143069 0.00075147295 0.0007410506 0.00050691614 0.001505611 8.537865e-05 0.0009525996
0.00057825085 0.0009866696 0.00085868867 0.00035469668 0.00062627683 0.0013700041 0.0010025423 0.00074308866
